wakeword_models/hey_synergy/hey_synergy.onnx (onnx, 205430 bytes, 9 tensors)

layer1.weight f4 [32, 1536]
-0.08674849 0.06705826 -0.051281795 -0.03586482 0.0616395 0.14181788 0.07696619 -0.03941891
-0.0013536272 0.03546594 -0.14787686 -0.18019746 0.15362872 0.0713087 -0.037001792 -0.060156833
-0.17846143 -0.09795679 -0.034664247 -0.074352704 0.027411321 0.033584103 0.0125454385 0.027422624
-0.070029125 0.20207895 -0.1436016 -0.14592934 0.025565388 -0.17959027 -0.12172826 0.118550785
-0.07278697 -0.1693987 0.009094338 0.13328166 0.1443238 0.085504346 -0.015192286 0.110196754
0.16499738 0.08576404 0.08743982 -0.03182408 -0.03479499 -0.015421512 -0.095339745 0.1655821
0.043587215 0.024570283 -0.12282063 -0.05566535 0.12997624 0.13761467 -0.06725078 -0.10860441
-0.061748676 0.10452948 -0.11759011 0.020377748 0.115775354 0.004086789 0.025905555 -0.011860706
0.06810472 0.10153998 -0.08504326 -0.08342261 0.024805158 0.13169909 0.08796818 -0.0033939842
0.10600795 -0.002054698 0.09050577 0.06006619 0.062278338 -0.05152142 -0.14229675 -0.08261084
0.1471591 0.14589821 0.022111107 -0.005628723 0.06409478 0.10893568 0.10731654 -0.012091498
-0.085335456 0.16765277 0.07677247 0.13504265 0.10260906 -0.1250286 -0.028579008 0.07265264
-0.09423889 0.02966807 0.01492655 -0.101113506 0.041733913 0.14500403 0.10210459 -0.06396156
0.03794483 0.074331306 -0.086730056 -0.10161445 0.08257216 -0.04649371 -0.053060416 -0.020603398
0.05060425 0.016865483 -0.043992676 -0.10557472 0.072413936 0.09928243 -0.027836228 0.032579433
0.029709717 0.11024194 -0.17040926 -0.09709628 0.0313182 0.04547747 -0.15878658 0.116305955
-0.13546547 -0.23238163 0.033232972 0.115295984 0.15309654 0.050916836 -0.030629817 0.07932114
0.0107990075 0.055262405 0.12601873 -0.06687228 -0.10292062 -0.07165986 -0.043175183 0.09817977
0.059098072 -0.014835573 -0.1127913 0.010616529 0.08000822 0.12570995 -0.10008898 -0.10722476
-0.049192205 0.07288882 -0.12466878 -0.021183552 0.19023989 0.032242537 0.04181545 0.03543882
0.0760126 0.05811517 0.031239733 -0.07194654 -0.034562644 -0.07316647 -0.07735289 0.034554567
0.03716983 -0.00034498438 0.0919049 0.12198841 0.020516055 -0.042538024 -0.14278054 -0.092623994
0.17494734 0.096502565 0.020554094 0.06366486 0.08226153 0.045954 0.1315671 -0.022251504
-0.05680399 0.16404358 0.108967036 0.08562249 0.093892656 -0.08938827 -0.03055897 0.09739033
-0.08592722 -0.008984655 0.11326176 -0.17542963 -0.011603811 0.1426408 0.16376258 -0.06470533
0.01046851 0.09521632 -0.095169306 -0.047263123 -0.075257905 -0.042010397 -0.16296114 0.068415806
0.014300924 0.043702252 -0.039289713 -0.13790853 0.12545724 0.13991936 -0.068510085 -0.113372914
0.041392703 0.09542635 -0.120792866 -0.14023425 -0.09999317 0.18807913 -0.07905214 0.1140583
-0.12807009 -0.07856291 0.056764755 -0.039028876 0.15523793 0.0751026 -0.05229567 0.08345315
0.028314078 -0.0012112044 0.10894575 -0.0474945 -0.07549056 -0.13660619 -0.05065588 0.05547698
0.11950377 -0.042999554 -0.087069795 -0.008806453 0.16447933 -0.0023807418 -0.079975925 -0.10248939
0.026208784 0.058326174 -0.11542443 -0.064651415 0.11467464 -0.047931444 -0.004291203 -0.08035632
00000000: 31a9 b1bd d755 893d dc0c 52bd fde6 12bd
00000010: b379 7c3d b538 113e 73a0 9d3d b975 21bd
00000020: 316c b1ba bc44 113d 086d 17be af85 38be
00000030: d950 1d3e 4c0a 923d 318f 17bd 0367 76bd
00000040: 98be 36be 929d c8bd 19fc 0dbd 3b46 98bd
00000050: b58d e03c 7c8f 093d 628b 4d3c 69a5 e03c
00000060: 6e6b 8fbd c9ed 4e3e 4c0c 13be 806e 15be
00000070: 816e d13c 83e6 37be aa4c f9bd c1ca f23d
00000080: 5611 95bd da76 2dbe 6b00 153c fd7a 083e
00000090: 9ec9 133e e71c af3d 11e9 78bc d6ae e13d
000000a0: 13f5 283e 0fa5 af3d a613 b33d f759 02bd
000000b0: 3185 0ebd 82aa 7cbc 7c41 c3bd 5b8e 293e
000000c0: 8288 323d 9e47 c93c 6289 fbbd 5a01 64bd
000000d0: 7e18 053e dcea 0c3e c7ba 89bd fd6b debd
000000e0: 2eec 7cbd 8d13 d63d 15d3 f0bd 3cef a63c
000000f0: a11b ed3d 79ea 853b e337 d43c 6853 42bc
00000100: 7d7a 8b3d 31f4 cf3d 292b aebd 79d9 aabd
00000110: 3034 cb3c 20dc 063e a928 b43d 9b6d 5ebb
00000120: b21a d93d 1da8 06bb 175b b93d f707 763d
00000130: 9217 7f3d 2008 53bd 3db6 11be df2f a9bd
00000140: e0b0 163e 5766 153e 5a22 b53c 2771 b8bb
00000150: 2044 833d ab19 df3d c6c8 db3d 6b1b 46bc
00000160: 5bc4 aebd 2bad 2b3e e23a 9d3d 9f48 0a3e
00000170: b324 d23d 7f07 00be 861e eabc e8ca 943d
00000180: 5200 c1bd 740a f33c 7d8e 743c 9914 cfbd
00000190: 2ef1 2a3d f07b 143e 361c d13d 47fe 82bd
000001a0: 0a6c 1b3d 033b 983d 879f b1bd 3d1b d0bd
000001b0: 981b a93d 3070 3ebd e155 59bd 75c8 a8bc
000001c0: 6746 4f3d 7b29 8a3c aa31 34bd 8f37 d8bd
000001d0: c24d 943d 9654 cb3d cd08 e4bc 0372 053d
000001e0: cb61 f33c 87c6 e13d c47f 2ebe 6ada c6bd
000001f0: 8347 003d 9546 3a3d f398 22be d131 ee3d
00000200: 76b7 0abe 73f5 6dbe 4c1f 083d 4d20 ec3d
00000210: 57c5 1c3e 2c8e 503d 62eb fabc 1f73 a23d
00000220: 52ee 303c d55a 623d 0e0b 013e 55f4 88bd
00000230: 0cc8 d2bd 68c2 92bd 76d8 30bd 7a12 c93d
00000240: d210 723d e710 73bc 20ff e6bd f3f0 2d3c
00000250: 5adb a33d 1cba 003e 73fb ccbd a898 dbbd
00000260: c47d 49bd bc46 953d 5852 ffbd 2189 adbc
00000270: 3fce 423e c010 043d ad46 2b3d 4c28 113d
00000280: 7eac 9b3d 2c0a 6e3d 78ea ff3c b558 93bd
00000290: 8f91 0dbd 4dd8 95bd 316b 9ebd 1789 0d3d
000002a0: 643f 183d 05df b4b9 a338 bc3d 0fd5 f93d
000002b0: 4911 a83c 5a3c 2ebd 1035 12be a6b1 bdbd
000002c0: 6525 333e 23a3 c53d 0f61 a83c b962 823d
000002d0: bc78 a83d 433a 3c3d 87b9 063e c948 b6bc
000002e0: 4dab 68bd 0afb 273e 1c2a df3d d85a af3d
000002f0: cb4a c03d 3311 b7bd ce56 fabc 9574 c73d
00000300: 9cfa afbd 6034 13bc c8f5 e73d d3a3 33be
00000310: e91d 3ebc 6e10 123e 61b1 273e 3a84 84bd
00000320: 1d84 2b3c c600 c33d 20e8 c2bd fa96 41bd
00000330: d120 9abd 1813 2cbd 49df 26be 961d 8c3d
00000340: 6c4e 6a3c 2201 333d 40ee 20bd e537 0dbe
00000350: dd77 003e 0547 0f3e 044f 8cbd 0f30 e8bd
00000360: 658b 293d e46e c33d 4062 f7bd 9199 0fbe
00000370: 38c9 ccbd d197 403e 17e6 a1bd 6697 e93d
00000380: ce24 03be 97e5 a0bd 2982 683d bedc 1fbd
00000390: b1f6 1e3e 64cf 993d fc33 56bd 7ce9 aa3d
000003a0: edf2 e73c 47c1 9eba f31e df3d 9889 42bd
000003b0: cb9a 9abd 7ee2 0bbe 8a7c 4fbd d43b 633d
000003c0: 64be f43d 4d20 30bd a651 b2bd f148 10bc
000003d0: 456d 283e 3806 1cbb 6bca a3bd f5e5 d1bd
000003e0: ceb3 d63c 6de7 6e3d a563 ecbd f667 84bd
000003f0: 8ada ea3d c353 44bd 389d 8cbb db91 a4bd

layer1.bias f4 [32]
0.13185729 0.15662867 0.009971882 0.11334177 0.05083363 0.08853458 0.13369685 0.11490539
0.012223148 0.07318223 0.07458773 0.063430265 0.06064972 0.16134049 0.05109865 0.031025993
0.1662404 0.006296345 0.046146143 0.007118254 0.05614025 0.046676166 0.14357711 0.1835278
0.15333104 0.076691 0.172806 0.0029776215 0.013898784 0.17293072 0.01937002 0.014750876
00000000: 9905 073e 4463 203e 1b61 233c bb1f e83d
00000010: ed36 503d 9e51 b53d d4e7 083e 8453 eb3d
00000020: 9943 483c 91e0 953d 74c1 983d bae7 813d
00000030: d76b 783d 7136 253e d14c 513d 392a fe3c
00000040: ec3a 2a3e 9251 ce3b bd03 3d3d 3e40 e93b
00000050: 52f3 653d 822f 3f3d e105 133e b6ee 3b3e
00000060: d002 1d3e 2c10 9d3d 0ef4 303e 3324 433b
00000070: bab7 633c c014 313e e0ad 9e3c a9ad 713c

layernorm1.weight f4 [32]
1.4452324 1.2876437 1.129026 0.9050281 1.0773531 0.83794796 1.2520187 1.0171015
1.1471541 1.1688432 0.99142605 0.98259604 1.0907962 1.1825991 1.0831175 1.1662747
1.4427267 1.2995238 1.1804073 1.0561951 1.1370684 1.042552 1.1108513 1.8549194
1.0445964 0.9862427 1.2965847 1.1433585 1.0767852 1.4025826 1.135528 1.0598282
00000000: 60fd b83f 82d1 a43f ed83 903f ecaf 673f
00000010: b5e6 893f c283 563f 2642 a03f 6230 823f
00000020: f2d5 923f a79c 953f 19ce 7d3f 6a8b 7b3f
00000030: 369f 8b3f 685f 973f 98a3 8a3f 7d48 953f
00000040: 45ab b83f cc56 a63f 9617 973f 6731 873f
00000050: 758b 913f 5872 853f 6030 8e3f 006e ed3f
00000060: 56b5 853f 677a 7c3f 7df6 a53f 9259 923f
00000070: 19d4 893f d487 b33f fb58 913f 73a8 873f

layernorm1.bias f4 [32]
0.07537956 0.080919415 -0.0005095145 -0.095235504 0.016076135 -0.07179581 0.009548828 0.012085465
-0.024918279 0.05681182 -0.051424336 -0.011941339 0.029904712 0.054830063 0.005879942 0.097103335
0.049082924 -0.002979311 0.052166294 0.0010034776 0.03381193 0.0045656785 0.10470178 0.07220236
0.058067355 -0.03360385 0.044327863 0.014014186 0.041973077 0.057363555 -0.027365386 -0.016511137
00000000: 9960 9a3d 14b9 a53d f090 05ba d50a c3bd
00000010: 19b2 833c ae09 93bd b072 1c3c 1d02 463c
00000020: 6b21 ccbc 83b3 683d 53a2 52bd 9ba5 43bc
00000030: bafa f43c 7d95 603d 87ac c03b 1dde c63d
00000040: 2d0b 493d 8b40 43bb 53ac 553d 1f87 833a
00000050: 617e 0a3d b09b 953b e36d d63d d5de 933d
00000060: 09d8 6d3d 31a4 09bd 2291 353d c29b 653c
00000070: f6eb 2b3d 0cf6 6a3d 602d e0bc 5d42 87bc

blocks.0.fcn_layer.weight f4 [32, 32]
0.3838984 0.21036679 -0.2748378 0.060010616 -0.11753685 0.12997054 0.44073436 -0.04910529
-0.28097627 0.01963144 -0.019592103 -0.14792243 -0.2321409 -0.095134415 -0.13924775 -0.21998848
0.46929044 -0.30945286 -0.2966913 -0.31062326 -0.36069232 -0.038644474 0.15491925 0.6787556
0.10503684 0.023308119 0.06794902 -0.3387451 -0.31587154 0.233675 -0.15881634 -0.044124898
0.08082285 0.06898662 0.10610657 0.13014425 0.03634032 0.11866716 0.13081153 -0.058257595
0.29142246 -0.025148138 -0.04606298 0.16562156 0.07061147 -0.11975512 0.20529097 0.18925501
0.20063363 0.12543713 0.20011923 0.23991053 0.11931702 0.24932802 -0.13177288 0.10265405
0.13004349 0.23775117 0.19929612 0.06361247 0.043768644 0.11402796 0.23162854 0.158923
0.3926399 0.37071785 -0.3339437 -0.0128670065 -0.03626651 0.059137747 0.22871357 -0.021147091
-0.25345474 -0.12909427 -0.021789407 -0.20337039 -0.31885538 0.11880181 -0.09178232 -0.18415157
0.36792418 -0.2914991 -0.18561417 -0.29809076 -0.17481887 -0.25389576 0.2234418 0.719608
-0.033275735 -0.05525134 0.16303244 -0.2630983 -0.13399422 0.28599155 -0.1855563 -0.17361276
-0.19359212 -0.25328448 0.38633668 0.08338403 0.4471115 -0.04568659 -0.08501086 -0.018458564
0.36140883 0.23883401 -0.1212398 0.1971772 0.20641102 0.18505615 0.35644475 0.2832134
-0.344837 0.2935745 0.15614359 0.22159205 0.45348126 0.19787683 -0.25012472 -0.3732557
-0.02005209 0.21651894 -0.20588973 0.40526548 0.2821352 -0.18134284 0.30912894 0.44192508
-0.3533141 -0.23673011 0.41339767 0.07595533 0.14775302 0.04807915 -0.1504619 0.16011389
0.4591127 0.0305156 0.12114473 0.100605994 0.20171186 0.20586655 0.23639484 0.14147606
-0.40535554 0.5717321 0.24034795 0.3768228 0.32081357 0.1379978 -0.12527789 -0.47233313
-0.14562151 0.051369194 -0.3775124 0.4040435 0.316495 -0.31465113 0.28516236 0.26483598
0.49687418 0.23424388 -0.047402963 -0.16289666 -0.009861349 0.26420248 -0.011141309 0.033236038
-0.3049656 -0.005032206 -0.16703945 -0.1999478 0.00024510585 -0.05022387 -0.15060295 -0.19748628
0.48710924 -0.3510163 -0.38545966 -0.15869966 -0.27027398 -0.106517665 0.2090243 0.83383495
-0.06794805 -0.11103993 0.2814746 -0.40034336 -0.21264134 0.35447657 -0.12721619 -0.1941931
0.46472147 0.39840436 -0.31181887 0.13130331 -0.29366013 -0.12782367 0.35844114 0.047593072
-0.33630663 0.027663443 0.010177099 -0.024915215 -0.2530776 0.034675755 -0.2120327 -0.30135563
0.270265 -0.40582758 -0.21009946 -0.12972318 -0.2995738 -0.16305096 0.1453994 0.67555845
0.147742 -0.14915311 0.24937086 -0.3640416 -0.17111157 0.31177658 -0.14224356 -0.083030194
-0.21964002 -0.15958256 0.2869321 0.08025031 0.23356347 0.056179 -0.05766978 -0.004291047
0.32236066 0.0020586662 0.17141533 0.23402734 0.2991204 -0.19256783 0.26757744 0.29428878
-0.17277326 0.25133044 0.44169655 0.24002652 0.16774842 0.3109236 0.015599428 -0.42260614
-0.011086355 0.1944559 -0.077495776 0.25057238 0.35871568 -0.1891408 0.37699965 0.2323575
00000000: 558e c43e 646a 573e 8ab7 8cbe b1cd 753d
00000010: 29b7 f0bd ff16 053e efa7 e13e a122 49bd
00000020: 1fdc 8fbe 1dd2 a03c 9e7f a0bc fa78 17be
00000030: 58b6 6dbe d5d5 c2bd f696 0ebe a944 61be
00000040: d646 f03e 9b70 9ebe ece7 97be 030a 9fbe
00000050: aaac b8be ab49 1ebd 27a3 1e3e edc2 2d3f
00000060: 8e1d d73d abf0 be3c db28 8b3d ff6f adbe
00000070: eab9 a1be 8048 6f3e c0a0 22be 4fbc 34bd
00000080: 7386 a53d db48 8d3d 674e d93d 8944 053e
00000090: 96d9 143d c507 f33d 75f3 053e 849f 6ebd
000000a0: 5335 953e 7803 cebc 89ac 3cbd b398 293e
000000b0: bf9c 903d 2c42 f5bd cc37 523e 11cc 413e
000000c0: e772 4d3e 9772 003e 0eec 4c3e 1bab 753e
000000d0: 7b5c f43d d84f 7f3e 78ef 06be 493c d23d
000000e0: 1f2a 053e 0b75 733e 4814 4c3e 4147 823d
000000f0: c046 333d 7e87 e93d 0830 6d3e b6bc 223e
00000100: 1908 c93e bbce bd3e abfa aabe 23d0 52bc
00000110: 318c 14bd 6c3a 723d e433 6a3e aa3c adbc
00000120: d2c4 81be 4a31 04be b37f b2bc 5440 50be
00000130: 0341 a3be 5d4e f33d 5ef8 bbbd 3b92 3cbe
00000140: 8f60 bc3e 5f3f 95be a411 3ebe 5a9f 98be
00000150: b803 33be a0fe 81be edcd 643e 3b38 383f
00000160: 234c 08bd 3b4f 62bd faf1 263e d2b4 86be
00000170: c835 09be 7c6d 923e 7902 3ebe 8bc7 31be
00000180: 033d 46be 81ae 81be eccd c53e 3fc5 aa3d
00000190: cceb e43e dd21 3bbd 2c1a aebd 6a36 97bc
000001a0: 940a b93e e790 743e 924c f8bd d2e8 493e
000001b0: 695d 533e 5c7f 3d3e ed7f b63e 5901 913e
000001c0: 7a8e b0be 664f 963e 1be4 1f3e 07e9 623e
000001d0: b22e e83e 39a0 4a3e 5910 80be 5f1b bfbe
000001e0: 4844 a4bc 24b7 5d3e c2d4 52be f57e cf3e
000001f0: 0674 903e f0b1 39be 2646 9e3e 0144 e23e
00000200: 96e5 b4be 6169 72be dca8 d33e 788e 9b3d
00000210: 914c 173e a5ee 443d af12 1abe e5f4 233e
00000220: d210 eb3e dafb f93c ba1a f83d 840a ce3d
00000230: 8e8d 4e3e aece 523e 7d11 723e 1adf 103e
00000240: c38a cfbe 095d 123f c61d 763e ebee c03e
00000250: ad41 a43e 4c4f 0d3e d948 00be a6d5 f1be
00000260: ce1d 15be 8168 523d 4e49 c1be cade ce3e
00000270: a20b a23e f419 a1be cd00 923e 9598 873e
00000280: 4b66 fe3e a1dd 6f3e 9c29 42bd 62ce 26be
00000290: 7f91 21bc 8c45 873e 098a 36bc 8322 083d
000002a0: 7324 9cbe 34e5 a4bb 640c 2bbe 1ebf 4cbe
000002b0: 8d81 8039 8bb7 4dbd a937 1abe d839 4abe
000002c0: 6266 f93e 69b8 b3be f85a c5be 2a82 22be
000002d0: 5a61 8abe ef25 dabd 770a 563e 3576 553f
000002e0: 5928 8bbd e768 e3bd 701d 903e cef9 ccbe
000002f0: a7be 59be f47d b53e f644 02be 8eda 46be
00000300: f9ef ed3e a8fb cb3e b9a6 9fbe 6074 063e
00000310: 9f5a 96be 35e4 02be 9985 b73e f4f0 423d
00000320: 6230 acbe 729e e23c d9bd 263c fe1a ccbc
00000330: 6393 81be 2a08 0e3d 1a1f 59be 494b 9abe
00000340: 2d60 8a3e a2c8 cfbe 5024 57be 27d6 04be
00000350: bd61 99be d5f6 26be 95e3 143e 66f1 2c3f
00000360: ae49 173e 98bb 18be 135b 7f3e a963 babe
00000370: df37 2fbe 2ea1 9f3e 4ca8 11be bc0b aabd
00000380: 50e9 60be 9c69 23be c4e8 923e 465a a43d
00000390: 432b 6f3e f31b 663d 2637 6cbd e99b 8cbb
000003a0: 750c a53e b0ea 063b 8087 2f3e dda4 6f3e
000003b0: 4f26 993e 8030 45be e9ff 883e 05ad 963e
000003c0: 79eb 30be 62ae 803e 0d26 e23e 83c9 753e
000003d0: 3ec6 2b3e 6131 9f3e be94 7f3c d55f d8be
000003e0: 8ba3 35bc 731f 473e 1bb6 9ebd 064b 803e
000003f0: 95a9 b73e 20ae 41be 1906 c13e 20ef 6d3e

blocks.0.fcn_layer.bias f4 [32]
0.28476146 0.070373304 0.12021283 0.094999716 -0.15639561 0.10164892 0.10411229 -0.105477214
0.014025179 -0.04778576 0.014431307 -0.13396391 0.041721594 -0.004312961 -0.009080838 -0.0041910913
-0.12531734 0.09031985 -0.19039953 0.0146583365 -0.070564255 -0.005666779 -0.14434509 -0.03655949
-0.1067427 0.08007806 0.065308526 0.16360429 -0.1990238 0.1980601 0.08346746 -0.048637394
00000000: 41cc 913e e11f 903d 2532 f63d 368f c23d
00000010: 2c26 20be 4f2d d03d d338 d53d 7004 d8bd
00000020: ddc9 653c 00bb 43bd 4a71 6c3c d62d 09be
00000030: 43e4 2a3d bd53 8dbb ccc7 14bc 6c55 89bb
00000040: 3053 00be 9df9 b83d 18f8 42be 8529 703c
00000050: fe83 90bd 63b0 b9bb 33cf 13be 67bf 15bd
00000060: eb9b dabd f7ff a33d 7ac0 853d e287 273e
00000070: e5cc 4bbe 44d0 4a3e fdf0 aa3d 0138 47bd

blocks.0.layer_norm.weight f4 [32]
1.3180091 1.1775302 1.3070499 1.2577088 1.2578101 1.2847933 1.4400833 1.1858819
0.95573163 1.435701 1.3586141 1.1874173 1.1834946 1.4366562 1.3307369 1.2719913
1.4025463 1.1764821 1.4570311 1.1563647 1.4338105 1.0460963 1.3236414 0.9961319
1.337815 0.9670674 1.298194 1.0075575 1.3955835 0.89816004 1.4707316 1.4589128
00000000: 86b4 a83f 4fb9 963f 694d a73f 9afc a03f
00000010: ecff a03f 1b74 a43f a654 b83f faca 973f
00000020: d4aa 743f 0dc5 b73f 11e7 ad3f 4afd 973f
00000030: c07c 973f 5ae4 b73f 9655 aa3f 9cd0 a23f
00000040: a386 b33f f796 963f ff7f ba3f c203 943f
00000050: 1a87 b73f 7ce6 853f 156d a93f 8002 7f3f
00000060: 863d ab3f bb91 773f 392b a63f a5f7 803f
00000070: 7ba2 b23f d1ed 653f ef40 bc3f a8bd ba3f

blocks.0.layer_norm.bias f4 [32]
0.12039377 0.29311332 0.16692506 0.24086098 0.33209598 0.02735754 0.17557524 0.1933259
0.014828755 0.063583605 0.26091266 0.099514864 0.17383313 -0.053345706 0.076726004 0.2100536
0.26937878 0.18371455 0.21750204 0.05637061 0.097108595 -0.15096128 0.20127259 0.014054867
0.15133746 -0.060592953 0.1884004 -0.28180465 0.079509966 0.0425702 0.19475338 0.11498115
00000000: 0291 f63d f312 963e 67ee 2a3e 43a4 763e
00000010: 7c08 aa3e eb1c e03c ffc9 333e 3af7 453e
00000020: 4ef4 723c 1f38 823d 5896 853e 73ce cb3d
00000030: 5001 323e 0781 5abd 8622 9d3d 4a18 573e
00000040: 04ec 893e ab1f 3c3e dbb8 5e3e dee4 663d
00000050: dfe0 c63d 9895 1abe 671a 4e3e 6346 663c
00000060: 35f8 1a3e 5130 78bd 09ec 403e b348 90be
00000070: 1fd6 a23d 175e 2e3d 6e6d 473e 3d7b eb3d

last_layer.weight f4 [1, 32]
-0.47049642 0.19425066 -0.38184258 0.43049267 0.4251466 -0.38964155 -0.55077726 0.1997396
0.12537684 0.41939634 0.36073932 0.28993073 0.34396797 0.56156456 0.3965675 0.31121755
0.4670522 0.266269 0.48788568 0.25330913 0.40788856 0.2992609 0.3604401 -0.11103936
0.32703036 -0.118671894 0.32905698 -0.3228745 0.45214236 -0.08307421 -0.51318884 -0.57157755
00000000: e8e4 f0be a5e9 463e df80 c3be 8969 dc3e
00000010: d1ac d93e 197f c7be bdff 0cbf 8a88 4c3e
00000020: c962 003e 1ebb d63e d3b2 b83e cd71 943e
00000030: 921c b03e b2c2 0f3f e50a cb3e e857 9f3e
00000040: 7721 ef3e 6954 883e 27cc f93e bcb1 813e
00000050: c5d6 d03e ba38 993e 9b8b b83e 9b68 e3bd
00000060: 8670 a73e 400a f3bd 287a a83e ce4f a5be
00000070: 347f e73e d022 aabd 5860 03bf e852 12bf
