wakeword_models/hey_acuity/hey_acuity (4).onnx (onnx, 205430 bytes, 9 tensors)

layer1.weight f4 [32, 1536]
-0.0073075886 0.07541778 0.108032994 -0.008025041 0.1645149 0.12270498 0.11165732 -0.070005946
-0.03311581 0.046955653 -0.12698828 -0.12523896 0.09819355 0.025410568 -0.11843714 -0.054817617
-0.07967879 0.12205981 -0.045775484 -0.07943032 0.109636284 0.086652495 -0.12681235 0.010053061
-0.12565877 0.077155165 -0.039778188 -0.095639996 -0.029987 0.068797395 -0.12699117 0.12086139
-0.079965234 -0.017940173 -0.062671766 0.082691796 0.07928896 0.0643538 -0.11672316 0.123948604
-0.026185315 0.10061986 0.07334538 -0.025352232 -0.08838489 -0.045607407 -0.07911648 -0.13665031
0.013984506 0.041575152 -0.016154034 -0.055274576 0.059058663 0.008061722 -0.1316767 -0.06017851
-0.017217431 0.059836626 -0.07877086 0.069970675 0.10431252 0.0819331 0.08794152 0.0045217425
0.06710983 0.034046706 0.07106631 -0.038637042 -0.024729824 -0.035021473 0.012059566 0.07017311
0.015269644 -0.08762822 0.10201087 -0.028724233 0.10928051 0.058518864 -0.052351803 -0.059573248
0.036305085 -0.011522098 0.025388295 -0.105923876 0.076326214 -0.038917657 0.053600874 -0.101846926
0.11905355 0.059168678 -0.010564361 0.060238868 0.058135394 -0.10545077 0.035561435 0.089689456
-0.068721205 0.07330692 -0.0040298705 -0.075076506 0.047351874 0.07165532 0.032743655 -0.08754051
-0.046666447 0.018537788 -0.067636035 -0.16698323 0.07719041 -0.037138835 -0.057766024 -0.044436343
0.034687933 0.043842826 0.004464573 -0.05004582 -0.012274092 0.060907274 -0.06533225 -0.1140883
-0.10499322 0.0541845 -0.04814267 -0.004883961 0.01774562 0.013952992 -0.05572188 0.09422016
-0.07932773 -0.116393894 -0.06400262 0.038063355 0.08455039 0.038162746 -0.07667107 0.10848212
-0.01885808 0.07868284 0.101754285 -0.09385883 -0.038721766 -0.116533786 -0.066172734 -0.010200633
0.009346946 0.055427898 -0.113082185 0.0548235 0.069597796 -0.0027391643 -0.0965737 -0.0556661
-0.069959715 0.08091041 -0.052696593 0.05861681 0.037015587 -0.03533874 0.0126011325 0.04395395
0.11947371 0.04472499 0.06121552 -0.028827148 0.023718385 -0.029779902 -0.01964966 0.09569359
0.065219514 -0.06544911 0.053012937 0.01696266 0.08474122 0.04949449 -0.060410902 -0.10281511
-0.010450188 -0.02393946 0.04630144 -0.07933788 0.12456068 -0.08744772 0.05315038 -0.08083868
0.08613843 0.07410969 0.04270714 0.04775809 0.10743981 -0.05526411 0.022374334 0.08502618
-0.040342998 0.06903624 -0.11537674 -0.12063628 0.031029034 0.069448374 0.04547509 -0.08062244
0.11018917 -0.026163884 -0.111510985 -0.1589357 -0.05388851 -0.042403627 0.015056077 0.04021355
0.07176103 0.015425297 -0.0510575 -0.06640242 -0.017736616 0.102562815 -0.08561049 -0.07333761
-0.04656153 0.0998869 -0.05942443 0.04070202 -0.027521724 0.0583564 -0.03327806 0.076000385
-0.043915253 -0.12217565 -0.091327675 0.052108828 0.06970585 0.08483934 0.08970979 0.0750048
-0.0055572083 0.018781858 0.06410815 -0.0353005 -0.06477488 -0.03179865 -0.052605286 -0.016891591
0.05796463 0.117065065 -0.07138184 0.06729285 0.07834495 -0.010943488 -0.10078914 -0.037473533
-0.09281699 0.067286514 -0.0860517 0.0018004704 -0.042518493 0.046094127 -1.947685e-05 0.021614004
00000000: 7f74 efbb a374 9a3d 6740 dd3d 767b 03bc
00000010: 9876 283e c04c fb3d 98ac e43d 475f 8fbd
00000020: 72a4 07bd 9254 403d 3709 02be a43e 00be
00000030: b319 c93d d329 d03c 2c8f f2bd 7088 60bd
00000040: a22e a3bd 7efa f93d 137f 3bbd 5dac a2bd
00000050: fd88 e03d dd76 b13d 19db 01be 98b5 243c
00000060: b1ac 00be 8703 9e3d 74ee 22bd e7de c3bd
00000070: 4ca7 f5bc a6e5 8c3d f909 02be 2d86 f73d
00000080: d0c4 a3bd 45f7 92bc 0e5a 80bd 515a a93d
00000090: 4062 a23d edcb 833d 8d0c efbd c4d8 fd3d
000000a0: 9682 d6bc c911 ce3d 1a36 963d 7caf cfbc
000000b0: 2303 b5bd d5ce 3abd d207 a2bd 0fee 0bbe
000000c0: 451f 653c b54a 2a3d 7755 84bc 9867 62bd
000000d0: 7fe7 713d 5015 043c 42d6 06be be7d 76bd
000000e0: 920b 8dbc 4017 753d 9e52 a1bd c94c 8f3d
000000f0: cda1 d53d 8bcc a73d af1a b43d 202b 943b
00000100: e170 893d 8f74 0b3d 378b 913d e041 1ebd
00000110: 3396 cabc ad72 0fbd 7c95 453c ebb6 8f3d
00000120: 872d 7a3c 6d76 b3bd 13eb d03d 154f ebbc
00000130: 76ce df3d 7ab1 6f3d d86e 56bd 1403 74bd
00000140: a4b4 143d 2fc7 3cbc 1dfb cf3c 9eee d8bd
00000150: eb50 9c3d 1f68 1fbd 978c 5b3d 1f95 d0bd
00000160: 59d2 f33d db5a 723d 2416 2dbc 08bd 763d
00000170: 611f 6e3d 93f6 d7bd dea8 113d 1baf b73d
00000180: b4bd 8cbd f021 963d 010d 84bb b6c1 99bd
00000190: 0af4 413d 06c0 923d 361e 063d 7048 b3bd
000001a0: 5125 3fbd 8fdc 973c c384 8abd a7fd 2abe
000001b0: 0116 9e3d e41e 18bd 119c 6cbd e202 36bd
000001c0: ef14 0e3d 8994 333d 8e4b 923b d9fc 4cbd
000001d0: 4619 49bc e879 793d eacc 85bd 20a7 e9bd
000001e0: af06 d7bd 91f0 5d3d 4031 45bd a209 a0bb
000001f0: 435f 913c 179b 643c a03c 64bd 80f6 c03d
00000200: 9476 a2bd ec5f eebd ce13 83bd 52e8 1b3d
00000210: c128 ad3d 8a50 1c3d b905 9dbd e02b de3d
00000220: 437c 9abc 7824 a13d 8d64 d03d 0f39 c0bd
00000230: b79a 1ebd 44a9 eebd 9285 87bd 8e20 27bc
00000240: ef23 193c 5d08 633d a297 e7bd 9b8e 603d
00000250: 4a89 8e3d 8d83 33bb 6fc8 c5bd 2302 64bd
00000260: 0a47 8fbd 5bb4 a53d 62d8 57bd 2e18 703d
00000270: a89d 173d 5bbf 10bd fb74 4e3c 0f09 343d
00000280: a2ae f43d 8d31 373d 20bd 7a3d e926 ecbc
00000290: 0f4d c23c fbf4 f3bc 53f8 a0bc 00fb c33d
000002a0: cf91 853d 2f0a 86bd 1824 593d 47f5 8a3c
000002b0: ce8c ad3d bcba 4a3d 6c71 77bd ba90 d2bd
000002c0: 4437 2bbc b01c c4bc 94a6 3d3d e67b a2bd
000002d0: ab19 ff3d ca17 b3bd 36b4 593d c08e a5bd
000002e0: 5869 b03d d2c6 973d afed 2e3d fd9d 433d
000002f0: 6709 dc3d 9f5c 62bd 614a b73c 3522 ae3d
00000300: b33e 25bd df62 8d3d a44a ecbd 2710 f7bd
00000310: 9a30 fe3c f33a 8e3d 1744 3a3d 611d a5bd
00000320: dcaa e13d a455 d6bc df5f e4bd 0ac0 22be
00000330: 33ba 5cbd 6daf 2dbd c4ad 763c f7b6 243d
00000340: 72f7 923d 63ba 7c3c ab21 51bd fefd 87bd
00000350: 614c 91bc 740c d23d 8d54 afbd 0732 96bd
00000360: 4eb7 3ebd 8191 cc3d 0867 73bd 29b7 263d
00000370: 3d75 e1bc 1f07 6f3d 934e 08bd 17a6 9b3d
00000380: 7be0 33bd 3a37 fabd 010a bbbd 1170 553d
00000390: f1c1 8e3d 3fc0 ad3d c4b9 b73d 1e9c 993d
000003a0: 3e19 b6bb 69dc 993c 224b 833d 4297 10bd
000003b0: b1a8 84bd 4d3f 02bd a478 57bd 3c60 8abc
000003c0: 526c 6d3d cfbf ef3d a430 92bd d5d0 893d
000003d0: 5173 a03d 514c 33bc 896a cebd d97d 19bd
000003e0: d616 bebd 83cd 893d e03b b0bd c3fd eb3a
000003f0: df27 2ebd 32cd 3c3d 3862 a3b7 da0f b13c

layer1.bias f4 [32]
0.090137 0.003650418 -0.01314776 0.08995252 0.12322694 -0.0036446191 -0.003455837 -0.0054462287
0.017085157 0.08484725 0.04652895 0.0021469286 0.009708105 0.09805688 0.012758622 0.019180676
-0.000991129 -0.015620794 0.019866377 0.13333014 0.009758082 0.09934613 -0.0054174913 0.11740526
-0.011816366 0.08174668 0.0748706 0.08769928 0.07839473 0.116778545 0.03132782 0.04882685
00000000: bf99 b83d da3b 6f3b b469 57bc 0739 b83d
00000010: 685e fc3d 90da 6ebb 537b 62bb 4776 b2bb
00000020: 2cf6 8b3c 65c4 ad3d 2495 3e3d 7cb3 0c3b
00000030: be0e 1f3c 0cd2 c83d 8a09 513c cb20 9d3c
00000040: c5e8 81ba 5cee 7fbc d0be a23c b287 083e
00000050: 5de0 1f3c fc75 cb3d 3685 b1bb 2b72 f03d
00000060: 6e99 41bc ce6a a73d c255 993d ae9b b33d
00000070: 6b8d a03d 9729 ef3d 9a51 003d aafe 473d

layernorm1.weight f4 [32]
0.9830397 1.0149789 1.0389034 1.261144 1.4499243 0.8741293 0.97682595 1.071927
1.088562 1.0474031 0.88435477 0.9641087 1.1708977 1.2075166 0.9736944 1.0600395
0.9872096 1.0324082 1.129504 1.4254937 0.96605533 1.004164 0.93021303 0.9867999
1.112595 1.174568 1.2168695 1.1089251 1.3007681 1.2834663 0.93538195 0.98783
00000000: 7da8 7b3f d4ea 813f c9fa 843f 2b6d a13f
00000010: 1f97 b93f f0c6 5f3f 4411 7a3f e734 893f
00000020: 0056 8b3f 4e11 863f 1365 623f d4cf 763f
00000030: fadf 953f e78f 9a3f 0944 793f 60af 873f
00000040: c5b9 7c3f f425 843f 9693 903f 9476 b63f
00000050: 674f 773f 7288 803f 7122 6e3f eb9e 7c3f
00000060: 8369 8e3f 3f58 963f 61c2 9b3f 42f1 8d3f
00000070: 927f a63f a048 a43f 3175 6f3f 6de2 7c3f

layernorm1.bias f4 [32]
0.05913654 0.07266053 -0.058361754 -0.0011477255 -0.002827473 -0.12708086 -0.11050944 -0.015696375
-0.037618708 0.049508918 -0.07968981 -0.09009751 0.0055109067 -0.013372458 -0.047816545 0.019643553
-0.058864634 -0.036382362 -0.00512503 0.0010642571 -0.06377769 0.05161854 -0.08542053 0.035977032
-0.0033402846 0.0057543116 0.049505096 -0.016628342 0.005638815 0.013539317 0.0038345347 -0.027513757
00000000: 2839 723d 0bcf 943d bc0c 6fbd 476f 96ba
00000010: 204d 39bb 7c21 02be c652 e2bd af95 80bc
00000020: 1316 1abd ddc9 4a3d 6934 a3bd 0b85 b8bd
00000030: d694 b43b 2718 5bbc 48db 43bd 84eb a03c
00000040: 0b1c 71bd ac05 15bd deef a7bb 8b7e 8b3a
00000050: e19d 82bd f66d 533d f5f0 aebd a75c 133d
00000060: ade8 5abb aa8e bc3b dbc5 4a3d 2938 88bc
00000070: cfc5 b83b 03d4 5d3c d14c 7b3b 8864 e1bc

blocks.0.fcn_layer.weight f4 [32, 32]
0.019282367 0.27393705 0.32863608 0.042519856 -0.23276143 0.10633584 0.22064994 0.26865515
0.11190963 -0.12132711 0.00035696238 0.31394953 0.3813388 -0.18693289 0.20801784 0.27203298
0.31660658 0.27114293 0.35922745 -0.14070001 0.12053434 -0.07903576 0.16313395 0.00012298
0.2283661 -0.08841067 -0.012732997 -0.043705508 -0.043151256 -0.12711716 0.28277895 0.09166052
-0.059960727 0.28037903 0.14419729 -0.18811761 -0.14762576 0.12133093 0.2185499 0.1656446
0.11109353 -0.036011785 -0.029564375 0.1763118 0.2565083 -0.21738286 0.1079411 0.032023672
0.17163078 0.23176011 0.2195558 -0.17800866 0.012295849 0.03538815 0.123961575 0.062840216
0.23576795 -0.05965118 -0.22681795 -0.07155315 -0.16027938 -0.1391223 0.16722949 -0.07035093
0.18164983 -0.18181932 -0.19741738 0.11513502 0.34762728 -0.2978118 -0.24867299 -0.25762242
-0.30107033 0.0967533 -0.089987434 -0.1645406 -0.37069556 0.06333604 -0.17799357 0.09082927
-0.35317537 -0.14780533 -0.32020015 0.3486009 -0.14845145 0.079013206 -0.05012056 0.13028926
-0.13711634 0.12531865 0.00032670665 0.21096149 0.31469008 0.33608928 -0.11069055 -0.13531047
0.06771071 0.06951678 0.27167472 -0.31034556 -0.2835265 0.22486205 0.16739112 0.2623849
0.098264545 0.11439907 0.03499764 0.16321047 0.30887318 -0.34359413 0.11957795 -0.10076527
0.16847223 0.02873728 0.18407647 -0.36971578 0.042931914 -0.079258494 0.18414931 -0.15212128
0.14698458 -0.19967563 -0.3302234 -0.16712445 -0.2713077 -0.21899813 0.18993437 0.21434857
-0.078882575 0.32619223 0.18582 -0.010326917 -0.05262637 0.2878502 0.28281307 0.3507645
0.19556227 -0.06403903 0.16970663 0.2918433 0.37604636 -0.09288784 0.35791856 0.30844337
0.28090063 0.27612945 0.3611231 -0.18176398 0.20530772 -0.0021644693 0.23949645 -0.079038836
0.2978472 -0.04548573 0.05425234 0.0384386 0.03064001 -0.08869943 0.37247872 -0.01046474
0.007925355 0.3077122 0.21381523 -0.14300993 -0.22352955 0.091617316 0.20753622 0.28782216
0.13139786 0.033075433 0.033743594 0.2002255 0.289499 -0.17497525 0.16536626 0.14700168
0.23794135 0.1448268 0.31564018 -0.17736919 0.12232416 -0.03431391 0.1683783 0.037302677
0.17103396 -0.09862232 -0.09609911 -0.088828936 -0.1689575 -0.18487753 0.21070272 0.0024592383
-0.0073779607 0.07837664 0.11607886 0.011697508 -0.062415015 0.10500725 0.15334105 0.18827029
0.12207906 0.02831147 0.026117872 0.013095184 0.15843278 -0.090596974 0.3184779 0.1491178
0.14593779 0.005277163 0.105783075 -0.030157108 0.11314702 -0.09884719 0.06286834 -0.051421
0.057102323 -0.03991994 0.027015852 0.008919912 0.01690428 -0.038955446 0.11840154 0.24634385
-0.025551721 0.15323056 0.08588632 -0.22490172 -0.22103429 -0.015930949 0.12873593 0.0919496
0.100464076 0.111102864 -0.039930902 0.199938 0.23276702 -0.25167423 0.027739847 -0.022429522
0.15002982 0.097242095 0.2272123 -0.15587015 0.11005339 0.06873995 0.096665226 0.009294923
0.0565288 -0.1212233 -0.16255483 -0.15313034 -0.13415982 -0.17140327 0.12853539 0.12421251
00000000: 0ef6 9d3c 7a41 8c3e fd42 a83e 4d29 2e3d
00000010: 0359 6ebe 9bc6 d93d 0ff2 613e 2b8d 893e
00000020: e030 e53d 597a f8bd ae26 bb39 febd a03e
00000030: d73e c33e 566b 3fbe a102 553e e847 8b3e
00000040: 421a a23e 3fd3 8a3e a9ec b73e aa13 10be
00000050: b5da f63d 80dd a1bd 960c 273e 31f4 0039
00000060: ced8 693e a710 b5bd 0f9e 50bc 8c04 33bd
00000070: 5fbf 30bd 002b 02be 67c8 903e 83b8 bb3d
00000080: 6199 75bd d78d 8f3e 74a8 133e e7a1 40be
00000090: 352b 17be 5a7c f83d 8ccb 5f3e bd9e 293e
000000a0: 0185 e33d 1881 13bd fd30 f2bc 158b 343e
000000b0: 0e55 833e 9d99 5ebe 3910 dd3d 412b 033d
000000c0: fbbf 2f3e 8652 6d3e 3cd3 603e e747 36be
000000d0: 8774 493c 2af3 103d 91df fd3d 5fb2 803d
000000e0: 276d 713e cc54 74bd f742 68be 758a 92bd
000000f0: 4720 24be 1476 0ebe 353e 2b3e 2614 90bd
00000100: 6a02 3a3e d82e 3abe c827 4abe e9cb eb3d
00000110: 34fc b13e ca7a 98be 22a4 7ebe 16e7 83be
00000120: e425 9abe 9826 c63d 554b b8bd 557d 28be
00000130: cfcb bdbe 53b6 813d f243 36be b204 ba3d
00000140: 67d3 b4be 485a 17be 46f1 a3be d17b b23e
00000150: a803 18be add1 a13d 374b 4dbd 8c6a 053e
00000160: 3a68 0cbe 8853 003e d349 ab39 4a06 583e
00000170: 0f1f a13e e513 ac3e bab1 e2bd d48e 0abe
00000180: eaab 8a3d d05e 8e3d f318 8b3e 9de5 9ebe
00000190: 632a 91be 3d42 663e 9468 2b3e 5057 863e
000001a0: ec3e c93d 0f4a ea3d af59 0f3d a520 273e
000001b0: a024 9e3e 92eb afbe 49e5 f43d 065e cebd
000001c0: fc83 2c3e 726a eb3c 8b7e 3c3e 634b bdbe
000001d0: 60d9 2f3d 4752 a2bd a391 3c3e aec5 1bbe
000001e0: 2083 163e c577 4cbe 0b13 a9be ac22 2bbe
000001f0: d8e8 8abe 0c41 60be 287e 423e 317e 5b3e
00000200: 308d a1bd ab02 a73e 9947 3e3e 3b32 29bc
00000210: c08e 57bd 1a61 933e e0cc 903e 6897 b33e
00000220: 7a41 483e e526 83bd 93c7 2d3e 7c6c 953e
00000230: 2689 c03e fb3b bebd 1a41 b73e 4aec 9d3e
00000240: 35d2 8f3e d760 8d3e 21e5 b83e 5620 3abe
00000250: 303c 523e c5d9 0dbb 8f3e 753e 1ddf a1bd
00000260: 6e7f 983e 3f4f 3abd b437 5e3d cb71 1d3d
00000270: c200 fb3c 0ca8 b5bd 88b5 be3e 4d74 2bbc
00000280: 59d9 013c 748c 9d3e 61f2 5a3e 3271 12be
00000290: eee4 64be dca1 bb3d 6084 543e 6d5d 933e
000002a0: 298d 063e 1b7a 073d b936 0a3d ea07 4d3e
000002b0: 3739 943e b62c 33be c655 293e 9c87 163e
000002c0: e6a6 733e 7a4d 143e 979b a13e 45a0 35be
000002d0: 1785 fa3d be8c 0cbd 5c6b 2c3e b1ca 183d
000002e0: 8723 2f3e 80fa c9bd 9ccf c4bd f2eb b5bd
000002f0: 3203 2dbe 8950 3dbe 74c2 573e 2c2b 213b
00000300: d2c2 f1bb ef83 a03d c1ba ed3d e8a6 3f3c
00000310: e3a6 7fbd 0b0e d73d 7005 1d3e edc9 403e
00000320: 9604 fa3d 75ed e73c 26f5 d53c 2f8d 563c
00000330: 343c 223e e88a b9bd 890f a33e 56b2 183e
00000340: b770 153e 0dec ac3b cca4 d83d 0a0c f7bc
00000350: a0b9 e73d 6570 cabd 1ec1 803d d49e 52bd
00000360: 20e4 693d 1783 23bd 5950 dd3c d324 123c
00000370: d87a 8a3c bf8f 1fbd 827c f23d 9041 7c3e
00000380: d851 d1bc 79e8 1c3e 2be5 af3d a34c 66be
00000390: d056 62be 9f81 82bc 5ad3 033e 1250 bc3d
000003a0: 1cc0 cd3d e689 e33d 968e 23bd 8cbc 4c3e
000003b0: 7a5a 6e3e 72db 80be ad3e e33c 1ebe b7bc
000003c0: 6ba1 193e dd26 c73d 57aa 683e 6d9c 1fbe
000003d0: ac63 e13d 88c7 8c3d 6bf8 c53d bc49 183c
000003e0: be8a 673d ec43 f8bd c674 26be 33ce 1cbe
000003f0: 3161 09be 5784 2fbe c89e 033e 2163 fe3d

blocks.0.fcn_layer.bias f4 [32]
0.110892884 0.12047017 -0.11027273 0.08504731 -0.029680721 -0.126671 0.16722043 -0.17308523
0.037459478 0.03799391 -0.13517524 -0.062240656 0.031569723 -0.09711359 0.198249 0.099940404
0.14523847 -0.10082115 0.24219066 0.11865261 -0.12716238 0.039651074 0.19582343 0.0029248567
0.2054782 0.16106372 0.24558362 0.03854889 0.031489447 -0.005113744 0.21107373 -0.08311113
00000000: cf1b e33d 11b9 f63d abd6 e1bd 492d ae3d
00000010: fc24 f3bc 0bb6 01be d53b 2b3e 413d 31be
00000020: 1c6f 193d 819f 1b3d 616b 0abe 0ff0 7ebd
00000030: 414f 013d 7de3 c6bd c901 4b3e 8ead cc3d
00000040: 65b9 143e 527b cebd d400 783e 2400 f33d
00000050: db36 02be 2a69 223d f085 483e f4ae 3f3b
00000060: e168 523e e3ed 243e 467a 7b3e 71e5 1d3d
00000070: 14fb 003d 3291 a7bb b623 583e 2b36 aabd

blocks.0.layer_norm.weight f4 [32]
1.3718897 1.2949827 1.2082715 1.2629093 1.410673 1.2295088 1.0435821 1.1349628
1.3813746 1.1225988 1.3192226 1.2897376 1.0106497 1.4870088 1.3175321 1.2368367
1.2842518 1.4696312 1.2592711 1.3078184 1.422768 1.3224512 1.2349732 1.166006
1.3165004 1.3886023 1.2902868 1.0711911 1.2316988 1.5016001 1.2624542 1.1880314
00000000: 159a af3f fec1 a53f a4a8 9a3f 03a7 a13f
00000010: ef90 b43f 8b60 9d3f 1994 853f 7646 913f
00000020: e2d0 b03f 51b1 8f3f 49dc a83f 1f16 a53f
00000030: f85c 813f 4e56 be3f e4a4 a83f aa50 9e3f
00000040: 5d62 a43f e01c bc3f cc2f a13f 9866 a73f
00000050: 431d b63f 1546 a93f 9a13 9e3f af3f 953f
00000060: 1683 a83f b8bd b13f 1e28 a53f ca1c 893f
00000070: 4ea8 9d3f 6f34 c03f 1998 a13f 6a11 983f

blocks.0.layer_norm.bias f4 [32]
0.067123994 0.13035311 0.07975028 0.16580059 0.041930333 0.04840233 -0.23531695 -0.04317247
0.2197129 0.37907216 0.10205684 0.1215989 0.1559056 0.11320048 0.14986794 -0.05801657
0.03670769 0.13095026 0.11143508 0.19933219 -0.043961905 0.055084568 0.13601965 -0.07406737
-0.2262341 0.19771847 -0.03472029 -0.08596335 -0.16037771 0.03639906 0.09179291 -0.037813257
00000000: 4e78 893d 497b 053e 1d54 a33d a1c7 293e
00000010: 24bf 2b3d 8641 463d edf6 70be 9ed5 30bd
00000020: 6bfc 603e bf15 c23e 2d03 d13d d808 f93d
00000030: b8a5 1f3e a7d5 e73d fb76 193e c8a2 6dbd
00000040: ce5a 163d d317 063e 1338 e43d bd1d 4c3e
00000050: 6611 34bd 5ba0 613d bc48 0b3e a2b0 97bd
00000060: e9a9 67be b676 4a3e dd36 0ebd 8e0d b0bd
00000070: 0e3a 24be 2e17 153d ecfd bb3d 13e2 1abd

last_layer.weight f4 [1, 32]
0.38062194 0.27942204 -0.354706 0.31213245 0.44216353 0.22016123 0.29105845 0.32695484
0.5342696 0.25339532 0.3227912 0.4286497 -0.07036914 0.47508928 -0.45733583 0.30621913
0.35916755 -0.4822328 -0.37559876 0.4462222 0.47791004 -0.45395193 -0.37831748 0.30761725
-0.42708406 -0.42004654 -0.35772756 0.14330928 -0.4027213 0.46787792 -0.304951 0.31962296
00000000: e1e0 c23e 6810 8f3e 069c b5be d3cf 9f3e
00000010: 4263 e23e f271 613e 9d05 953e a066 a73e
00000020: e4c5 083f 08bd 813e e344 a53e f977 db3e
00000030: b21d 90bd e73e f33e ec27 eabe c1c8 9c3e
00000040: cfe4 b73e 38e7 f6be 7b4e c0be 3c77 e43e
00000050: a0b0 f43e 636c e8be d4b2 c1be 0280 9d3e
00000060: c3aa dabe 5710 d7be 1128 b7be abbf 123e
00000070: 7c31 cebe b28d ef3e 8a22 9cbe 9fa5 a33e
