wakeword_models/lexona/hey_lexawna (3).onnx (onnx, 205430 bytes, 9 tensors)

layer1.weight f4 [32, 1536]
000000 a8 da bc 3d 30 29 e3 3c 52 4d 81 ba 3b ef ae 3b
       0.09221393 0.0277296 -0.0009864962 0.005338577
000010 5f 41 04 3d fe 13 ce 3d 0e 93 69 3d c3 fb 1f bc
       0.032288905 0.10062407 0.057025008 -0.0097646145
000020 1b ab 4e bd 87 d7 59 3d 92 32 26 be c1 7b 07 3d
       -0.050456148 0.05318406 -0.16230229 0.033077005
000030 3f 7b fe 3d 13 dd bc bc 68 8e a1 3b 38 53 b3 3d
       0.12425851 -0.023054635 0.004930306 0.08756107
000040 3f 5a ac bd b1 41 ce 3d 5d 4d 19 3e 89 4d a1 3b
       -0.084156506 0.100711234 0.14970918 0.004922573
000050 70 cd d8 3b 0b 76 91 3d 56 52 53 bb b8 53 85 bc
       0.006616287 0.07102593 -0.003224512 -0.016275272
000060 8c 13 c8 3d cb 3f b2 3d ed 72 a9 bd c1 e2 03 be
       0.09769353 0.08703574 -0.082738735 -0.12879469
000070 62 99 cb bd 81 50 1c bd 31 71 ce bd d1 83 b0 3c
       -0.09941365 -0.038162712 -0.10080183 0.02154723
000080 d9 a7 02 be ab 87 2a be 2c 41 d7 3d 0d ab 10 3e
       -0.12759341 -0.16653316 0.105104774 0.1412775
000090 f4 06 de 3d 46 8c 69 3d b8 fb 6a 3d 23 60 71 3d
       0.1084117 0.05701854 0.057368964 0.058929574
0000a0 aa 66 79 3d 7b 03 87 3c 11 8a c2 3d e2 14 02 bd
       0.060888924 0.016481152 0.0949899 -0.031758197
0000b0 06 03 85 bc 28 d1 8d bd d3 6a 27 3d 9e 47 ed 3d
       -0.016236793 -0.06924659 0.04087336 0.115859255
0000c0 c6 67 a2 3d 79 39 ba 3d 8d c8 7f bd ba a7 ff bd
       0.079299495 0.09092993 -0.06244712 -0.12483163
0000d0 44 00 10 3e d2 d2 09 3e 2e e2 c0 bd e4 e2 34 bd
       0.14062601 0.13459328 -0.0941814 -0.044161692
0000e0 c6 6d b7 3d 40 c8 8c 3c 4a 0f bf bd 27 d6 99 bc
       0.089564845 0.01718533 -0.09329088 -0.018778874
0000f0 23 f7 12 3d 02 05 c0 be f7 1f 18 bd 64 a7 d1 bd
       0.03588022 -0.3750382 -0.03713986 -0.10237005
000100 12 24 a3 3d 77 33 ab 3d 43 f2 43 bd 38 df b3 bd
       0.07965864 0.083594255 -0.04783846 -0.0878281
000110 a1 9c c1 3d de 1c 11 bc bb d5 2f 3d 1f 68 52 3d
       0.09453703 -0.00885698 0.04292844 0.05136883
000120 e5 ee 09 3d 05 7d ff 3d 85 eb 6e 3d 4f 63 2b bd
       0.033675093 0.124750175 0.058330078 -0.041842755
000130 42 ff 15 bd 3d 69 4d bc 35 73 79 bd 01 16 92 bd
       -0.036620386 -0.012537298 -0.060900886 -0.07133103
000140 c9 f8 04 3e 87 80 5a 3d 34 ce de 3d 3f 37 d5 3b
       0.12985529 0.05334523 0.10879174 0.00650683
000150 3d 81 08 3c b9 58 51 bd c9 23 cc bc 3b 5c c3 bc
       0.008331594 -0.051110003 -0.024919407 -0.02384769
000160 45 e4 13 be 25 e1 e2 3d 94 f7 9e 3d 35 b1 c4 3d
       -0.14442547 0.11078099 0.077620655 0.09604112
000170 97 aa 23 3e eb 96 6a bd 1a eb 83 bd ea 27 c7 3d
       0.15983044 -0.057272833 -0.064413264 0.0972441
000180 14 50 81 3c d0 30 6f 3d d8 80 c0 3d ff 26 e6 bd
       0.015785255 0.05839616 0.09399575 -0.11237907
000190 b5 da 99 3a b1 5e fe 3d 51 f4 c2 bc b7 1c 92 bc
       0.0011738153 0.12420405 -0.02379814 -0.017835958
0001a0 ee e0 cb 3c de cf bd 3d 16 81 d5 bd 26 cd 5e bc
       0.024887528 0.09268163 -0.10425012 -0.013598716
0001b0 68 fb 5c 3d e6 f7 9b 3d 05 72 ae 3c 5d 04 25 be
       0.053950697 0.07615642 0.021294603 -0.16114946
0001c0 3f 4f 02 be 14 34 13 3e 2e 7e c8 bc 3d 2e 84 bd
       -0.12725542 0.14375335 -0.02447423 -0.06454132
0001d0 5e 00 9c 3d 67 e5 dd 3d ed f8 7f bc 40 4d 0a 3c
       0.076172575 0.10834771 -0.015623313 0.008441269
0001e0 06 eb fe 3d ef 8e d7 ba 80 39 f2 bd 91 c1 a5 bd
       0.12447171 -0.0016445796 -0.118273735 -0.080935605
0001f0 7b df 03 be 7d f3 b6 3c b0 d1 d5 bd 5a cf 60 3c
       -0.1287822 0.022332901 -0.10440385 0.013721311
000200 df e5 9f bd 07 c6 e9 bd 0d 0f ab 3c a8 0c b0 3d
       -0.07807516 -0.11414724 0.0208812 0.08596164
000210 b1 38 f1 3d f9 c8 6c 3d c7 7a cb 3d d1 b9 c3 3d
       0.11778391 0.05780885 0.09935527 0.09556926
000220 bd 98 34 3d 14 a8 1e 3c 5a a5 cf 3d 09 11 ad bd
       0.044090975 0.009683628 0.1013896 -0.08450515
000230 c3 70 50 bc 6b 85 0d be ee 76 a6 3c 6e 44 04 3e
       -0.012722197 -0.13820426 0.020320382 0.12916729
000240 3b a2 0f 3d 92 13 36 3d c6 23 74 bd 2a 71 af bd
       0.035066824 0.044452257 -0.05960443 -0.08566506
000250 3b 5d 9c 3d 4e 61 5f 3e 2f 48 98 bd 82 f1 11 be
       0.0763497 0.21814463 -0.07435643 -0.14252284
000260 21 1a 97 bd c7 6c aa 3d 82 b6 95 bd 49 a8 2e 3d
       -0.073780306 0.08321529 -0.07310201 0.042640958
000270 35 98 0d 3b 83 51 eb bc 10 59 60 3d 8f 9a 6c bc
       0.0021605615 -0.028725391 0.054772437 -0.0144411465
000280 60 dd cd 3d 35 f5 12 3e ad b4 b8 bc 0d 65 99 bd
       0.100519896 0.14351352 -0.02254709 -0.07489977
000290 1d a7 3b 3e 50 b0 01 be 14 10 28 bc 64 49 14 3b
       0.18325467 -0.12664914 -0.01025774 0.0022626752
0002a0 7a cd a2 bc f9 f9 90 3c 20 48 ca 3d a9 df c8 3c
       -0.01987337 0.017697321 0.09877038 0.024520712
0002b0 15 d7 f5 3d 49 e7 8b bd cc 46 f0 bd 48 a7 e3 bd
       0.12003914 -0.068312235 -0.117322534 -0.11115891
0002c0 4c 8c 74 3d 58 d5 45 3d 4e b0 04 3e db 9f 42 bd
       0.05970411 0.048299164 0.1295788 -0.04751573
0002d0 08 9f 76 3d f1 72 12 3d e0 82 0b 3e 25 3e 49 3d
       0.060210258 0.035754148 0.13624144 0.04913153
0002e0 13 17 54 bd e8 7b f1 3d 33 b2 4c 3d 5e 57 c6 3d
       -0.051779818 0.11791211 0.04997463 0.09684633
0002f0 57 f8 bb 3d bb 0a c9 bc 22 56 14 bd 71 f3 c7 3d
       0.091782264 -0.02454125 -0.036214955 0.0976323
000300 d8 31 33 bd 9a d7 0e 3d 0c 95 c6 3d 8c c8 32 be
       -0.043748707 0.034873582 0.09696397 -0.17459315
000310 b2 65 94 3d 4c 14 b4 3d ea c6 6f bc 5d c2 66 bd
       0.07245959 0.08792934 -0.014634827 -0.056337703
000320 b0 75 f3 bc 22 db a6 3d b5 f7 a6 bd 66 b4 3e bd
       -0.029719204 0.08147265 -0.08152715 -0.04655876
000330 a9 f0 35 3e ce 10 0d bd 6b 2d c8 bc e9 18 22 bd
       0.17767586 -0.034439854 -0.02443572 -0.039574537
000340 a0 71 49 be b7 5b 2e 3e c0 eb 95 bd f5 8f c6 bd
       -0.19672251 0.17027174 -0.07320356 -0.096954264
000350 94 d2 38 3d ac 8f 11 3e bc 54 3c bd 71 2f 9c bd
       0.045122698 0.14214963 -0.045979246 -0.07626236
000360 38 de 9e 3d 16 c2 1f 3d f3 80 07 be 66 46 e8 3b
       0.077572286 0.039003454 -0.13232784 0.0070884703
000370 6e 00 18 be 46 70 a9 bb fd d7 92 bd 16 c3 db 3c
       -0.14843914 -0.0051708547 -0.07170103 0.026826423
000380 88 44 bc bd 9f 45 bd bc ae 42 c5 bb c7 20 cd 3d
       -0.09192759 -0.023104487 -0.0060199117 0.100160174
000390 4a 44 d4 3d 2d 40 16 3d 79 7e dc 3b 8b ed a1 3d
       0.103645876 0.036682297 0.006728944 0.07906636
0003a0 45 cf 5d 3d a9 80 73 3d ae 6a da 3d bb c7 53 bd
       0.054152746 0.05944887 0.10664879 -0.05170415
0003b0 30 fb 7c bd a0 66 9c bd 18 a7 5a bc c9 4c 93 3d
       -0.06176299 -0.07636762 -0.013345502 0.0719238
0003c0 a7 76 87 3b 04 0a 0d 3d 26 7f 20 bd 07 d4 25 3c
       0.0041340175 0.03443338 -0.03918376 0.010121352
0003d0 53 a7 35 3d e5 ae 1e 3e 68 1b 12 bc 61 bf ff bd
       0.044349026 0.15496404 -0.008917667 -0.124876745
0003e0 07 a8 f0 bd 60 22 9e 3d 46 3a df bd d8 d3 ef 3c
       -0.11750799 0.077214 -0.10899787 0.02927582
0003f0 35 ab 91 bc 11 08 32 3d 7b 48 41 3d 84 9e 65 bd
       -0.017781833 0.043464724 0.047188263 -0.056059375

layer1.bias f4 [32]
000000 87 d3 c2 3d ef 49 1a bd d9 d0 24 bc 0a d2 89 bc
       0.09513002 -0.037668165 -0.010059559 -0.016823787
000010 bb 9d e7 3d 84 0f 07 3e 4a e1 25 bc 70 45 2f bd
       0.113093816 0.13189512 -0.010124514 -0.04279083
000020 b2 b6 d0 3d e6 3a 0b 3e 78 f6 cf 3d ab e3 f1 3d
       0.10191096 0.13596687 0.10154432 0.11811002
000030 ea 94 91 3b d3 f9 28 3e 50 72 ed 3d 9f d5 b7 3d
       0.004442801 0.1650155 0.11594069 0.08976292
000040 44 f3 f4 3d a3 d9 ac bc a1 a1 b1 3a 10 2e f5 b9
       0.11960462 -0.021099871 0.0013552197 -0.0004676436
000050 55 ce c7 3d 96 2d f1 bc 82 89 8b 3b 27 fd 59 ba
       0.097561516 -0.029440682 0.0042583356 -0.00083156157
000060 13 63 6f 3c 5a b6 1d bd fd 72 18 3e 7a b9 e8 3d
       0.0146110235 -0.038503982 0.14887615 0.11363502
000070 e1 c6 a6 bc aa 0b 75 3d e1 7b 0f 3e ff da 06 bc
       -0.020358505 0.059825577 0.140121 -0.008230924

layernorm1.weight f4 [32]
000000 93 c3 a0 3f 91 a7 7e 3f e0 96 6f 3f f8 80 8c 3f
       1.2559685 0.99474436 0.9358959 1.0976858
000010 cc 34 ac 3f c0 65 86 3f 8c c5 7e 3f c6 ed 81 3f
       1.3453612 1.0499802 0.9952018 1.0150688
000020 b8 59 9e 3f 6f f6 91 3f ce 64 81 3f 07 da a0 3f
       1.237113 1.140333 1.0108888 1.2566537
000030 8e 13 97 3f 66 60 80 3f b1 22 f2 3f 71 bf d8 3f
       1.1802843 1.0029418 1.8916837 1.6933423
000040 72 1e 86 3f a0 ae 7f 3f ae 54 84 3f 53 6c 79 3f
       1.0478041 0.9987583 1.0338342 0.97430915
000050 82 9d 85 3f 57 b4 a1 3f de 45 89 3f de 81 73 3f
       1.0438693 1.263316 1.0724447 0.95120037
000060 52 3b 67 3f eb ee 94 3f 3a 08 c2 3f 77 c7 99 3f
       0.9032489 1.1635412 1.515876 1.2013997
000070 0b 0d 86 3f 05 64 78 3f 87 f8 ba 3f 8f 0e 65 3f
       1.047273 0.9702762 1.4607095 0.8947534

layernorm1.bias f4 [32]
000000 52 b3 35 3d 19 0f 65 bd 8a dc 9f bd 6f 35 68 bd
       0.044360466 -0.0559226 -0.07805736 -0.056691583
000010 77 8a 0a bc 5c 87 af 3d c2 ab ac bd 79 50 a0 bd
       -0.008455864 0.085707396 -0.08431198 -0.07827849
000020 5e 68 3a 3c d9 2f 27 3c 38 3f 3d 3d 24 cf 18 3d
       0.011377422 0.010204279 0.04620287 0.03730692
000030 e9 d1 0e bd 82 b3 db 3d 73 ea b0 3a 06 a8 01 3d
       -0.034868155 0.10727598 0.0013497606 0.03165438
000040 92 1b 43 3d d7 7f c9 bd 30 35 f4 bd 02 88 32 bd
       0.047633715 -0.09838837 -0.11924207 -0.04358674
000050 09 5a 38 3d 8f a5 8c bd 4c 64 82 bd 37 cd ac bd
       0.04500774 -0.06867515 -0.06366786 -0.08437579
000060 6a 25 88 bd ab 07 32 bd df 48 73 3d aa 8b 75 3c
       -0.06647761 -0.043464344 0.059395667 0.014986912
000070 2d 5f a1 bd a0 cd 14 be 94 ec 83 3d 00 f9 d5 bd
       -0.078794815 -0.14531565 0.06441608 -0.104478836

blocks.0.fcn_layer.weight f4 [32, 32]
000000 45 5a 8a 3d 6d 4f 6d 3e 85 87 a8 3e 8d a0 8a 3e
       0.06755499 0.2317483 0.32915893 0.27075616
000010 ae 27 a7 3c 08 98 84 bb 03 d6 a6 3e b4 f7 6c 3e
       0.020404663 -0.004046444 0.32585153 0.23141366
000020 06 e8 73 3d cd 81 17 3e 52 27 e8 bc 0b 10 e3 3d
       0.059547447 0.14795609 -0.028339062 0.11087044
000030 dc 41 da 3d 36 40 ed bd 3c 91 66 be 21 b9 d6 3d
       0.10657093 -0.11584513 -0.2251634 0.10484529
000040 3d ea 26 3d c4 c7 9e 3e e6 f8 1b 3e 8c 9c ad 3e
       0.04075073 0.31011784 0.15231666 0.33908498
000050 69 ee 93 bc 7b 64 d2 3e 6f d0 0b 3e 2f 89 d2 3e
       -0.018058019 0.41092286 0.1365373 0.41120288
000060 0b af a7 3e e2 76 42 3e e0 93 40 be 14 c5 f6 3d
       0.32750735 0.18990663 -0.1880641 0.120493084
000070 9c 59 b9 3e 52 81 9c 3e 58 79 a5 3d 92 76 13 3e
       0.3620118 0.30567414 0.08079785 0.144007
000080 04 06 59 3e 38 1b 96 bd 62 03 0a be 8e c1 c3 be
       0.21193701 -0.0732941 -0.13477853 -0.38233608
000090 a9 cd 1c 3d b7 7f 24 3d e3 75 1b be 42 3f 47 be
       0.03828207 0.04016086 -0.15181689 -0.19457725
0000a0 35 91 11 3d a2 72 2c 38 6d b4 0f bd 36 ca 9c bd
       0.03553887 4.1114756e-05 -0.035084177 -0.07655756
0000b0 1c 2f 57 3c ac 10 0a 3c fa 36 65 bd ed 9b d3 3e
       0.01313379 0.008426826 -0.055960633 0.413299
0000c0 7b f1 14 3e 7d 36 8a be c2 ea 00 3e fc 59 e7 bc
       0.14545242 -0.26994696 0.12589553 -0.02824115
0000d0 99 7b 14 bd fb 05 a1 bd e9 8f 22 be e1 7f 80 be
       -0.036250684 -0.07862469 -0.1587521 -0.25097564
0000e0 fd 75 da 3c a3 0d ff bd 5b 11 4a 3d 42 83 80 bd
       0.02666759 -0.12453773 0.049332958 -0.062750354
0000f0 4e 25 c9 bd 9d 41 83 be 79 31 cd bd 11 42 3b be
       -0.098215684 -0.25635996 -0.10019202 -0.18286921
000100 f3 20 4a be 61 53 b0 3e fc 79 9b 3e 62 63 de 3e
       -0.19739132 0.34438613 0.30366504 0.43435198
000110 bb 51 3a be 5e e9 6a be e6 be db 3e 4f ca 35 3e
       -0.1819524 -0.22940585 0.4291908 0.17752956
000120 7d 64 95 be 7f 9c 6d bd 54 8e f2 3c 6f cc 23 be
       -0.2917823 -0.058010574 0.029608883 -0.15995954
000130 a5 9f 1e 3e b4 c8 02 3e 42 ae 0a bf 2d b5 e1 bd
       0.15490587 0.12771875 -0.54172146 -0.11020885
000140 79 ad e3 bd 99 b6 92 3e 8e af ee 3b 16 1d 77 3e
       -0.11117072 0.28654936 0.0072841113 0.24132189
000150 ad af 04 3e 91 09 19 3f 5c 06 00 3f 45 90 8f 3e
       0.1295764 0.5978022 0.50009704 0.28039756
000160 e0 cd 9f 3e d6 ec f7 3e cc 52 ae be 4f 01 e6 bd
       0.31211758 0.4842288 -0.34047544 -0.11230718
000170 2b 96 ca 3e 0f 64 88 3e 57 d9 88 bd f1 7e 93 3e
       0.39567694 0.2663884 -0.06682079 0.28807786
000180 17 80 e5 3e 4c f3 0c be 37 44 78 be dc 82 c0 be
       0.44824287 -0.13764685 -0.24244772 -0.37599838
000190 86 ba af 3e 53 9b 45 bd 9f 4c 25 be 87 72 a4 be
       0.34321994 -0.04824383 -0.1614251 -0.32118627
0001a0 89 98 00 3e 6c 0e cf bc 5c 71 00 3e c4 7a 8e 3d
       0.12558188 -0.025275432 0.12543243 0.069570094
0001b0 86 32 04 3d d6 c2 c4 3d f5 39 ba 3e a8 0d 01 3f
       0.032274745 0.096074745 0.36372343 0.5041146
0001c0 74 c1 bb 3d 1c f2 5a be 72 9d 53 bd 45 29 60 be
       0.09167758 -0.2138142 -0.051663823 -0.21890743
0001d0 fc 37 cb 3d b1 27 a0 be ea 0a bf be ee 25 28 be
       0.099227875 -0.31280282 -0.37313014 -0.16420719
0001e0 c2 8f 62 be 0d 37 a2 be 5f 4b 97 3e 02 99 3d 3e
       -0.22125152 -0.31682625 0.2954969 0.18515399
0001f0 01 34 e1 be 90 6c 23 bd 60 a4 cd 3e 29 6c 04 be
       -0.43984988 -0.039898455 0.4016447 -0.12931885
000200 62 ac 6c bd 4e ea 02 3e d9 99 df 3d a5 8b 80 3e
       -0.057781585 0.12784693 0.10918016 0.2510654
000210 4b d0 83 be ec 1b 87 3d 70 a8 4f 3e df b1 ca 3d
       -0.25744852 0.065971226 0.20279098 0.098972075
000220 65 62 fb bd 7a b6 b6 bd 34 a3 50 3c c6 6f 32 be
       -0.12274627 -0.089215234 0.012734223 -0.1742545
000230 5f da b1 3d bf af 9a bb 45 ff de be 85 6f f6 3d
       0.08684229 -0.0047206576 -0.4355413 0.120329894
000240 dc 41 e4 bd 84 f9 39 3e 33 f7 18 3e 7b 13 32 3e
       -0.11145374 0.18161589 0.14938049 0.17390244
000250 7a ef cb bd a3 cb fe 3e 95 f7 bc 3e f0 1e 45 3e
       -0.09957786 0.49764737 0.3690764 0.19250083
000260 5c 4e 4a 3e 2c e2 a5 3e 0d 3c b3 be 29 90 9e bd
       0.19756454 0.32399118 -0.35006753 -0.0774234
000270 ed 49 8d 3e a5 45 3c 3d 39 d0 29 be 0f f3 02 3e
       0.27595463 0.045964856 -0.16583337 0.12788032
000280 44 1e bd bd 51 f1 dc 3d 2f 23 ce 3d b7 53 2c 3e
       -0.09234288 0.10788215 0.100653045 0.1682881
000290 e3 eb db bd 85 48 d4 bd f6 f1 c2 3d b1 17 a3 3d
       -0.10738351 -0.103653945 0.09518807 0.07963503
0002a0 c2 b2 87 be b7 ec 90 3d 80 c2 54 3e 60 68 39 bd
       -0.2650357 0.070764 0.20777321 -0.045265555
0002b0 dd a3 f9 3c fb 0c 43 3b 2a 0c 25 be 64 2c 03 be
       0.030473644 0.0029762376 -0.16117921 -0.12809902
0002c0 31 d0 66 bb af 62 e6 3d c4 3a 36 3e a5 00 43 3e
       -0.0035219307 0.11249291 0.17795855 0.19043215
0002d0 6a 5d 7a 3e 69 0e b4 3e 4a f7 8f 3e 3e 6b ba 3d
       0.24449697 0.35167244 0.28118354 0.09102486
0002e0 7b 0d 1d 3e a5 fc e0 3d 47 45 e3 bd 30 d9 2b bd
       0.15337174 0.10985688 -0.11097198 -0.041955173
0002f0 38 98 83 3d 61 c4 29 3d 69 90 84 3e ba 46 c2 3d
       0.06425518 0.041447047 0.25891426 0.09486146
000300 ce 60 98 3c 28 01 59 3e 20 bc 97 3d 36 77 05 3f
       0.018600848 0.21191847 0.07408929 0.52135026
000310 d8 77 2b bd 67 87 8b bd 6c 7f 3c 3e a5 90 67 3e
       -0.04186234 -0.06812935 0.18407983 0.22613771
000320 c3 c3 e7 bd d4 c1 a1 3c 67 f5 0d 3d bf de 8a 3d
       -0.113166355 0.019745745 0.034657862 0.06780767
000330 3a 3e 4a 3e 76 4c 7a bc 77 df 94 be 76 4e a6 bd
       0.197503 -0.015277019 -0.2907674 -0.08120434
000340 13 8a df bd c3 31 62 3e cd b7 b7 3d 80 5e 8c 3e
       -0.109150074 0.22089295 0.08970604 0.27415848
000350 63 19 63 3e a9 09 88 3e 56 56 c3 3e 1f 2b 0f 3e
       0.22177653 0.2656987 0.38151807 0.13981293
000360 1d 4b a9 3e f6 15 b1 3e 33 84 54 be c8 9d 1f 3d
       0.3306512 0.34587067 -0.20753555 0.03896883
000370 7d cf c3 3e 86 5a aa 3e 11 4e dc 3c fd 53 80 3e
       0.38244238 0.3327219 0.026892694 0.25064078
000380 a5 c0 12 3e 2a 5e 98 be 95 5e 23 be 2b 39 9a be
       0.143313 -0.2975934 -0.15954049 -0.3012174
000390 52 06 01 3f 5a 2b 0e bb 01 ae 7e be bc 79 1a be
       0.5040027 -0.002169332 -0.24871065 -0.150855
0003a0 81 d2 85 3e f2 53 e3 3d 8f 94 23 3e d4 ee 92 3e
       0.26137164 0.11099996 0.1597464 0.28697836
0003b0 d9 f9 92 be 11 d8 09 3e 8b 4d 3b 3f 0d f0 98 be
       -0.28706244 0.13461329 0.73165196 -0.29870644
0003c0 e7 1c da bb 69 cf f4 bd fa c4 3c be 33 8a 27 be
       -0.0066562775 -0.11953623 -0.18434516 -0.16361313
0003d0 50 b4 32 be bb 75 a2 be 6c 7c 43 be ab 63 23 be
       -0.17451596 -0.31730446 -0.19090432 -0.15955989
0003e0 f9 50 28 be 46 01 8e be 3b 2f 05 3f e5 b3 d6 3d
       -0.16437139 -0.27735347 0.5202519 0.10483531
0003f0 69 b0 58 be 85 c1 bf bc 4e 7b d3 3d 7c ee 54 be
       -0.21161045 -0.023407707 0.10326253 -0.207941

blocks.0.fcn_layer.bias f4 [32]
000000 b6 ea 9a bc 24 f0 00 3e 03 e5 a3 bd 09 73 76 3d
       -0.018910747 0.12591606 -0.08002665 0.0601683
000010 7a 7b ae bd 55 17 f1 bd 6f 22 13 be 2c df 4a 3e
       -0.08519645 -0.11772028 -0.14368604 0.19811696
000020 e4 8c af 3d 07 46 11 3e 20 33 00 be 98 e1 e9 bd
       0.08571795 0.1418687 -0.12519503 -0.11419982
000030 b1 de 52 bc 61 f0 2c bd 23 18 20 3d 20 87 36 be
       -0.012870477 -0.04222143 0.03908552 -0.17824984
000040 fb 61 54 be a6 29 c8 3c b7 c2 a2 3d 9e c9 ce 3d
       -0.20740502 0.024433922 0.07947295 0.10097049
000050 12 96 a0 3d 7b 01 91 3d f3 77 42 bd 06 56 a3 bc
       0.07841124 0.070803605 -0.047477674 -0.01993848
000060 d6 1a 0a bd d1 ac 0c bd 6e d2 38 be e2 fe de ba
       -0.033717 -0.034344498 -0.18049023 -0.0017013217
000070 3f 32 68 3e ec 75 b6 3b 80 3f 07 bc 09 e5 1f 3d
       0.22675417 0.0055682566 -0.008254886 0.039036784

blocks.0.layer_norm.weight f4 [32]
000000 2f f2 a6 3f c7 aa 79 3f b2 db b4 3f b8 a7 95 3f
       1.3042659 0.9752621 1.4129546 1.1691809
000010 b7 80 a1 3f 2b f5 8f 3f db f3 9a 3f 1f b2 a4 3f
       1.2617406 1.1246694 1.2105669 1.2866858
000020 e8 c3 9d 3f d4 b8 91 3f 4b 05 91 3f 16 d5 99 3f
       1.2325411 1.138453 1.132974 1.2018154
000030 62 26 84 3f e5 b7 ab 3f 01 00 b3 3f f1 6b bc 3f
       1.0324214 1.3415495 1.3984376 1.4720441
000040 3d ce 94 3f bc b0 a6 3f 4e 7a 7f 3f 32 80 bf 3f
       1.1625439 1.3022685 0.99796 1.4960997
000050 c4 2f 9b 3f de 98 aa 3f f9 63 a6 3f 91 85 b2 3f
       1.2123952 1.3327901 1.2999259 1.3947011
000060 ee 5c a5 3f 6e 49 b8 3f a7 da a6 3f 12 26 a2 3f
       1.2918985 1.4397409 1.3035477 1.2667868
000070 08 74 b5 3f 68 d9 9e 3f 7a 9f 8f 3f ef 89 98 3f
       1.4176035 1.2410097 1.1220543 1.1917094

blocks.0.layer_norm.bias f4 [32]
000000 de 23 c7 bd a8 6f c1 bd f7 07 c8 3d 6a b5 0e 3e
       -0.09723638 -0.09445125 0.09767144 0.13936391
000010 f6 dc 07 3c 94 17 33 be f4 10 19 bc 80 07 ed 3a
       0.008292427 -0.17489463 -0.009342421 0.00180839
000020 ca 6e 05 3e 97 81 15 3c 58 d3 b2 3e 9f 7d 0b be
       0.13030544 0.009125135 0.34926867 -0.1362214
000030 95 c3 31 be 94 da 5d bc 8a 97 de 3d 63 8a b0 3d
       -0.17359765 -0.013540883 0.108687475 0.08620145
000040 d0 08 61 3e 84 84 40 3e 2c 0c 70 be 11 ce 5b 3d
       0.21976018 0.1880055 -0.23442143 0.053663317
000050 6a 2c 9d bd 91 a7 17 3d 40 a9 8a 3e 61 02 f1 bc
       -0.07674487 0.03702504 0.27082253 -0.02942008
000060 a7 e6 15 bd 4b 47 9f 3d 42 d1 a9 3d 7d ba 9b 3e
       -0.03659692 0.0777727 0.08291866 0.30415717
000070 44 a0 05 3e f8 21 51 3d dd b3 7c 3d 4e 40 16 3d
       0.13049418 0.051057786 0.06169497 0.03668242

last_layer.weight f4 [1, 32]
000000 f5 3a dc 3e 95 7c 9c bd 82 e4 04 3f 66 69 97 be
       0.4301373 -0.0764095 0.51911175 -0.295726
000010 e8 a5 7d 3e 3f 5f 20 3e e4 82 a8 3e 09 4b 8c be
       0.2477032 0.15661334 0.32912362 -0.27400997
000020 de 92 b7 be d9 13 3b be e6 55 73 3e 9d 23 d7 3e
       -0.35854238 -0.1826929 0.23763236 0.42019358
000030 cf 82 63 be e0 d0 b3 3e d6 36 00 bf 1a bc f5 3e
       -0.22217868 0.35120296 -0.50083673 0.47995073
000040 14 08 50 3e 05 d4 98 3e 1a 1f 14 be 56 3a fe be
       0.20315582 0.29849258 -0.1446499 -0.49653882
000050 ce f8 79 3e 53 5f f6 3e c2 eb e9 be 03 4e fe 3e
       0.24411318 0.48119602 -0.4568768 0.49668893
000060 02 c2 bf 3e 33 6c 05 bf ba 25 9a 3e 94 9c a0 3e
       0.37452704 -0.52118224 0.30106908 0.3136946
000070 c5 55 f4 be d6 cc a1 3e ce b5 79 3e f0 ad 77 be
       -0.47721687 0.3160159 0.24385759 -0.24187446
