wakeword_models/lexona/hey_lexawna (1).onnx (onnx, 205430 bytes, 9 tensors)

layer1.weight f4 [32, 1536]
0	0xb7a6bdb5	-1.9877081e-05
1	0x3d763632	0.06011028
2	0x3d92510e	0.07144366
3	0xbd1f3ee9	-0.038878355
4	0xbd23a17e	-0.039948933
5	0x3dfe0370	0.124029994
6	0x3de5c16f	0.11218535
7	0x3cc75e9a	0.024337102
8	0x3dbfbbe7	0.093620114
9	0x3d801a44	0.0625501
10	0xbdcc6108	-0.09979445
11	0xbc4f2cc3	-0.012644949
12	0x3e3e061c	0.18557018
13	0xbddd2ccb	-0.10799559
14	0xbd889c92	-0.066704884
15	0xbd24b416	-0.040210806
16	0x3d863330	0.06552732
17	0xbd297787	-0.041373756
18	0x3d080ba9	0.033214245
19	0xbdaaeccf	-0.08345949
20	0x3dab13d9	0.08353395
21	0x3d285e76	0.04110571
22	0xbde05795	-0.10954205
23	0xbd9a6185	-0.075381316
24	0xbdc0a904	-0.09407237
25	0x3d774d7c	0.06037663
26	0xbdd70860	-0.10499644
27	0x3d83b2c0	0.06430578
28	0x3d2b20fa	0.041779496
29	0x3dced183	0.10098555
30	0xbe5d4bb3	-0.21610908
31	0x3d683f54	0.05670102
32	0xbdb66c9d	-0.08907435
33	0x3e00502c	0.12530583
34	0xbd721741	-0.059104208
35	0x3dbe7520	0.092996836
36	0x3df3cca4	0.119042665
37	0x3d875f15	0.06609932
38	0xbde25324	-0.11051014
39	0x3e0b001c	0.1357426
40	0xbb4eadcd	-0.0031536699
41	0x3d7cfc5b	0.061764102
42	0x3ddbb078	0.10727018
43	0xbda34610	-0.07972348
44	0x3d02d373	0.031939935
45	0x3d8a8337	0.067633085
46	0xbd7085ae	-0.058721237
47	0xbcd0aef3	-0.025474047
48	0x3e281bed	0.16416903
49	0xbddfed67	-0.10933953
50	0xbe064c12	-0.13114956
51	0xbc35d882	-0.011098983
52	0x3e704105	0.23462303
53	0xbdf4a07a	-0.11944671
54	0xbdcd74d1	-0.100320466
55	0x3ccf3e36	0.02529822
56	0xbd7b6b90	-0.061381876
57	0x3e3a54c6	0.18196401
58	0xbdc5383e	-0.09629868
59	0x3d5d73aa	0.054065384
60	0x3dcd2b28	0.10017997
61	0x3e17b341	0.14814474
62	0x3d6ba28c	0.057528064
63	0x3c5f0466	0.0136118885
64	0x3da0e563	0.07856252
65	0x3d821cfc	0.063531846
66	0x3da48a85	0.08034233
67	0xbdd33ae3	-0.10313966
68	0x3da13d82	0.0787306
69	0xbcc8b8c6	-0.02450217
70	0xbcb3dfe4	-0.021957345
71	0x3cb1af3e	0.021690007
72	0xbcfe78f2	-0.03106353
73	0xbdcde118	-0.10052699
74	0x3e17538b	0.14777963
75	0xbd41a493	-0.04727609
76	0x3dec0018	0.115234554
77	0x3e2ed4c1	0.17073347
78	0xbdfef8ba	-0.124497846
79	0xbdc5c889	-0.0965739
80	0xbdb351a9	-0.0875581
81	0x3ddde305	0.10834316
82	0x3dc7ae79	0.09750075
83	0xbe500fa4	-0.20318466
84	0x3d99cee5	0.07510165
85	0x3dbef1cb	0.09323462
86	0x3e0de9e0	0.13858747
87	0xbd9eb820	-0.07749963
88	0x3da5176b	0.08061107
89	0x3df9818f	0.121829145
90	0x3d1f4975	0.038888413
91	0x3e2ca20c	0.16858691
92	0x3d898df8	0.067165315
93	0xbe03bbdf	-0.12864636
94	0xbe000745	-0.12502773
95	0x3d6622fc	0.056185707
96	0x3ad45417	0.0016199377
97	0x3da617b5	0.081099905
98	0x3d9b78e2	0.07591416
99	0x3d16429b	0.036684614
100	0xbbf5278d	-0.0074815215
101	0x3e35bca2	0.17747739
102	0x3d998076	0.07495205
103	0x3c001077	0.0078164255
104	0x3df8e74b	0.12153491
105	0x3d86260f	0.06550228
106	0xbde8f7ad	-0.113753654
107	0xbd912932	-0.070879355
108	0x3da88846	0.08229117
109	0xbdbcbd75	-0.092158236
110	0xbd7115cc	-0.058858678
111	0xbcbdf555	-0.023188272
112	0xbda91b05	-0.08257107
113	0x3d520cdd	0.0512818
114	0x3d750c7a	0.05982635
115	0xbe28ab64	-0.1647163
116	0x3db1c087	0.086793
117	0x3cfcb9e3	0.030850356
118	0xbdae0427	-0.08496886
119	0x3cce0c11	0.025152238
120	0xbd82bf34	-0.06384125
121	0x3d847db0	0.064692855
122	0xbe006c67	-0.12541352
123	0x3c5ebbd6	0.013594588
124	0x3d5e24b8	0.054234236
125	0x3e0fceb4	0.14043695
126	0xbe1d2cce	-0.15349123
127	0x3dabd11e	0.08389495
128	0xbdc00ef3	-0.09377851
129	0x3da8bc29	0.08239014
130	0xbd5bcf79	-0.05366466
131	0x3cd657a7	0.026164843
132	0x3e15b3bd	0.14619346
133	0x3dc1fc08	0.09471899
134	0xbdc250ef	-0.09488093
135	0x3dc8cdb7	0.09804862
136	0xbd776773	-0.06040139
137	0x3d6fb30d	0.058520366
138	0x3e011e96	0.12609324
139	0xbdc63503	-0.0967808
140	0xbd3d3e84	-0.046202198
141	0x3d893d35	0.067011274
142	0xbdc11974	-0.09428683
143	0xbdf695d7	-0.120402984
144	0x3e0e0820	0.13870287
145	0xbd2ea4a0	-0.042637467
146	0xbdf3abcf	-0.11898004
147	0x3d965d82	0.07342054
148	0x3e1148d6	0.14187941
149	0x3d8e16f6	0.06937973
150	0xbded2a6e	-0.115803584
151	0xbd627ea4	-0.055296555
152	0xbd0e9520	-0.034810185
153	0x3e29394c	0.16525763
154	0xbd874c84	-0.06606391
155	0xbd473d96	-0.048642717
156	0x3d6d55c9	0.05794314
157	0x3de433d2	0.111426964
158	0xbbd038c8	-0.006354425
159	0xbdd48149	-0.10376222
160	0x3d9baa56	0.076008484
161	0x3dda49f8	0.1065864
162	0x3da446a9	0.0802129
163	0xbdffdae3	-0.12492921
164	0xbdacdc85	-0.08440498
165	0xbe0624db	-0.13099997
166	0xbcf7d5a4	-0.030253239
167	0xbc216d39	-0.009852701
168	0x3cbab549	0.022791522
169	0xbd9beba4	-0.07613304
170	0x3da57ebe	0.08080815
171	0xbb1304c8	-0.002243327
172	0x3cfa6823	0.030567234
173	0x3de2c699	0.11073036
174	0xbdf1443d	-0.117805935
175	0xbdee73a3	-0.1164315
176	0xbce0cba5	-0.027440855
177	0x3e089d8b	0.13341348
178	0x3dcaed2b	0.099085175
179	0xbe323b4b	-0.17405431
180	0x3dc19436	0.09452097
181	0x3d978dd8	0.074001014
182	0xbd056fea	-0.032577433
183	0xbd4c0608	-0.04981044
184	0x3dbe65c5	0.09296755
185	0x3e0987c1	0.13430692
186	0x3d1e4bb8	0.03864643
187	0x3e04680a	0.12930313
188	0x3d84dc97	0.06487387
189	0xbe112011	-0.14172389
190	0xbe17d45e	-0.14827105
191	0x3dc2653b	0.094919644
192	0x3d141145	0.036149282
193	0x3d66f41b	0.05638514
194	0x3d456cdc	0.04819952
195	0x3da3b25d	0.079930045
196	0xbccf1e86	-0.02528311
197	0x3dbc87ca	0.09205587
198	0x3e114f86	0.14190492
199	0xbca5f8b6	-0.020260196
200	0x3e07d9a4	0.13266617
201	0x3db06cd7	0.086145096
202	0xbdf23612	-0.11826719
203	0xbd1cdff1	-0.038299505
204	0x3e3a837d	0.18214221
205	0x3d43dc5b	0.04781757
206	0xbc906401	-0.01762581
207	0x3dd76293	0.105168484
208	0xbe21b057	-0.15789925
209	0xbe2bf253	-0.16791658
210	0x3d7b3c06	0.06133654
211	0xbd9734a6	-0.07383089
212	0x3d93143a	0.07181592
213	0x3da60740	0.081068516
214	0xbcea663d	-0.028613204
215	0xbd959fde	-0.07305883
216	0xbe1ff6e5	-0.15621527
217	0x3d60f3fe	0.05492019
218	0xbdb309cf	-0.08742105
219	0x3c917144	0.017754205
220	0x3beb48f7	0.007180329
221	0x3df26036	0.11834757
222	0xbe46b727	-0.19405805
223	0x3d7d3cba	0.06182549
224	0xbdf1df1c	-0.11810133
225	0x3d8ae0c3	0.06781151
226	0xbcb92161	-0.022598924
227	0x3d9700c7	0.07373195
228	0x3e08f489	0.13374533
229	0x3d9b1e24	0.07574108
230	0xbca6d1c2	-0.020363692
231	0x3e04c43c	0.12965482
232	0xbd341fb9	-0.043975566
233	0x3d2cccc5	0.04218747
234	0x3e11a557	0.14223228
235	0xbe156951	-0.14590956
236	0xbda192a8	-0.078893006
237	0xbcaf0821	-0.02136618
238	0xbd90b0c5	-0.07064966
239	0xbd03afba	-0.032150008
240	0x3e0bfeb9	0.13671388
241	0xbd4983ad	-0.04919784
242	0xbd9fbf46	-0.078001544
243	0x3ad4b91b	0.0016229482
244	0x3e2b836b	0.1674935
245	0xbcbdb9fa	-0.02315997
246	0xbdecf357	-0.11569851
247	0xbd824ea8	-0.06362659
248	0xbdaa820c	-0.08325586
249	0x3e0d5156	0.13800558
250	0xbd1ebe65	-0.038755793
251	0xbdba0f7b	-0.09084984
252	0x3d338c19	0.04383478
253	0x3d91fa64	0.07127836
254	0xbc8e3b74	-0.017362334
255	0xbe1ca2a4	-0.15296417

layer1.bias f4 [32]
0	0x3e166fe5	0.14691122
1	0x3deb7ba8	0.11498195
2	0x3e254913	0.16141157
3	0x3d0c8e40	0.034315348
4	0x3cdc4149	0.0268866
5	0x3dbefa36	0.09325068
6	0x3e177b49	0.14793123
7	0x3e29056e	0.16505978
8	0x3e2e6b03	0.17033009
9	0x3d509aa9	0.050928745
10	0x3af8ba4e	0.0018976422
11	0x3c6ea5e4	0.014565919
12	0x3dc0a4c8	0.094064295
13	0xbc88d9ab	-0.016705355
14	0x388eb08a	6.8039706e-05
15	0x3d1c7c4b	0.038204473
16	0x3bbeb47b	0.005819855
17	0x3ce093a6	0.027414154
18	0x3ceea41e	0.029130992
19	0x3e1c4bdd	0.15263315
20	0x3e10605b	0.14099257
21	0x3e1efc81	0.1552601
22	0x3e163968	0.14670336
23	0x3caab560	0.02083844
24	0x3d05610a	0.032563247
25	0x3e341eed	0.17589922
26	0x3be73b86	0.0070566563
27	0x3bfa865f	0.007645413
28	0x3c3e7cf4	0.011626471
29	0x3c8ab214	0.016930617
30	0x3b15098f	0.0022741293
31	0x3df38bf4	0.11891928

layernorm1.weight f4 [32]
0	0x3fd0e4c4	1.6319814
1	0x3fa0d7c7	1.256585
2	0x3f8d3835	1.1032778
3	0x3f85918b	1.0435041
4	0x3f8a0242	1.0781939
5	0x3f89193d	1.0710827
6	0x3f8997c4	1.074944
7	0x3fab6856	1.3391216
8	0x3fee9042	1.8637774
9	0x3f8889d0	1.0667057
10	0x3f8ea085	1.1142737
11	0x3f876f9e	1.0580938
12	0x3f618433	0.88092345
13	0x3f970736	1.1799076
14	0x3f9ffe5d	1.24995
15	0x3f831425	1.0240523
16	0x3f8df9bc	1.1091838
17	0x3f88106f	1.0630015
18	0x3f9a5e61	1.2060052
19	0x3f88a796	1.0676143
20	0x3f8d06ac	1.1017661
21	0x3f9b1fd4	1.2119088
22	0x3fd22875	1.6418597
23	0x3f97fc98	1.187396
24	0x3f912764	1.1340146
25	0x3fad9266	1.3560302
26	0x3f8d9b47	1.1063012
27	0x3f919579	1.137374
28	0x3f829500	1.0201721
29	0x3f83f66b	1.0309576
30	0x3f830e9a	1.0238831
31	0x3f92f56d	1.1481148

layernorm1.bias f4 [32]
0	0x3d6561a8	0.056001335
1	0x3cd58c98	0.026068017
2	0x3dfe6d78	0.12423223
3	0x3d774d9b	0.060376745
4	0xbd524a33	-0.051340293
5	0x3cd52b6b	0.02602168
6	0x3dd6a423	0.10480525
7	0x3de663e7	0.112495236
8	0x3d395d55	0.045255024
9	0x3e008510	0.1255076
10	0xbbad8dd9	-0.0052964506
11	0xbd4a9f62	-0.049468406
12	0xbe6347c7	-0.2219535
13	0xbcd0e96a	-0.025501925
14	0xbd1d9156	-0.03846868
15	0x3c41f7b3	0.011838841
16	0x3da16d04	0.07882121
17	0x3d7dc4f6	0.061955415
18	0xbd371c7e	-0.044704907
19	0x3dc73db5	0.097285666
20	0x3de3730c	0.11105928
21	0x3dd29df4	0.102840334
22	0x3d10c770	0.03534645
23	0xbd079e12	-0.033109732
24	0x3e16196c	0.14658135
25	0x3c00f208	0.007870205
26	0x3bb50631	0.0055244197
27	0xbd100581	-0.0351615
28	0x3d62acf5	0.055340726
29	0x3cfd4ce0	0.030920446
30	0xbcfeb274	-0.031090952
31	0x3d59e7ef	0.053199705

blocks.0.fcn_layer.weight f4 [32, 32]
0	0xbea2d419	-0.31802443
1	0xbdc4ab55	-0.096029915
2	0x3d84d225	0.064853944
3	0x3eadc1f2	0.3393703
4	0x3e99813f	0.2998142
5	0xbdd9e079	-0.10638518
6	0xbdc45d47	-0.09588104
7	0x3aecf650	0.0018078778
8	0xbee3922d	-0.4444746
9	0x3ec966cd	0.39336243
10	0x3ef2af27	0.47399256
11	0x3e826c63	0.25473318
12	0x3e89e90c	0.26935613
13	0x3ee33854	0.44378912
14	0x3e99ad90	0.3001523
15	0x3e86254e	0.26200336
16	0x3ee6af2a	0.45055515
17	0x3ec8a433	0.39187774
18	0x3ea0a73d	0.31377593
19	0x3db71637	0.08939784
20	0xbd904563	-0.070444845
21	0xbe93a6ec	-0.2883829
22	0xbea5f22e	-0.3241133
23	0x3ee87080	0.4539833
24	0x3e1309ef	0.14359258
25	0x3cab697a	0.020924319
26	0x3eb6ad69	0.35679176
27	0x3e9c3844	0.30511677
28	0x3e655fc9	0.2239982
29	0x3ec660a5	0.3874561
30	0x3e813d5c	0.25242126
31	0x3c91ac7a	0.017782439
32	0xbddaae92	-0.10677828
33	0x3e4da4d5	0.2008241
34	0xbdc82c2c	-0.0977405
35	0x3efc25e9	0.49247673
36	0x3ec0f5b3	0.37687454
37	0x3e62e3bc	0.22157186
38	0xbe3cae1e	-0.18425795
39	0xbc2af607	-0.010434634
40	0xbecd2d81	-0.4007378
41	0x3ed8ffc9	0.4238265
42	0x3e9e04d6	0.30863065
43	0x3e6bd070	0.23028731
44	0x3db9291a	0.090410426
45	0x3eb21e04	0.34788525
46	0x3edd38dd	0.43207446
47	0x3e9bc0ae	0.3042044
48	0x3e3d0896	0.18460307
49	0x3df71933	0.12065353
50	0x3ee55f22	0.44799143
51	0xbdfcad80	-0.1233778
52	0x3cf28c7b	0.029608002
53	0x3e3923b9	0.18080033
54	0xbdf44065	-0.11926345
55	0x3d97a32f	0.07404172
56	0x3eabbd08	0.33542657
57	0xbbe68536	-0.007034923
58	0x3e374cf4	0.17900449
59	0x3f0b57b0	0.54430676
60	0x3ed5ae85	0.4173471
61	0x3e860b18	0.2618034
62	0x3e18ce31	0.14922406
63	0x3dc39ec6	0.09551768
64	0xbec028f6	-0.3753125
65	0xbd9b6d8d	-0.075892545
66	0xbd292045	-0.04129054
67	0x3eb887f1	0.36041215
68	0x3eb1fcd4	0.34763205
69	0x3d808f5e	0.06277345
70	0x3d4fc9b0	0.050729454
71	0xbeac6934	-0.33674014
72	0xbed6c0da	-0.4194401
73	0x3e939995	0.2882811
74	0x3e88d402	0.2672425
75	0x3dc7d3a8	0.09757167
76	0x3d5092bc	0.050921187
77	0x3e972ef2	0.29528004
78	0x3e84d1a0	0.2594118
79	0x3e424454	0.18971378
80	0x3ea4135b	0.32046017
81	0x3ecbd138	0.3980806
82	0x3e90f30a	0.28310424
83	0xbd76ef31	-0.060286704
84	0x3d70985a	0.058739044
85	0xbea13be6	-0.3149101
86	0xbe9cb072	-0.30603367
87	0x3ecaf993	0.39643535
88	0x3d6e9c4a	0.058254518
89	0xbce2b3d6	-0.027673643
90	0x3e5075f6	0.20357499
91	0x3e95f20d	0.29286233
92	0x3e9977c7	0.29974195
93	0x3e97dafc	0.2965926
94	0x3e2ca002	0.16857913
95	0xbe63a7fd	-0.22232051
96	0xbd9bdbcd	-0.07610283
97	0x3e36c9cc	0.17850417
98	0x3bc681c0	0.006057948
99	0x3e801421	0.25015357
100	0x3e454a2a	0.19266573
101	0x3dfb0ed9	0.12258691
102	0xbe0ca595	-0.1373504
103	0x3cc5677d	0.024097199
104	0xbe9cf228	-0.306535
105	0x3e48bb60	0.19602728
106	0x3e8aa0e4	0.27075875
107	0x3dd0181b	0.10160848
108	0x3d83b7f4	0.06431571
109	0x3e631825	0.22177179
110	0x3ec3552c	0.38150918
111	0x3e85bc54	0.26120245
112	0x3e7b9016	0.24566683
113	0x3ce7b7b2	0.028285835
114	0x3ea4e4fd	0.32205954
115	0xbbb3596a	-0.0054733055
116	0xbde95634	-0.11393395
117	0x3e14547c	0.14485353
118	0xbdc5e5eb	-0.09662994
119	0x3dfab0e1	0.12240768
120	0x3e8fb812	0.28070122
121	0xbdb88f2b	-0.09011682
122	0x3e98dd26	0.29856223
123	0x3e618455	0.22023137
124	0x3e8ecc7b	0.2789038
125	0x3d6c686b	0.05771677
126	0x3d4cf56e	0.050038747
127	0x3ddab18c	0.10678396
128	0xbeb6652a	-0.35624057
129	0x3e625698	0.22103345
130	0x3d8e245a	0.06940527
131	0x3d9ac077	0.07556241
132	0x3e66b18d	0.22528668
133	0x3c0d33e0	0.008618325
134	0x3dd10340	0.10205698
135	0xbe9ad89b	-0.30243382
136	0xbebdbd5e	-0.37058538
137	0x3e7795f0	0.2417829
138	0x3e37fd15	0.17967637
139	0x3e395373	0.1809824
140	0x3de75852	0.11296143
141	0x3eb628da	0.35578042
142	0x3e263226	0.16230068
143	0x3de90700	0.11378288
144	0x3e2ea001	0.17053224
145	0x3cdd33e5	0.027002284
146	0x3eb6dcd9	0.35715368
147	0xbddf9a41	-0.109180935
148	0xbdbb4d5a	-0.09145613
149	0xbda05293	-0.0782825
150	0xbeb2abfa	-0.34896833
151	0x3ea68cf9	0.3252943
152	0x3e1119d3	0.14170007
153	0xbdcfadbd	-0.1014056
154	0x3de3cdd1	0.11123241
155	0x3eadd5e0	0.33952236
156	0x3e3858c2	0.18002608
157	0x3e354388	0.17701542
158	0x3e4b76fa	0.19869605
159	0xbe251191	-0.16119982
160	0xbedac47d	-0.42728034
161	0x3e494eaf	0.19658922
162	0x3d7c06f6	0.061530076
163	0x3da9cc89	0.08290965
164	0x3e6348d3	0.22195749
165	0x3b574d50	0.0032852478
166	0x3dc6997c	0.096972436
167	0xbe984eba	-0.29747564
168	0xbf006903	-0.50160235
169	0x3e18e51d	0.1493115
170	0x3e9088bf	0.2822933
171	0x3deccc96	0.11562459
172	0xbd049364	-0.032367125
173	0x3e9f0ddc	0.3106526
174	0x3ec8837a	0.3916281
175	0x3df949ac	0.12172255
176	0x3e416acd	0.18888398
177	0x3e29b0cf	0.16571353
178	0x3ebb38b6	0.36566705
179	0x3dcdd8b1	0.10051096
180	0xbe1c7518	-0.15279043
181	0xbdd16356	-0.10224025
182	0xbed24add	-0.4107274
183	0x3ef39836	0.47577065
184	0xbd19b6e3	-0.03752793
185	0xbe875ee5	-0.26439586
186	0x3e863353	0.26211032
187	0x3e872e71	0.2640262
188	0x3e78d3ea	0.24299589
189	0x3dd7395f	0.105089895
190	0x3e5af030	0.21380687
191	0xbe5cccfc	-0.2156257
192	0xbe9b8146	-0.30372065
193	0x3db290af	0.087190025
194	0xbd64861b	-0.055791955
195	0x3e5358a1	0.20639278
196	0x3e983a89	0.2973216
197	0xbda01c05	-0.07817844
198	0x3d927bdf	0.07152533
199	0xbd8e46bb	-0.069470845
200	0xbe9bcf1f	-0.30431458
201	0x3e549d90	0.2076323
202	0x3e5240d9	0.2053255
203	0x3e9f9985	0.31171814
204	0x3d1db70f	0.038504656
205	0x3ea099e7	0.31367418
206	0x3ec1896b	0.37800154
207	0x3e5e65d1	0.21718527
208	0x3eae9208	0.34095788
209	0x3e95a79e	0.29229444
210	0x3f06bdf0	0.5263357
211	0x3dcd8d93	0.10036769
212	0x3c635fdf	0.013877838
213	0xbd7bbfbf	-0.06146216
214	0xbe204ebf	-0.15655039
215	0x3e90c1e4	0.28272927
216	0x3eb5e2fc	0.35524738
217	0xbeb5b4da	-0.3548954
218	0x3e945de7	0.28977892
219	0x3e9f0bf6	0.31063813
220	0x3ea0ca75	0.31404462
221	0x3e524035	0.20532306
222	0x3e87a8e4	0.2649604
223	0xbcdbc2ba	-0.026826251
224	0xbe8fbea3	-0.28075132
225	0x3d42d532	0.0475666
226	0x3d8cea90	0.06880677
227	0x3ec6b379	0.38808802
228	0x3e94e5b3	0.29081497
229	0x3e1d7d3a	0.15379801
230	0xbe269961	-0.16269447
231	0xbe7aaa32	-0.24478987
232	0xbf05547b	-0.5208203
233	0x3ec2dd8a	0.38059646
234	0x3ecdae8b	0.40172228
235	0x3e1f2545	0.15541561
236	0x3d83b3d1	0.06430782
237	0x3eae7522	0.3407374
238	0x3e9a3518	0.30118632
239	0x3e016092	0.12634495
240	0x3e6b2084	0.22961622
241	0x3ec6b4eb	0.38809904
242	0x3ee56660	0.44804668
243	0xbe08516b	-0.13312308
244	0x3c72539b	0.014790441
245	0xbd4a680e	-0.04941564
246	0xbe9819ac	-0.29707086
247	0x3ed13052	0.40857178
248	0x3e8898a3	0.26678953
249	0x3dcfd0fd	0.10147283
250	0x3e73b3d2	0.23799065
251	0x3ecef54c	0.40421522
252	0x3ed6a022	0.41919047
253	0x3ea9529f	0.33070847
254	0x3e876d97	0.26450798
255	0xbe0fa240	-0.14026737

blocks.0.fcn_layer.bias f4 [32]
0	0xbe01d92e	-0.12680504
1	0x3c312f3b	0.010814483
2	0x3d86efd7	0.065887146
3	0x3e0c3f9b	0.13696139
4	0xbc79fca4	-0.015257988
5	0x3c8b1188	0.016976133
6	0xbe5e8b0d	-0.21732731
7	0xbc792add	-0.015207973
8	0x3dc0a6f7	0.09406846
9	0xbcb5b05d	-0.022178823
10	0xbe13eb3d	-0.14445205
11	0x3e33c183	0.17554288
12	0xbda6283a	-0.08113141
13	0xbe05fc4f	-0.1308453
14	0xbd5ba4a7	-0.05362382
15	0x3d5486bd	0.05188631
16	0xbda029e5	-0.07820491
17	0x3d8079c1	0.06273223
18	0x3de595ad	0.11210189
19	0xbdafad30	-0.08577955
20	0x3e0d39df	0.13791607
21	0xbe1b9b14	-0.15195876
22	0x3e8f7f4b	0.28026804
23	0x3ca24699	0.019809054
24	0xbe37d1ee	-0.17951176
25	0x3dee7006	0.116424605
26	0xbe130b58	-0.14359796
27	0xbe371f09	-0.17882933
28	0x3e947edb	0.29003033
29	0xbdd652fa	-0.10465045
30	0x3ea78177	0.3271596
31	0x3e4c0d7d	0.1992702

blocks.0.layer_norm.weight f4 [32]
0	0x3f95e74a	1.1711209
1	0x3fb2000f	1.3906268
2	0x3fac3c15	1.3455836
3	0x3faf88e3	1.371365
4	0x3f9782be	1.1836774
5	0x3faf35be	1.3688276
6	0x3fad0aaa	1.351888
7	0x3fa88f90	1.3168812
8	0x3f91622d	1.1358086
9	0x3f9d6207	1.229554
10	0x3faa0a1e	1.3284338
11	0x3f9532dd	1.1656147
12	0x3fb77164	1.4331479
13	0x3fa9e4b5	1.3272921
14	0x3fbd7ba2	1.4803355
15	0x3f9d0835	1.226813
16	0x3faec2f4	1.3653245
17	0x3f8a9a90	1.0828419
18	0x3fb08fae	1.3793848
19	0x3fb50ea0	1.4145088
20	0x3fb17097	1.3862485
21	0x3f8e876f	1.1135081
22	0x3fb07909	1.3786937
23	0x3fc64ea2	1.5492747
24	0x3fb3a752	1.4035437
25	0x3fa57791	1.2927114
26	0x3fa09818	1.2546415
27	0x3fbe7020	1.4877968
28	0x3fb92523	1.4464458
29	0x3fa5396e	1.2908151
30	0x3fb231b4	1.3921418
31	0x3f793ae7	0.973555

blocks.0.layer_norm.bias f4 [32]
0	0x3db05dcd	0.08611641
1	0x3d80778c	0.06272802
2	0x3d976cac	0.073937744
3	0x3d56bddf	0.05242717
4	0x3d256f0e	0.040389113
5	0x3e89fb4b	0.26949534
6	0x3d847ecc	0.06469497
7	0x3da33f56	0.07971065
8	0x3e25342b	0.16133182
9	0xbd916276	-0.07098858
10	0x3e9ff8f2	0.31244618
11	0x3e9258da	0.28583413
12	0x3c9f3a34	0.019436933
13	0xbdb54ee3	-0.08852937
14	0x3dd6036b	0.10449871
15	0x3db4bd4a	0.088251665
16	0x3d6be391	0.05759007
17	0x3e7a8d82	0.24468043
18	0xbca1091d	-0.019657666
19	0x3e326c66	0.17424163
20	0x3c834a0c	0.01602652
21	0x3b5cf9ce	0.003371823
22	0xbbd53f0a	-0.006507759
23	0x3c7b2895	0.0153295
24	0x3e49c1b2	0.19702795
25	0x3cd99423	0.026559895
26	0x3dd32878	0.10310453
27	0xba9d8ee5	-0.0012020735
28	0x3dd6be50	0.10485518
29	0x3e44d0ab	0.19220226
30	0x3e94a701	0.29033664
31	0x3dabb0bb	0.08383318

last_layer.weight f4 [1, 32]
0	0x3ea0146d	0.31265584
1	0x3ed74aa2	0.42049128
2	0x3ec64840	0.38726997
3	0x3eaf4502	0.34232336
4	0x3e7c029c	0.2461037
5	0x3eb556e2	0.3541785
6	0x3eb0f0b8	0.34558654
7	0x3ebef918	0.37299418
8	0xbe6bf4f9	-0.23042668
9	0x3e90c5fc	0.2827605
10	0x3eb91735	0.36150518
11	0xbe98d6e8	-0.2985146
12	0x3f0672f6	0.52519166
13	0x3efc401a	0.49267656
14	0xbf0024b5	-0.5005601
15	0x3ebfa63e	0.3743152
16	0x3ea9961d	0.3312234
17	0xbe7417bc	-0.23837179
18	0x3ead826a	0.3388856
19	0x3f039b74	0.5140908
20	0xbee1e8a5	-0.44122806
21	0x3e74d6a4	0.23910004
22	0xbec3f18a	-0.38270217
23	0x3f24768e	0.642434
24	0x3ef53a80	0.47896194
25	0x3eb666dd	0.35625353
26	0x3e8e3029	0.27771118
27	0x3f0e527f	0.5559463
28	0xbf07acf1	-0.5299826
29	0x3e856322	0.26052195
30	0xbf05482d	-0.52063257
31	0xbe10391e	-0.14084288
