wakeword_models/hey_luxona/hey_luxawna_single.onnx (onnx, 205430 bytes, 9 tensors)

layer1.weight f4 [32, 1536]
-0.09566499 0.08104359 0.04625767 -0.08210488 0.13166398 0.05997535 0.065529324 0.033501625
-0.058194436 0.06434867 -0.073958606 -0.016507987 -0.0048460853 -0.013484108 -0.113687284 -0.054683175
-0.15034583 0.052262507 0.0073283394 -0.09171044 0.039207526 0.073736206 -0.11641182 0.018349204
-0.046642505 0.06597722 -0.050934907 -0.031472515 -0.028257217 0.02936959 -0.073629424 0.12158333
-0.06302244 0.10365495 -0.08641555 0.0010669923 0.13445486 0.09132916 0.0847323 0.101124026
-0.005092759 -0.06285368 0.105265774 -0.10120897 -0.025666919 -0.07689327 -0.08370265 0.016920026
0.0831903 -0.021852577 -0.0347072 0.08902988 0.1236476 0.0094676465 -0.10081734 -0.11356522
-0.0643475 0.10213558 -0.12590201 -0.0422052 0.031187851 -0.023155201 -0.07887833 -0.1224762
0.105419815 0.037860647 0.017719053 -0.017962761 -0.0072742174 0.0033671265 -0.00421174 0.098639406
0.072760984 -0.106456384 0.07922054 -0.15058468 -0.0017982544 0.046962194 -0.109699376 -0.1094963
0.12628326 0.121607505 0.12489891 -0.122160345 0.14547123 0.026973771 0.015177024 -0.039757602
-0.062492203 0.113097474 -0.0027896601 0.06838711 0.06236816 -0.11949779 -0.03006393 0.09202734
-0.08929027 0.076189145 -0.004921677 -0.048596267 0.09738118 0.093843885 0.04041674 0.026274612
-0.028972154 0.09349391 -0.045694835 0.0100659495 0.037178345 0.019484103 -0.13794997 -0.040244244
-0.056055807 0.097149186 -0.04670565 -0.13756397 0.1041422 0.07811484 -0.07995455 0.00897876
-0.04583197 -0.009508421 -0.07857013 0.033406623 0.018401353 0.017379735 -0.10097832 0.17936973
-0.1276947 0.05633362 -0.1016697 -0.0053546443 0.10764785 0.08727974 0.046986032 0.10443813
-0.067990266 -0.020273706 0.115358084 -0.073360786 -0.033189677 -0.09299623 -0.051938023 0.039239995
0.11162686 0.06079903 -0.056952797 0.11405302 0.04325149 -0.07875114 -0.09299971 -0.11539914
-0.03574482 0.09434416 -0.11839572 -0.055919178 0.091583855 0.0011343388 -0.0464301 -0.012933663
0.051659327 0.024110103 0.031338 -0.036703974 0.06348686 -0.043461423 -0.08034954 0.13793565
0.019390285 -0.077804 0.09405728 -0.034087386 -0.075119466 0.033212762 -0.09800062 -0.102758236
0.13560858 0.1221688 0.056057636 -0.10863942 0.13223718 -0.13613877 0.016544305 -0.10426851
-0.113596 0.079917304 -0.004415186 0.07119181 0.10866086 -0.10514771 -0.044797413 0.08940135
-0.03746888 0.0708192 0.010522381 -0.050518386 0.11965313 0.10259147 0.011290152 -0.02020091
0.03524881 0.08745887 -0.07344001 -0.035598133 0.007594053 -0.007791899 -0.09930858 0.06865279
-0.10690868 0.09875936 -0.15807448 -0.109822914 0.16081376 0.10029956 -0.05916509 0.0033281674
-0.051777814 0.0073511773 -0.122497916 0.06907534 -0.002318585 0.011020672 -0.08709738 0.13786578
-0.077567644 -0.02724068 -0.034488793 0.05363991 0.13756171 0.08853421 -0.07127498 0.109906435
-0.10867369 0.058612186 0.10281823 -0.038799014 -0.052945435 -0.14282836 -0.079157054 0.09157964
0.09622405 -0.022959579 -0.052337836 0.10730348 0.004937951 -0.041921373 -0.0615976 -0.05697648
-0.025206452 0.12756881 -0.11723822 -0.058490478 0.06379199 0.086999446 -0.060099684 -0.014961054
00000000: 02ec c3bd 2ffa a53d af78 3d3d 9a26 a8bd
00000010: ecd2 063e b6a8 753d 3d34 863d 0039 093d
00000020: 4a5d 6ebd 3cc9 833d 9c77 97bd c23b 87bc
00000030: e9cb 9ebb 73ec 5cbc e1d4 e8bd 77fb 5fbd
00000040: 42f4 19be 3611 563d 9122 f03b afd2 bbbd
00000050: 1298 203d 0203 973d 5269 eebd 1251 963c
00000060: 360c 3fbd 111f 873d 1fa1 50bd 53e9 00bd
00000070: ae7b e7bc 7f98 f03c 06cb 96bd ae00 f93d
00000080: e911 81bd 0c49 d43d a3fa b0bd 52da 8b3a
00000090: 89ae 093e c80a bb3d 2188 ad3d 1d1a cf3d
000000a0: 29e1 a6bb 6eb9 80bd 9595 d73d a646 cfbd
000000b0: 6e43 d2bc 387a 9dbd 4c6c abbd de9b 8a3c
000000c0: ad5f aa3d 2d04 b3bc 2329 0ebd 4c55 b63d
000000d0: f43a fd3d 301e 1b3c 5279 cebd e294 e8bd
000000e0: 9fc8 83bd 752c d13d 75ec 00be 5cdf 2cbd
000000f0: aa7d ff3c faaf bdbc f68a a1bd cdd4 fabd
00000100: 58e6 d73d c413 1b3d 8c27 913c a426 93bc
00000110: 8f5c eebb 02ab 5c3b a302 8abb 7503 ca3d
00000120: b603 953d ce05 dabd 613e a23d df32 1abe
00000130: 68b3 ebba 6e5b 403d 11aa e0bd 993f e0bd
00000140: 6650 013e 5b0d f93d 00cb ff3d 342f fabd
00000150: 69f6 143e 19f8 dc3c 0da9 783c ded8 22bd
00000160: d3f7 7fbd a69f e73d bbd2 36bb 8b0e 8c3d
00000170: c175 7f3d 42bb f4bd a248 f6bc d478 bc3d
00000180: d1dd b6bd 0e09 9c3d 0546 a1bb e10c 47bd
00000190: c96f c73d 3931 c03d 068c 253d db3d d73c
000001a0: 0357 edbc bc79 bf3d 822a 3bbd a7eb 243c
000001b0: 5248 183d 209d 9f3c c242 0dbe 26d7 24bd
000001c0: c69a 65bd 27f6 c63d 6c4e 3fbd 92dd 0cbe
000001d0: 8148 d53d acfa 9f3d 36bf a3bd a61b 133c
000001e0: 4eba 3bbd 35c9 1bbc 60e9 a0bd 62d5 083d
000001f0: 6fbe 963c f25f 8e3c b9cd cebd b3ac 373e
00000200: 66c2 02be 15be 663d 3438 d0bd 0376 afbb
00000210: 7a76 dc3d b8bf b23d 6d74 403d a9e3 d53d
00000220: 7b3e 8bbd 0b15 a6bc dc40 ec3d 2e3e 96bd
00000230: e6f1 07bd cf74 bebd f7bc 54bd 1eba 203d
00000240: a09c e43d 6708 793d 5647 69bd a194 e93d
00000250: 7928 313d 4748 a1bd a276 bebd 6256 ecbd
00000260: 2969 12bd 8337 c13d 7579 f2bd 820b 65bd
00000270: 5190 bb3d 18ae 943a 7d2d 3ebd b7e7 53bc
00000280: bb98 533d 8d82 c53c 465c 003d e856 16bd
00000290: 6605 823d 9b04 32bd 4d8e a4bd 013f 0d3e
000002a0: 60d8 9e3c b457 9fbd 1aa1 c03d 379f 0bbd
000002b0: 3cd8 99bd 1b0a 083d 8db4 c8bd e972 d2bd
000002c0: fadc 0a3e a333 fa3d b19c 653d 587e debd
000002d0: 2f69 073e f667 0bbe ec87 873c bb8a d5bd
000002e0: 05a5 e8bd afab a33d 44ad 90bb 03cd 913d
000002f0: 9689 de3d af57 d7bd 7e7d 37bd 0e18 b73d
00000300: f878 19bd a809 913d 1166 2c3c 5eec 4ebd
00000310: b30c f53d 7a1b d23d 54fa 383c 617c a5bc
00000320: 0e61 103d a31d b33d b767 96bd 59cf 11bd
00000330: 89d7 f83b 3053 ffbb 4c62 cbbd d599 8c3d
00000340: f0f2 dabd 5942 ca3d 47de 21be d6ea e0bd
00000350: 5dac 243e db69 cd3d 1857 72bd 621d 5a3b
00000360: f914 54bd 25e2 f03b 30e0 fabd 5f77 8d3d
00000370: 67f3 17bb 0c90 343c 1c60 b2bd b02c 0d3e
00000380: c9db 9ebd d927 dfbc 1f44 0dbd 86b5 5b3d
00000390: fadc 0c3e 6d51 b53d 9ef8 91bd a016 e13d
000003a0: 5090 debd 5513 703d 5d92 d23d b7eb 1ebd
000003b0: 50dd 58bd 9941 12be 181d a2bd 1b8e bb3d
000003c0: 1d11 c53d ba15 bcbc 3360 56bd edc1 db3d
000003d0: 89ce a13b bfb5 2bbd c44d 7cbd 2b60 69bd
000003e0: c37d cebc 66a1 023e 981a f0bd b693 6fbd
000003f0: 60a5 823d c42c b23d 162b 76bd 351f 75bc

layer1.bias f4 [32]
0.108477846 0.13626222 0.018059395 0.0012971843 -0.01045424 0.1343591 0.035227794 -0.005741875
0.0831638 0.027741063 -0.0042828172 0.025081636 0.05767437 -0.0047658365 0.16697553 0.16295879
0.11650229 0.15179823 0.01885433 0.014377237 0.0027011943 0.13851225 0.1175347 0.108357936
0.13918346 0.15925798 0.036522806 0.095205635 0.005351825 -0.023747537 0.0002461485 -0.0043385644
00000000: a229 de3d 5388 0b3e 4cf1 933c 4806 aa3a
00000010: 4348 2bbc 6f95 093e 054b 103d 5726 bcbb
00000020: c851 aa3d 3a41 e33c e056 8cbb 0178 cd3c
00000030: f63b 6c3d bc2a 9cbb a2fb 2a3e abde 263e
00000040: c198 ee3d ff70 1b3e 6574 9a3c 818e 6b3c
00000050: 8506 313b 28d6 0d3e 08b6 f03d c4ea dd3d
00000060: 1c86 0e3e 8614 233e f098 153d 2cfb c23d
00000070: 5d5e af3b 328a c2bc 7e0d 8139 842a 8ebb

layernorm1.weight f4 [32]
1.017941 1.4473991 1.1216985 0.99557287 1.0856305 1.3192858 1.0206906 1.1704268
1.1346148 1.1230943 1.1680716 1.119034 0.9709997 1.0498974 1.5441874 1.0811785
1.2186551 1.6506482 1.0931395 1.1522444 1.0879852 1.0425712 1.0655266 1.1497667
1.094438 1.4679402 1.2118723 1.081404 1.1221813 1.1980798 0.9695505 1.1433114
00000000: e44b 823f 6044 b93f d193 8f3f dddd 7e3f
00000010: f1f5 8a3f 5bde a83f fda5 823f 8cd0 953f
00000020: 0f3b 913f 8ec1 8f3f 5f83 953f 823c 8f3f
00000030: 7093 783f 0a63 863f efa7 c53f 0f64 8a3f
00000040: e4fc 9b3f 7148 d33f ffeb 8b3f bf7c 933f
00000050: 1943 8b3f f972 853f 2d63 883f 8e2b 933f
00000060: 8b16 8c3f 77e5 bb3f a21e 9b3f 726b 8a3f
00000070: a3a3 8f3f ae5a 993f 7634 783f 0758 923f

layernorm1.bias f4 [32]
0.050180335 0.07324341 0.03539684 -0.028282488 0.04755788 0.097368844 -0.009473088 -0.031603925
0.031897705 0.025942957 0.050479084 -0.00059979904 -0.056464367 0.06781723 0.06869397 0.11490319
0.094764434 0.0744127 -0.037310757 -0.035691477 0.0014821066 0.097038664 0.033905126 0.075544424
0.05948837 0.05477952 0.047107294 0.08391014 -0.019346418 -0.040413838 0.042024557 -0.0019349387
00000000: e589 4d3d a400 963d 47fc 103d adb0 e7bc
00000010: 0dcc 423d 5169 c73d 0335 1bbc 1e73 01bd
00000020: 2ba7 023d 5386 d43c 28c3 4e3d d53b 1dba
00000030: 2e47 67bd c3e3 8a3d 6daf 8c3d 5d52 eb3d
00000040: db13 c23d b065 983d 2ad3 18bd 3a31 12bd
00000050: 3f43 c23a 35bc c63d 1ae0 0a3d 09b7 9a3d
00000060: 14aa 733d 7d60 603d 94f3 403d 14d9 ab3d
00000070: 617c 9ebc fb88 25bd f121 2c3d c59d fdba

blocks.0.fcn_layer.weight f4 [32, 32]
0.09280657 -0.043079916 0.09920968 0.16970913 0.1590033 0.052735545 0.31384876 0.32885376
0.056483522 0.16229688 0.3151836 0.22835234 0.07809448 0.127904 0.010705735 0.020477418
0.007815615 -0.17903054 0.26181585 0.3385089 0.12694094 0.0009627902 0.05238098 0.0653685
0.09094578 -0.11806592 0.25419113 -0.08713891 0.20968495 0.2668883 0.20253804 -0.04936414
-0.07194703 0.43467286 -0.20665103 -0.04828113 -0.1756475 0.32342666 -0.20809667 -0.36151096
0.15169571 -0.11372017 -0.2857354 -0.23832771 -0.0682603 -0.111259855 0.59632903 0.21805471
0.18007931 0.76129514 -0.31691575 -0.32413504 -0.22946198 0.08562593 -0.3322884 -0.12109956
0.2852081 0.6160635 -0.47389522 0.10101398 -0.14008671 -0.29054922 -0.2585566 -0.21666022
-0.0075492864 -0.06851506 0.054611582 0.072188616 0.004440329 -0.04232727 0.17822824 0.17657332
0.101912804 0.025928376 0.14326283 0.015674839 0.015861738 0.014862611 -0.055491503 0.1762576
-0.11991583 -0.030637028 0.03602849 0.24607798 0.12737356 -0.014273737 0.13499193 0.092035815
-0.012649044 -0.0801329 0.11352602 -0.030603575 0.22731563 0.16408911 -0.025370182 0.14993551
-0.081536226 0.191577 0.14861993 0.093618825 0.12029014 0.086558826 0.12189985 0.0023344832
0.23102248 0.04376148 -0.019970978 0.053964306 0.20151448 0.2446897 0.28950834 0.07897709
0.10844882 0.25299755 0.022536246 0.11919811 0.32745126 -0.015883815 -0.02198665 0.08343228
0.1028665 0.25971994 -0.12062968 -0.1021556 0.20995942 0.015230847 0.17602323 0.2108902
-0.15503734 0.50814897 -0.19282821 -0.20122004 -0.23463714 0.27998626 -0.2865025 -0.243739
-0.2028703 -0.19123405 -0.34283847 -0.2007599 -0.1555921 0.050032802 0.5303562 0.031953495
0.15839955 0.6467181 -0.34345332 -0.34251925 -0.28002438 0.14447138 -0.01784758 0.1910727
0.20273902 0.49491686 -0.119158 0.059713684 -0.32380417 -0.14725932 -0.25555184 -0.19905926
0.16385002 -0.12650922 0.42355305 0.2955483 0.18479739 -0.036603764 0.39704347 0.32618615
-0.21222934 0.35434118 0.20867586 0.09477423 0.19327481 0.2489242 0.007783993 0.091325864
-0.20532596 -0.3219922 0.2342111 0.19428991 0.2933139 0.039050825 0.14569446 -0.10649234
0.017515088 -0.20028433 0.31259325 -0.09057547 0.3424827 0.4308419 0.32701978 0.30151913
0.0364266 0.07018807 -0.08998913 -0.065024756 -0.067221895 0.020366708 0.088324346 -0.024426874
0.13671206 0.020878814 0.08622236 -0.094012395 -0.08637187 -0.107763946 0.13296507 0.17856315
-0.028808495 0.076572664 -0.15406588 0.02573917 0.036108535 -0.010885182 0.091536894 -0.03804415
-0.0137962075 0.08925913 -0.020755177 0.042622052 0.035568707 0.062862344 -0.107962385 -0.1595866
0.14080152 -0.4732984 0.17487305 0.19492282 0.22225499 -0.34809154 0.20861569 0.37261057
0.05390538 0.08291263 0.33903888 0.27644676 -0.080742344 0.13545272 -0.35241133 0.12901716
-0.24525242 -0.38616708 0.10632282 0.39775634 0.09258209 -0.13246281 0.08435907 0.09205287
-0.14725098 -0.33168152 0.3228844 0.11677211 0.27747115 0.3535346 0.074576735 0.28826982
00000000: 5f11 be3d 9174 30bd 722e cb3d 3bc8 2d3e
00000010: c3d1 223e 3a01 583d c9b0 a03e 855f a83e
00000020: 445b 673d 2731 263e bf5f a13e 32d5 693e
00000030: 00f0 9f3d 44f9 023e 1b67 2f3c 42c0 a73c
00000040: 110d 003c c853 37be ba0c 863e 0a51 ad3e
00000050: cefc 013e c263 7c3a 708d 563d ecdf 853d
00000060: c841 ba3d 8ccc f1bd 5725 823e e375 b2bd
00000070: a7b7 563e 95a5 883e 2266 4f3e 0d32 4abd
00000080: f758 93bd 718d de3e 549c 53be 6fc2 45bd
00000090: f0dc 33be 2e98 a53e 4b17 55be f717 b9be
000000a0: 1f56 1b3e 1fe6 e8bd e94b 92be 2e0c 74be
000000b0: 0ecc 8bbd 35dc e3bd 05a9 183f bc49 5f3e
000000c0: b666 383e 3de4 423f c842 a2be 07f5 a5be
000000d0: 15f8 6abe a65c af3d b521 aabe 0c03 f8bd
000000e0: cc06 923e 56b6 1d3f 65a2 f2be 6be0 ce3d
000000f0: e472 0fbe dec2 94be 8861 84be 2ddc 5dbe
00000100: 0160 f7bb a051 8cbd 65b0 5f3d a0d7 933d
00000110: 2e80 913b 5c5f 2dbd 7781 363e a3cf 343e
00000120: a9b7 d03d bf67 d43c 7eb3 123e 8568 803c
00000130: 7af0 813c 4f82 733c 0f4b 63bd df7c 343e
00000140: 6e96 f5bd 81fa fabc 9c92 133d defb 7b3e
00000150: 376e 023e 64dc 69bc 533b 0a3e 467d bc3d
00000160: f03d 4fbc b81c a4bd 5480 e83d 59b4 fabc
00000170: 6ec5 683e fa06 283e 21d5 cfbc b288 193e
00000180: 77fc a6bd c32c 443e d32f 183e 3abb bf3d
00000190: ad5a f63d c145 b13d a1a6 f93d 21fe 183b
000001a0: 2891 6c3e 3d3f 333d 2d9a a3bc ad09 5d3d
000001b0: d059 4e3e f08f 7a3e 703a 943e bebe a13d
000001c0: 6a1a de3d e588 813e ef9d b83c 241e f43d
000001d0: b1a7 a73e c61e 82bc 591d b4bc 8bde aa3d
000001e0: acab d23d 03fa 843e b20c f7bd f536 d1bd
000001f0: 9aff 563e cd8a 793c 6f3f 343e 9af3 573e
00000200: 1cc2 1ebe 0d16 023f c274 45be a00c 4ebe
00000210: b844 70be 5c5a 8f3e 75b0 92be b796 79be
00000220: 3bbd 4fbe dcd2 43be 8688 afbe 0194 4dbe
00000230: 8953 1fbe 32ef 4c3d 6dc5 073f abe1 023d
00000240: 7e33 223e 518f 253f 1dd9 afbe af5e afbe
00000250: 5b5f 8fbe 4ef0 133e 1735 92bc 90a8 433e
00000260: d19a 4f3e be65 fd3e 1c09 f4bd 5696 743d
00000270: a9c9 a5be 26cb 16be b1d7 82be 31d6 4bbe
00000280: 4dc8 273e a28b 01be f2db d83e 1b52 973e
00000290: 873b 3d3e d4ed 15bd 4849 cb3e df01 a73e
000002a0: a652 59be 356c b53e 20af 553e fe18 c23d
000002b0: d5e9 453e fce5 7e3e de10 ff3b 0e09 bb3d
000002c0: f840 52be 29dc a4be 09d5 6f3e eff3 463e
000002d0: 3d2d 963e c2f3 1f3d ee30 153e a818 dabd
000002e0: cd7b 8f3c 5617 4dbe 390c a03e a27f b9bd
000002f0: e459 af3e 4f97 dc3e 236f a73e b760 9a3e
00000300: 0f34 153d c3be 8f3d 394c b8bd b32b 85bd
00000310: a2ab 89bd 15d8 a63c 65e3 b43d de1a c8bc
00000320: 3ffe 0b3e 0c0a ab3c 5995 b03d 9289 c0bd
00000330: bce3 b0bd 58b3 dcbd ff27 083e 42d9 363e
00000340: cbff ebbc 21d2 9c3d 72c3 1dbe f4da d23c
00000350: 8be6 133d c357 32bc b277 bb3d 2fd4 1bbd
00000360: 7d09 62bc 7ecd b63d c306 aabc 7694 2e3d
00000370: 7eb0 113d f9bd 803d 621b ddbd ab6a 23be
00000380: 462e 103e 2b54 f2be ec11 333e d999 473e
00000390: d096 633e 0e39 b2be 5a9f 553e d0c6 be3e
000003a0: e3cb 5c3d 19ce a93d 8196 ad3e 6e8a 8d3e
000003b0: 3e5c a5bd 1eb4 0a3e 426f b4be 131d 043e
000003c0: 7323 7bbe b1b7 c5be c7bf d93d b8a6 cb3e
000003d0: ae9b bd3d 55a4 07be 73c4 ac3d 3786 bc3d
000003e0: f6c8 16be 29d2 a9be 1b51 a53e 3726 ef3d
000003f0: b310 8e3e 7d02 b53e b0bb 983d 1a98 933e

blocks.0.fcn_layer.bias f4 [32]
-0.14455271 0.021322 -0.1215025 -0.04461452 0.013216503 -0.09102122 0.06542017 0.043230925
-0.0256075 0.10558471 0.1919673 0.060889464 -0.12154023 -0.18210435 -0.04938203 -0.24223538
0.06175148 -0.018069943 0.07237189 -0.037482645 -0.091462225 -0.09495433 0.03977707 0.1203849
0.26145002 0.008024561 -0.15065119 0.112214714 0.11878708 0.14447549 -0.09983549 -0.16783682
00000000: a005 14be 7aab ae3c 4dd6 f8bd b7bd 36bd
00000010: 088a 583c 5569 babd 03fb 853d e912 313d
00000020: d2c6 d1bc cc3c d83d 1393 443e 3b67 793d
00000030: 16ea f8bd 9079 3abe d044 4abd 8d0c 78be
00000040: 1fef 7c3d 6b07 94bc b737 943d 6787 19bd
00000050: 8c50 bbbd 6a77 c2bd 48ed 223d 5c8c f63d
00000060: c7dc 853e 7379 033c 4e44 1abe d4d0 e53d
00000070: a446 f33d 62f1 133e 8d76 ccbd 6add 2bbe

blocks.0.layer_norm.weight f4 [32]
1.2740585 1.3999921 1.2060586 1.127299 1.0729681 1.2574741 0.9779065 1.4365016
1.2242684 1.2996908 1.2402538 1.3208891 1.3388518 1.4170542 1.4629061 1.3442297
1.2763368 1.5289762 1.3407944 1.2938901 1.4271346 1.4117151 1.4171473 1.3765063
1.3476307 1.069713 1.3802613 1.2889236 1.2306038 1.3240013 1.3040229 1.2221873
00000000: 5914 a33f f132 b33f 2160 9a3f 554b 903f
00000010: 0557 893f e9f4 a03f 1558 7a3f 49df b73f
00000020: d4b4 9c3f 455c a63f a3c0 9e3f e512 a93f
00000030: 7f5f ab3f 0862 b53f 8240 bb3f b80f ac3f
00000040: 015f a33f 7eb5 c33f 279f ab3f 319e a53f
00000050: 59ac b63f 15b3 b43f 1565 b53f 5c31 b03f
00000060: 2a7f ac3f 5bec 883f 67ac b03f 73fb a43f
00000070: 6d84 9d3f e078 a93f 39ea a63f a270 9c3f

blocks.0.layer_norm.bias f4 [32]
0.10392885 0.1469939 0.25080758 0.19235231 0.07468547 0.080715895 -0.0814144 0.31654385
0.17251359 0.19133627 0.19847728 0.1431931 0.07614512 0.24807705 0.2497502 0.13488284
0.16823429 0.22022371 0.26057476 -0.029882884 0.065858014 0.1991496 0.25489017 0.015389595
0.1724128 -0.15445304 0.06701402 0.19067064 0.051672895 0.31758726 0.050459128 -0.045863215
00000000: a6d8 d43d 9285 163e da69 803e 01f8 443e
00000010: b2f4 983d 604e a53d 98bc a6bd 0912 a23e
00000020: 67a7 303e a8ed 433e a13d 4b3e 36a1 123e
00000030: f9f1 9b3d e907 7e3e 84be 7f3e ba1e 0a3e
00000040: 9c45 2c3e 5382 613e 0e6a 853e f3cc f4bc
00000050: 91e0 863d dfed 4b3e f780 823e a424 7c3c
00000060: fb8c 303e f028 1ebe a63e 893d 2a3f 433e
00000070: f5a6 533d cc9a a23e 3bae 4e3d 11db 3bbd

last_layer.weight f4 [1, 32]
0.24486594 -0.5300429 0.28166962 0.18166724 -0.21076885 0.3780038 0.21499142 0.48977724
-0.36475572 0.32985827 -0.39994138 0.34212404 0.33182466 0.39384955 -0.5255776 0.37594905
0.3523298 0.5831419 0.43175808 0.35368037 0.39936417 0.39152852 0.4142145 0.5133919
-0.39034894 0.32841346 0.40129966 -0.39260337 0.30428502 0.35977027 0.33833167 0.35959664
00000000: 23be 7a3e e4b0 07bf 0037 903e fa06 3a3e
00000010: cad3 57be b789 c13e b626 5c3e 15c4 fa3e
00000020: 43c1 babe 2fe3 a83e 1ec5 ccbe e22a af3e
00000030: ece4 a93e a6a6 c93e 418c 06bf 657c c03e
00000040: 9264 b43e ca48 153f 650f dd3e 9815 b53e
00000050: 7679 cc3e 6d76 c83e ec13 d43e a76d 033f
00000060: d1db c7be cf25 a83e 2677 cd3e 4f03 c9be
00000070: 3fcb 9b3e cf33 b83e cf39 ad3e 0d1d b83e
