wakeword_models/hey_luxona/hey_luxawna_multi.onnx (onnx, 205430 bytes, 9 tensors)

layer1.weight f4 [32, 1536]
0	0x3d3fbedb	0.046812873
1	0x3d6e1c9c	0.058132753
2	0x3c1e2b12	0.009653823
3	0xbde86a9b	-0.113484584
4	0x3d52a680	0.051428318
5	0x3b36b6ba	0.002787991
6	0x3dedf816	0.11619584
7	0xbdf913c9	-0.12161977
8	0xbdb07732	-0.08616485
9	0x3d2bf499	0.041981313
10	0xbd52b8f2	-0.05144591
11	0xbc998b25	-0.018743107
12	0xbd4cb53a	-0.04997752
13	0xbd9d7d45	-0.07689909
14	0xbda97a79	-0.08275313
15	0xbd8f2a91	-0.06990541
16	0x3d667ac5	0.056269426
17	0x3dfa51ab	0.12222608
18	0x3c507673	0.012723553
19	0xbe02fa86	-0.1279088
20	0x3e0d3c3a	0.13792506
21	0x3d8c4b54	0.06850305
22	0xbda346fc	-0.079725236
23	0x3d5c5928	0.053795964
24	0xbd117467	-0.0355114
25	0x3dc03406	0.09384923
26	0xbb25d1ac	-0.0025301976
27	0xbc839c99	-0.016065883
28	0x3dad7921	0.08470369
29	0x3d516582	0.051122196
30	0xbc632cc9	-0.013865658
31	0x3d4ad6ed	0.049521375
32	0xbcebf914	-0.028805293
33	0xbe334efe	-0.17510602
34	0xbd350226	-0.044191502
35	0x3ce51b9f	0.027967272
36	0x3bf4ab82	0.0074667344
37	0x3d17afd6	0.037032925
38	0x3d7faf4c	0.062423036
39	0x3cd24c67	0.025671197
40	0x3bb1902a	0.005418797
41	0x3deb5a2d	0.11491809
42	0xbd2805c6	-0.04102113
43	0x3c9958d5	0.018719116
44	0xbd3b9e8e	-0.045805506
45	0xbe17bb07	-0.14817439
46	0xbd001af9	-0.031275723
47	0xbc6fa5b2	-0.014626907
48	0x3dc609a4	0.096698076
49	0x3e1c3174	0.1525324
50	0xbd82ae6f	-0.06380927
51	0x3d19e80b	0.03757481
52	0x3d4ab88f	0.049492415
53	0x3df60c9c	0.12014124
54	0xbd19db97	-0.037562933
55	0xbd23f9b2	-0.04003305
56	0xbe1897dc	-0.1490168
57	0x3bd9f39b	0.0066513545
58	0xbc3de817	-0.011590979
59	0xbe34b8a3	-0.17648558
60	0x3dd63603	0.10459521
61	0x3e286ac7	0.16446982
62	0x3e0bce70	0.13652968
63	0xbdf939a5	-0.12169198
64	0x3dcf30d6	0.101167366
65	0x3da2107b	0.079133
66	0x3deafc29	0.11473877
67	0xbd373aba	-0.04473374
68	0xbdadc3d4	-0.08484617
69	0xbe474aa3	-0.19462065
70	0x3ce13c61	0.027494611
71	0xb9747a42	-0.00023315198
72	0x3da7f5fc	0.08201215
73	0xbd2eeef6	-0.04270836
74	0x3d830ba5	0.063987054
75	0x3db3dbdc	0.08782169
76	0x3e333358	0.17500055
77	0xbc60435d	-0.013687936
78	0xbcc4d889	-0.024029033
79	0xbc4cf7a5	-0.012510215
80	0x3dbe8539	0.09302754
81	0x3d47f391	0.048816267
82	0x3cb308f6	0.021854859
83	0xbd563e93	-0.05230577
84	0x3d8a14f0	0.06742275
85	0xbdfb278c	-0.12263402
86	0x3e1a260c	0.15053576
87	0xbdb9d4f8	-0.09073824
88	0x3d1c7c3f	0.038204428
89	0x3ca3d002	0.019996647
90	0x3cec9305	0.028878698
91	0x3d6a2c77	0.05717131
92	0xbb68e9b1	-0.0035539682
93	0x3c6d7070	0.014492139
94	0xbe108b3f	-0.14115618
95	0x3d27ca3b	0.040964346
96	0xbc14205e	-0.00904092
97	0x3d49f948	0.04931
98	0x3de29e80	0.11065388
99	0xbda1baa5	-0.07896928
100	0x3d0ba751	0.034095112
101	0x3c91a0cc	0.01777687
102	0x3de95d01	0.11394692
103	0xbd20557f	-0.039144035
104	0xbe252ec2	-0.16131118
105	0x3d89e984	0.06733993
106	0xbd08d297	-0.03340396
107	0x3c19e1a3	0.009392175
108	0x3c04ffd6	0.008117637
109	0xbe107b66	-0.14109573
110	0xbda7eda2	-0.08199622
111	0xbc4d8637	-0.012544206
112	0x3d9699a6	0.07353525
113	0x3e3cdfb2	0.18444708
114	0xbd3e0805	-0.046394367
115	0xbd833b60	-0.06407809
116	0x3c7b8ffd	0.015354154
117	0x3d8b7855	0.06810061
118	0xbd474d54	-0.04865773
119	0xbc467cd7	-0.012114725
120	0xbdbdd13a	-0.092684224
121	0x3dffd70f	0.12492191
122	0xbcd09703	-0.025462633
123	0x3c869338	0.016427621
124	0xbc98a7b5	-0.018634656
125	0x3def4fcb	0.11685141
126	0xbbc6521d	-0.006052269
127	0xb9c0d97a	-0.00036783126
128	0xbd025393	-0.031817984
129	0xbd409997	-0.047021475
130	0xbd31ff82	-0.043456562
131	0x3dd03514	0.10166374
132	0x3c67f41c	0.014157321
133	0x3c3e80d1	0.011627392
134	0xbb939cc1	-0.0045047705
135	0x3c0400fd	0.008056876
136	0xbd73b96e	-0.05950301
137	0x3da70348	0.08154923
138	0x3c39a685	0.011331205
139	0x3ad53374	0.0016265945
140	0xbd82b1a8	-0.063815415
141	0xbd71429c	-0.058901414
142	0xbd9badcc	-0.076015085
143	0x3b385396	0.0028125993
144	0x3d0bbae5	0.034113783
145	0x3d790cd6	0.060803257
146	0xbd03d7ce	-0.03218823
147	0x3d86ee76	0.065884516
148	0x3ce10653	0.027468836
149	0x3d911754	0.070845276
150	0x3b5ec6e1	0.0033993053
151	0xbb8c7be4	-0.00428723
152	0xbdbd8d41	-0.09255458
153	0x3cd0d5e7	0.025492622
154	0xbd14d795	-0.036338408
155	0xbd9a7d66	-0.07543449
156	0x3db1b9f2	0.086780444
157	0x3d8cfc47	0.068840556
158	0x3d3dce3e	0.046339266
159	0xbda294ae	-0.07938515
160	0x3d820a93	0.06349673
161	0x3d228b66	0.039683722
162	0x3e037927	0.12839185
163	0xbd383a2d	-0.044977356
164	0xbc00f7ae	-0.007871551
165	0xbdab0e40	-0.08352327
166	0xbe03942e	-0.12849495
167	0x3b4e94b3	0.0031521737
168	0x3e017e23	0.12645774
169	0xbd87474e	-0.06605397
170	0x3d2bafaa	0.041915573
171	0x3db4c43a	0.0882649
172	0x3dfbfded	0.12304292
173	0x3a431a04	0.00074425363
174	0x3c63e3c9	0.013909289
175	0xbc6f265e	-0.01459655
176	0x3d20aa75	0.03922506
177	0x3d2674be	0.040638678
178	0x3d74d9ab	0.059777897
179	0xbe0386a4	-0.1284433
180	0xbaa8e711	-0.0012886246
181	0xbdb0c352	-0.086310044
182	0x3cbc944b	0.02301993
183	0xbd21f595	-0.039540846
184	0x3da10509	0.078622885
185	0x3c299bbb	0.01035207
186	0x3d415ccc	0.04720764
187	0x3d935253	0.071934365
188	0x3c722359	0.014778935
189	0x3be6d1bf	0.0070440467
190	0xbdc7818e	-0.097415075
191	0x3d30ac28	0.04313293
192	0xbe886955	-0.26642862
193	0x3db176c9	0.086652346
194	0x3e16647b	0.14686768
195	0xbda8543d	-0.08219192
196	0x3d48d9cf	0.049035843
197	0x3b7a89f7	0.0038229206
198	0x3d3c259f	0.045934316
199	0xbe09d2a7	-0.13459264
200	0xbdec7a99	-0.11546821
201	0x3d89e645	0.067333736
202	0xbca3af0d	-0.019980932
203	0x3d067532	0.03282661
204	0xbc39feca	-0.01135225
205	0xbde73f8f	-0.1129142
206	0xbd043944	-0.032281175
207	0x3ccbcc07	0.024877561
208	0x3d478c4b	0.04871778
209	0x3dffbac4	0.124867946
210	0xbd370cf6	-0.044690095
211	0xbd6d865f	-0.057989474
212	0x3d225f4b	0.03964166
213	0x3bff3f94	0.0077895615
214	0xbdd82cd2	-0.10555424
215	0x3d14f78d	0.036368895
216	0xbdd89d0c	-0.10576829
217	0x3dc0af81	0.09408475
218	0xbc415b00	-0.011801481
219	0x3d7366c1	0.059424166
220	0x3dcfedcd	0.10152779
221	0x3e05f5e2	0.13082078
222	0xbc6a8b14	-0.014315385
223	0xbd329905	-0.043602962
224	0xbda7ad89	-0.08187396
225	0xbde31024	-0.11087063
226	0xbd7589a9	-0.059945736
227	0x3d986684	0.07441428
228	0x3be67418	0.0070328824
229	0x3c88bb7a	0.016690958
230	0x3c7f1d24	0.0155709125
231	0xbce9007b	-0.028442612
232	0xbdbb8104	-0.09155467
233	0xbbc97e09	-0.0061490578
234	0xbc64854e	-0.013947798
235	0x3bd67cdf	0.0065456475
236	0xbd61e7c0	-0.055152655
237	0xbdbe3c7f	-0.092888825
238	0xbd7336fa	-0.0593786
239	0x3b14be77	0.0022696534
240	0x3df1f9d3	0.11815228
241	0x3e582ef5	0.21111663
242	0xbc80c989	-0.0157211
243	0x3d9cb814	0.076522976
244	0x3d85e2df	0.06537413
245	0x3d308481	0.043095116
246	0xbc88b09b	-0.016685775
247	0xbc7ff1e2	-0.015621634
248	0xbd89b015	-0.06723038
249	0x3cdef19c	0.027214818
250	0xbc4172e8	-0.011807181
251	0xbca918e5	-0.020641753
252	0x3df15c9d	0.11785243
253	0x3e2c85c6	0.16847906
254	0x3d965e01	0.073421486
255	0xbd6d5b51	-0.057948414

layer1.bias f4 [32]
0	0xbd129ccf	-0.035794076
1	0x3de579d4	0.112048775
2	0x3de5cdbe	0.11220883
3	0xbcb4a664	-0.022051997
4	0x3e0b2177	0.13586985
5	0x3bc91b24	0.0061372686
6	0x3c442835	0.011972477
7	0x3def6f37	0.116911344
8	0x3e11d0ca	0.14239803
9	0x3d9141e1	0.070926435
10	0xbc69591f	-0.0142424395
11	0x3e070b2f	0.1318786
12	0x3e176292	0.14783695
13	0xbcdb1bb5	-0.02674661
14	0x3de139d4	0.10997358
15	0x3d469a47	0.048486974
16	0xbd01fd74	-0.031735852
17	0x3d19bebc	0.037535414
18	0x3dec35f3	0.115337275
19	0xbd66de94	-0.05636461
20	0x3dda96d4	0.106732994
21	0x3dfc0a68	0.12306672
22	0xbc74861b	-0.014924551
23	0x3e013e52	0.1262143
24	0x3de96e57	0.11397999
25	0x3ba2877a	0.0049599977
26	0x3b8d4d7a	0.0043122144
27	0xbbfbc14f	-0.0076829563
28	0x3e072d1c	0.13200802
29	0x3cd769ab	0.026295504
30	0xbd3f58cb	-0.04671554
31	0x3d8cd9dc	0.06877491

layernorm1.weight f4 [32]
0	0x3f86e8ac	1.0539756
1	0x3f9f76b1	1.2458097
2	0x3f8b979b	1.0905641
3	0x3f7c25bc	0.9849508
4	0x3fe18848	1.7619715
5	0x3f7e42b7	0.9932055
6	0x3f6c67e9	0.92346054
7	0x3f815c69	1.0106326
8	0x3fa56e3e	1.2924268
9	0x3f8f5933	1.1199096
10	0x3f82ad44	1.0209126
11	0x3fd14379	1.6348716
12	0x3fbac0c0	1.4590073
13	0x3f88d371	1.0689527
14	0x3fa35bc1	1.2762376
15	0x3f84b828	1.03687
16	0x3f9b2585	1.2120825
17	0x3f77e417	0.9683241
18	0x3fb768a4	1.4328809
19	0x3f854ad2	1.0413458
20	0x3f67f611	0.9060984
21	0x3fd60d35	1.672278
22	0x3f659657	0.89682525
23	0x3f816dd2	1.011164
24	0x3fbe2acf	1.4856814
25	0x3f8b69f1	1.0891706
26	0x3f81b061	1.0131952
27	0x3f8486d7	1.035365
28	0x3f9f9632	1.2467711
29	0x3f75b40e	0.95977867
30	0x3f8334c3	1.0250477
31	0x3f94af31	1.1615964

layernorm1.bias f4 [32]
0	0xbda3686d	-0.07978902
1	0x3cb2ee61	0.021842184
2	0x3daf822b	0.085697494
3	0xbd6465d9	-0.055761192
4	0xbc8ef211	-0.01744941
5	0xbd82952e	-0.0637611
6	0xbd97d3ca	-0.074134424
7	0x3d9ee811	0.07759107
8	0xbcae7a25	-0.021298477
9	0x3d9d04de	0.07666944
10	0x3e37acf8	0.17937076
11	0xbbe4c8bf	-0.0069819386
12	0x3d084fd2	0.033279248
13	0xbdc9a249	-0.098454066
14	0xbc849928	-0.016186312
15	0xbdb25220	-0.0870707
16	0x3c182acb	0.009287546
17	0x3c82a337	0.015946968
18	0x3dc360d8	0.09539956
19	0xbdb2506b	-0.08706745
20	0xbda62b65	-0.081137456
21	0x3cd597ad	0.026073301
22	0xbd1500b3	-0.03637762
23	0x3d3bc817	0.045845117
24	0x3c03a375	0.008034577
25	0xbcb92a2a	-0.022603113
26	0xbccd6a0c	-0.025074981
27	0xbd93ae70	-0.07211006
28	0x3d91bdca	0.071162775
29	0xbd9c0320	-0.076177835
30	0xbd73e249	-0.059541974
31	0xbc24691d	-0.010034827

blocks.0.fcn_layer.weight f4 [32, 32]
0	0xbe456e2e	-0.19280311
1	0x3e1173cc	0.14204329
2	0x3e949c25	0.2902538
3	0xbe82e964	-0.25568688
4	0x3efa5869	0.48895577
5	0xbe865345	-0.26235405
6	0xbe4f23d3	-0.2022851
7	0xbdce27af	-0.10066163
8	0x3e23e571	0.16005494
9	0x3e3ba505	0.18324669
10	0xbdcf8782	-0.10133268
11	0x3ee197ef	0.4406123
12	0x3ece973f	0.40349767
13	0xbeb71818	-0.3576057
14	0x3ea3e684	0.32011807
15	0x3d1b18f7	0.037865605
16	0xbe838c8d	-0.2569317
17	0x3d8f741a	0.070045665
18	0x3eaa1ca1	0.33224967
19	0xbeb97de1	-0.3622885
20	0x3c6595bf	0.014012753
21	0x3e909b9c	0.2824372
22	0xbe4a0824	-0.19729668
23	0x3db4293a	0.08796926
24	0x3eefa188	0.46802926
25	0xbdeafca6	-0.1147397
26	0xbe4959e1	-0.19663192
27	0xbe986a12	-0.29768425
28	0x3eb81b2a	0.35958225
29	0xb69e56f1	-4.7188882e-06
30	0xbe285b00	-0.16440964
31	0x3d824523	0.06360843
32	0x3e4aa35a	0.19788876
33	0xbde7297e	-0.11287211
34	0x3dc7d470	0.09757316
35	0x3e796fe2	0.24359086
36	0xbe4e1640	-0.20125675
37	0x3e6525e9	0.22377743
38	0x3e128730	0.14309382
39	0xbc21f5c6	-0.009885257
40	0xbe2b6004	-0.16735846
41	0x3d128289	0.03576902
42	0x3e41aabd	0.18912788
43	0xbe0cf11f	-0.13763855
44	0xbdde174c	-0.10844287
45	0x3e46f7d0	0.1943047
46	0xbda89c82	-0.082329765
47	0x3e4ed281	0.20197488
48	0x3e833205	0.256241
49	0xbd33d396	-0.043902956
50	0xbe3c10fb	-0.18365853
51	0x3e833325	0.25624958
52	0x3e3ed7ec	0.18637055
53	0xbd85a0dd	-0.06524823
54	0x3dfbe4e7	0.12299519
55	0x3c0f91c6	0.008762782
56	0xbd8bd856	-0.06828372
57	0x3e200832	0.15628126
58	0x3e95c589	0.2925227
59	0x3e8d041e	0.27542204
60	0xbd93b405	-0.072120704
61	0x3d99ac71	0.07503594
62	0x3e7c2805	0.24624641
63	0xbd6797a8	-0.056541115
64	0x3ec2bd45	0.38035026
65	0x3c640c0a	0.013918886
66	0xbdaf26b1	-0.08552302
67	0x3e5a7442	0.21333411
68	0xbe5285d3	-0.20558862
69	0x3e973da4	0.29539216
70	0x3ea861f7	0.3288724
71	0xbca923dc	-0.020646982
72	0x3de41804	0.11137393
73	0x3e620d4b	0.22075383
74	0x3eb75772	0.35808903
75	0xbe87f105	-0.2655107
76	0xbe47155b	-0.1944174
77	0x3ebfccba	0.3746088
78	0xbd36757f	-0.044545647
79	0x3e651fa5	0.22375353
80	0x3ee17fe0	0.44042873
81	0x3d338892	0.043831415
82	0xbe871735	-0.26384893
83	0x3eb6bd1f	0.35691163
84	0x3c911740	0.017711282
85	0xbd9d847e	-0.076912865
86	0x3df6e0b6	0.12054579
87	0x3d180c2b	0.03712098
88	0xbe9e29fc	-0.30891407
89	0x3ec9ab22	0.39388376
90	0x3e99f19a	0.3006714
91	0x3ea4637f	0.3210716
92	0xbdf2fca3	-0.11864593
93	0x3e01b80b	0.12667863
94	0x3e9c2d11	0.30503133
95	0x3ea1f640	0.31633186
96	0xbe71f62e	-0.23629066
97	0x3e1060c8	0.14099419
98	0x3e433ff0	0.19067359
99	0xbe99b0a8	-0.3001759
100	0x3e6d99c7	0.23203193
101	0xbe50e62d	-0.20400305
102	0xbe50dc55	-0.2039655
103	0x3decb4ed	0.11557946
104	0xbe0e86bd	-0.13918586
105	0x3d8a53d9	0.06754274
106	0xbed347f2	-0.41265827
107	0x3e600b2e	0.21879265
108	0x3e65cf0c	0.22442263
109	0xbe6cbdfb	-0.23119347
110	0x3e4b7fd3	0.1987298
111	0x3dc7dba8	0.09758693
112	0xbe2aca1d	-0.16678663
113	0x3ce63c7c	0.028105013
114	0x3e584122	0.21118596
115	0xbe7bba92	-0.2458289
116	0xbd9f039d	-0.07764361
117	0x3f05ff12	0.5234233
118	0x3d0a7697	0.033804502
119	0xbc4f218f	-0.012642278
120	0x3e920bce	0.2852463
121	0xbd16eb11	-0.03684527
122	0xbe12cc03	-0.14335637
123	0xbe2db0f8	-0.1696204
124	0x3e0f7f19	0.14013328
125	0x3ca09ab0	0.01960501
126	0xbe8b2b8f	-0.2718167
127	0xbe1852ae	-0.1487529
128	0xbbefbd9e	-0.0073163053
129	0x3e46b234	0.19403917
130	0xbdeac0bc	-0.114625424
131	0xbe566865	-0.20938261
132	0x3f19d460	0.60089684
133	0xbe34cae8	-0.17655528
134	0xbc27be85	-0.0102382945
135	0x3e1e669a	0.15468827
136	0x3e0a6028	0.13513243
137	0x3d82c393	0.06384959
138	0xbda6ff10	-0.08154118
139	0x3ef56772	0.47930485
140	0x3ee8e614	0.45488036
141	0xbe8287b0	-0.25494146
142	0x3ed4e0c7	0.41577742
143	0x3ae63bb8	0.0017565405
144	0xbe79d00d	-0.24395771
145	0xbd860f78	-0.06545919
146	0x3eba9f2d	0.36449566
147	0xbd336379	-0.043796036
148	0x3d873246	0.06601386
149	0x3e97ed5d	0.2967328
150	0xbe60f86e	-0.21969768
151	0x3e85ca94	0.26131117
152	0x3ecc25ea	0.39872676
153	0xbe0d6f69	-0.13812031
154	0xbe3c7d98	-0.18407285
155	0xbe872474	-0.26395
156	0x3e1eb2d6	0.15497908
157	0xbe6ac213	-0.22925596
158	0xbd0b55bd	-0.034017313
159	0xbea13137	-0.3148286
160	0x3e89bc97	0.26901695
161	0xbe69076d	-0.22756739
162	0x3e0c15a3	0.13680129
163	0x3eb7ead2	0.3592134
164	0xbeeffa24	-0.4687053
165	0x3eaecd4e	0.3414101
166	0x3e86b6f3	0.26311454
167	0xbe2fe3b7	-0.1717671
168	0x3cded9ef	0.027203528
169	0x3d68a77d	0.056800354
170	0x3e9ff12f	0.31238696
171	0xbeb8ab6d	-0.36068287
172	0xbe9c119f	-0.30482194
173	0x3ec62f73	0.38708076
174	0xbd1b99f3	-0.037988614
175	0xbd0d96af	-0.03456753
176	0x3ee65dae	0.44993347
177	0x3e409f6f	0.18810819
178	0xbd2d3a2d	-0.04229181
179	0x3eb4626c	0.3523134
180	0x3d9e399c	0.07725832
181	0xbdfd3efb	-0.12365528
182	0x3e4d8012	0.20068386
183	0x3d786f70	0.06065315
184	0xbde7cf8b	-0.113188826
185	0x3e518b34	0.20463258
186	0x3eb268d7	0.3484561
187	0x3eecbec8	0.46239305
188	0xbe0bdae5	-0.1365772
189	0x3e21a530	0.1578567
190	0x3e775c7a	0.24156371
191	0xbe1b19d3	-0.1514657
192	0x3e96a34a	0.29421455
193	0x3cdfcec8	0.02732028
194	0x3de72b11	0.11287511
195	0x3e181d4c	0.14854926
196	0xbe01ce48	-0.12676346
197	0x3e75ff67	0.2402321
198	0x3e619a85	0.22031601
199	0xbc6c9c51	-0.014441566
200	0x3e7abb3b	0.24485485
201	0x3df5c8f9	0.12001223
202	0x3e436252	0.19080475
203	0xbe2919f7	-0.16513811
204	0xbe07f173	-0.132757
205	0x3e363dc5	0.17797
206	0x3d81e929	0.063433
207	0xbe10dfcc	-0.14147872
208	0x3e66d73e	0.22543046
209	0xbd0a34ef	-0.033741888
210	0x3d3dbe86	0.046324275
211	0x3e23c4f6	0.15993103
212	0xbcf6654f	-0.030077605
213	0x3caf6c09	0.02141382
214	0x3b451639	0.003007306
215	0xbde925fb	-0.11384197
216	0xbdb4cd8f	-0.0882827
217	0x3e638b4f	0.22221111
218	0x3e4137c5	0.1886893
219	0x3dfae9be	0.12251614
220	0x3de66664	0.11249998
221	0x3e70ebdc	0.23527473
222	0x3e498e45	0.19683178
223	0xbc53942f	-0.012913748
224	0xbe7f94a4	-0.24959046
225	0x3e1c9993	0.15292959
226	0xbd1e6d7a	-0.038678624
227	0xbde72e8d	-0.11288176
228	0x3f3d82eb	0.7402789
229	0xbe4d3735	-0.20040591
230	0x3df52aa5	0.119710244
231	0x3be433d2	0.0069641853
232	0x3e5ea018	0.21740758
233	0xbdf5fb2f	-0.120108
234	0xbe49530f	-0.1966059
235	0x3f306707	0.6890721
236	0x3f244842	0.64172757
237	0xbe4bb225	-0.19892175
238	0x39e123e0	0.00042942073
239	0xbe4efdb1	-0.20213963
240	0xbefc43bd	-0.4927043
241	0xbd73ef6f	-0.059554514
242	0x3ea8c3aa	0.3296178
243	0xbe1eae25	-0.15496118
244	0x3dbe64ae	0.09296547
245	0xbe72cd5a	-0.23711148
246	0x3d7c5e2d	0.06161325
247	0x3e70b619	0.23506965
248	0x3f062bc0	0.5241051
249	0xbecba146	-0.3977148
250	0xbd9f12bb	-0.077672444
251	0xbda4a60e	-0.08039485
252	0x3ee2cd2e	0.44297165
253	0x3e10d0f7	0.14142214
254	0x3d1d26b3	0.038366985
255	0x3e71df66	0.23620376

blocks.0.fcn_layer.bias f4 [32]
0	0x3ddf48b3	0.10902538
1	0xbe490660	-0.19631338
2	0xbde6f7d0	-0.11277735
3	0x3e059887	0.13046466
4	0x3de44e73	0.111477755
5	0xbe751c39	-0.23936547
6	0x3d52b92d	0.05144613
7	0x3d91401d	0.07092307
8	0x3e479441	0.19490148
9	0xba8af450	-0.0010601375
10	0x3d87e7d1	0.06636012
11	0x3e20d329	0.15705551
12	0xbe002b49	-0.12516512
13	0xbdb4ed4f	-0.088343255
14	0x3d763063	0.06010474
15	0xbda85c77	-0.08220761
16	0x3e873b02	0.26412207
17	0x3e03f043	0.12884621
18	0xbda88cb4	-0.08229962
19	0xbd3a9043	-0.045547735
20	0xbdf8633c	-0.121283025
21	0x3d2bc1f0	0.041933
22	0xbe127c1d	-0.14305158
23	0x3d7172ea	0.05894748
24	0x3d3a5659	0.045492504
25	0x3e60b5c1	0.21944334
26	0xbe096bcc	-0.13420027
27	0xbd657e2f	-0.05602854
28	0xbe2f4aeb	-0.17118423
29	0x3e0e5217	0.13898502
30	0x3dfabc02	0.12242891
31	0xbdb469cd	-0.088092424

blocks.0.layer_norm.weight f4 [32]
0	0x3fa8dbfa	1.3192132
1	0x3f9d9a13	1.2312645
2	0x3fb116d7	1.3835095
3	0x3fa07cd9	1.25381
4	0x3fa831c9	1.3140193
5	0x3fab10bb	1.3364481
6	0x3fa1a8e2	1.2629664
7	0x3fc49f1e	1.5361059
8	0x3fbbec62	1.4681513
9	0x3fb4f2cc	1.4136596
10	0x3fbc0ac5	1.4690787
11	0x3f87e0aa	1.0615437
12	0x3f9b3308	1.2124949
13	0x3f7b413e	0.98146427
14	0x3fac98da	1.3484147
15	0x3fbbafc5	1.4663016
16	0x3faa7158	1.331584
17	0x3fbd2c54	1.4779153
18	0x3fa77683	1.3083042
19	0x3f89fc06	1.0780036
20	0x3fa20a67	1.2659425
21	0x3f901276	1.1255634
22	0x3fa27a3d	1.2693554
23	0x3fb939cb	1.4470762
24	0x3fa03c1c	1.2518344
25	0x3f88b798	1.0681028
26	0x3f93e9ea	1.155576
27	0x3fa3b647	1.2790002
28	0x3fad0f8b	1.3520368
29	0x3f969996	1.1765621
30	0x3fa2a592	1.2706778
31	0x3fb65a57	1.424632

blocks.0.layer_norm.bias f4 [32]
0	0x3e958c6f	0.29208705
1	0xbcc5a192	-0.024124894
2	0x3c332038	0.0109329745
3	0x3e35a513	0.17738752
4	0x3e24b340	0.16084003
5	0x3b9cccb5	0.004785145
6	0xbe277b69	-0.16355671
7	0x3dbdddc8	0.09270817
8	0x3daf668d	0.08564482
9	0x3ca0c8f2	0.019627068
10	0x3dacbae5	0.08434085
11	0xbd84d008	-0.06484991
12	0x3c4199cb	0.011816452
13	0xbde63f43	-0.11242535
14	0x3d968852	0.0735022
15	0xbcec73ad	-0.028863752
16	0x3e30e78f	0.17275833
17	0x3dbe71b9	0.092990346
18	0xbd045e75	-0.032316644
19	0xbd900ce8	-0.07033712
20	0x3ea3f6c2	0.320242
21	0xbee2848b	-0.44241747
22	0x3e3c44ee	0.1838567
23	0xbd644a96	-0.055735193
24	0x3e06540b	0.13117997
25	0xbe79674c	-0.24355811
26	0x3d5ae0f8	0.053437203
27	0x3ddc8e4a	0.10769327
28	0x3e58efa4	0.21185166
29	0xbe6ace19	-0.22930183
30	0x3dc027c1	0.093825825
31	0x3d19edaa	0.03758017

last_layer.weight f4 [1, 32]
0	0xbee82b87	-0.4534571
1	0x3e9af072	0.3026157
2	0x3f08a28f	0.53373045
3	0xbea06ebb	-0.3133448
4	0xbec23acc	-0.37935483
5	0x3ee88adf	0.4541845
6	0x3eaa8adc	0.33309066
7	0xbf07e369	-0.53081375
8	0xbef5a0ec	-0.47974336
9	0x3f0c0e0c	0.54708934
10	0x3ef1bdb4	0.47215044
11	0x3e57c76e	0.2107217
12	0x3e6fa831	0.23404004
13	0x3e194657	0.14968239
14	0x3ea9ae8e	0.33140987
15	0x3ef30d4c	0.47471082
16	0xbeb8f53d	-0.36124602
17	0xbf0d6444	-0.5523112
18	0x3ef7f02a	0.48425418
19	0x3e71d465	0.23616178
20	0x3e9e6804	0.30938733
21	0xbece9a11	-0.40351918
22	0x3e911294	0.28334486
23	0x3ef177bb	0.4716166
24	0x3eb456b7	0.35222408
25	0xbe231e98	-0.1592964
26	0x3e7d9e8e	0.24767515
27	0x3e947470	0.28995085
28	0x3ea76c26	0.32699698
29	0xbea45468	-0.32095647
30	0x3ea32dc3	0.3187085
31	0x3f05dc8a	0.5228964
