wakeword_models/hey_luxona/lux_on_uh (1).onnx (onnx, 205430 bytes, 9 tensors)

layer1.weight f4 [32, 1536]
000000 12 7c 68 be 97 d1 fd 3d 3f d1 0f 3d 95 52 36 3d
       -0.22703579 0.12393492 0.035111662 0.04451235
000010 50 d2 7b 3d 80 28 72 3d 87 92 06 3e ad b7 15 be
       0.061479867 0.059120655 0.13141833 -0.14620848
000020 e8 ed 70 be 7f 71 87 3d a4 51 4b bd ba 2b 0f 3d
       -0.23528254 0.066134445 -0.049638405 0.03495381
000030 54 a0 ea 3d 7e ed 88 bc af 4b df bc 5d 5e f6 bc
       0.114563614 -0.016714808 -0.027257768 -0.030074293
000040 03 b7 e7 3d 9c 5a 77 3c c2 e8 62 3e cc ac 6a bd
       0.113142036 0.015097287 0.22159103 -0.0572937
000050 ef ac 50 3d 0c 5b ad 3d eb 92 57 bd 27 dc fb bb
       0.050946172 0.084646314 -0.052630346 -0.0076861563
000060 fa ca 08 bd 9f d2 5e 3d 30 0e c8 bd 46 cb 13 be
       -0.0333967 0.054400083 -0.09768331 -0.14433011
000070 1d 94 27 3e a1 44 0e 3d ba 4c 0a bd 18 f4 95 3d
       0.16365094 0.03473342 -0.03376458 0.07321948
000080 65 42 01 bd 38 42 49 be a2 1f de bd 46 b8 2e 3d
       -0.03155746 -0.19654167 -0.10845877 0.042656206
000090 78 e3 21 3d ff 72 eb 3d 72 eb 58 3d b5 7c 3a 3d
       0.03952357 0.11496543 0.052958913 0.045529086
0000a0 74 25 db bd 1a 2a d2 3d 27 fd 1b 3b 35 54 3e bd
       -0.10700503 0.102619365 0.0023802014 -0.046467025
0000b0 ab 7b d7 bd 5a 55 dd bd a9 b0 0e bd de 19 a6 3d
       -0.10521635 -0.10807295 -0.034836445 0.081104025
0000c0 aa 03 ba 3d b5 8e 1f 3e 9f ba a0 bc b1 44 08 3e
       0.0908273 0.15581782 -0.019620238 0.13307454
0000d0 bc a8 b1 3c b9 71 a0 bc cd 21 94 bd 2e a1 ca bd
       0.021686904 -0.019585477 -0.072330095 -0.09894024
0000e0 f4 f0 98 bc f4 53 1f 3d d2 65 82 bd d0 ca dc bd
       -0.018669583 0.038898423 -0.06367077 -0.10780871
0000f0 51 3b 82 3d 02 11 57 3e db 21 83 3d fb 7d cf bd
       0.0635897 0.21002582 0.06402942 -0.10131451
000100 0d 4e 75 3d 9e c3 12 3e 96 c8 87 3d 4b 6a 0f bd
       0.05988889 0.14332435 0.066300556 -0.03501348
000110 ff 54 a1 bd 3b 20 8a bd 2b 96 78 bb cd 55 c2 3d
       -0.0787754 -0.06744429 -0.0037931304 0.094890215
000120 cf 52 84 3d bf 38 c7 bd e8 96 6b 3d e4 ee 55 3e
       0.06461107 -0.0972762 0.057516962 0.20891911
000130 c7 4d d0 3d 16 58 d2 3d 93 17 48 bd fa 24 ba bd
       0.10171085 0.10270707 -0.048850607 -0.09089084
000140 d9 75 ba 3d dd 77 be 3d 8c eb 98 3d 09 7d 0b bd
       0.09104509 0.09300206 0.07466802 -0.03405479
000150 7a 91 9a 3d f2 ff 4f be 49 db 58 3d 64 0c 76 bd
       0.07547279 -0.20312479 0.0529435 -0.06007041
000160 13 58 e8 3d 9a bb 49 3d da 25 9f 3d b4 dd 8b 3d
       0.11344924 0.049251176 0.077708915 0.06829396
000170 8d fe a0 3d cb f8 8d bd 58 34 1a be d4 fa e7 3d
       0.07861052 -0.06932219 -0.1505903 0.113271385
000180 81 d7 0e be 81 92 d7 3d 73 5c d3 3d d3 10 0f bc
       -0.13949396 0.1052599 0.10320368 -0.008732039
000190 9b ab ed 3d 01 11 79 3d ba 66 0d 3e 9d 0c c8 bd
       0.11604997 0.06080723 0.13808718 -0.09768031
0001a0 24 10 6e be 1e 20 9a 3d 27 be 43 bd 26 f3 54 bd
       -0.23248345 0.07525657 -0.047788765 -0.051989697
0001b0 1b 41 c6 3d 84 f1 a5 bd 39 2c d7 bd 0d 54 75 3d
       0.09680387 -0.08102706 -0.10506482 0.05989461
0001c0 b4 a8 1e 3e fa 84 4a bc 01 2b 5a 3e bc ab 73 bd
       0.15494043 -0.012360806 0.21305467 -0.05948995
0001d0 85 27 a8 3d 3f a4 c1 3d c1 c4 0c bd 8c 13 75 3c
       0.08210663 0.094551556 -0.034367327 0.014958274
0001e0 20 95 68 bd 80 68 b7 3d da 25 91 bd 7f 50 17 be
       -0.05678284 0.08955479 -0.07087298 -0.147768
0001f0 74 d8 99 3d 3e 9d 06 3e d1 30 ed bc ed b0 af 3d
       0.07511988 0.1314592 -0.028953942 0.08578668
000200 4e 9d 3c bd 03 7d 04 be f9 e7 ac bd 8b 7f 85 3d
       -0.046048455 -0.12938313 -0.08442683 0.065184675
000210 8d 54 ad 3d 77 0a 55 3d 5c eb aa 3c a2 08 de 3c
       0.084633924 0.052011933 0.020864181 0.027103726
000220 0b cb c7 bd 66 cc 82 3d 40 2a 25 3d 83 7b c8 bd
       -0.09755524 0.06386642 0.040323496 -0.09789183
000230 4a ff c6 bd 47 7c e7 bd a8 88 95 bd 64 b4 99 3d
       -0.09716661 -0.11303001 -0.07301456 0.0750511
000240 6e a5 1f 3e d1 1c 49 3e 12 67 4c bd b2 20 dc 3d
       0.1559045 0.19639899 -0.049902983 0.10748424
000250 38 f1 7a 3d 65 ec ef 3c 69 35 e8 bc f9 42 85 bd
       0.0612652 0.029287526 -0.02834578 -0.06506915
000260 83 f6 86 bd b7 79 26 3d 9f 2e a5 bd 01 4e 8f bd
       -0.06589987 0.04064342 -0.08065533 -0.069973
000270 d2 a4 a6 3d a7 a4 12 3e f1 2a 10 3e dd fd db bd
       0.08136906 0.14320622 0.14078881 -0.1074178
000280 b0 1b 5a 3d f6 b5 13 3e d0 c5 30 3d 03 31 db bc
       0.05324906 0.14424881 0.0431574 -0.026756769
000290 02 38 c2 bd 44 6d 61 bd e9 be e3 bd 49 3b bc 3d
       -0.09483339 -0.055035844 -0.111203976 0.09190995
0002a0 06 8b a9 3d 61 3c 45 bd a2 88 92 3d 34 70 31 3e
       0.0827847 -0.048153285 0.07154967 0.17327958
0002b0 3d 58 e1 3d 58 3c a8 3d db 4f 13 bd f1 22 80 bd
       0.11003158 0.08214635 -0.035964828 -0.062566645
0002c0 d6 24 bb 3d 6e bc bf 3d 91 49 6b 3d 46 1e 82 bd
       0.09137885 0.09362112 0.057443205 -0.063534304
0002d0 16 de 8d 3d 61 63 2a be da 30 65 3d 8f 3d 31 bd
       0.06927125 -0.16639473 0.05595479 -0.043271597
0002e0 64 dc 98 3d 65 62 b8 3d 67 5d d3 3d fb b5 81 3d
       0.07463911 0.09003142 0.103205495 0.06333538
0002f0 b8 e9 9b 3d 8e 62 56 bd 01 95 2b be 1f d4 f7 3d
       0.07612938 -0.052340083 -0.16756059 0.12101006
000300 26 70 03 be 45 ac b3 3d a8 c2 90 3d 8c ab e3 bd
       -0.1283575 0.08773092 0.07068378 -0.11116704
000310 42 24 09 3e f2 69 1a 3d ca 86 23 3e dd 27 c6 bd
       0.13392738 0.037698694 0.15969387 -0.09675572
000320 dc d3 4a be c1 32 c0 3d cf 46 36 bd f8 7b b2 bd
       -0.1980738 0.093846805 -0.044501122 -0.087150514
000330 6e d9 e5 3d 06 b4 5d bd 0a cc ba bd 6b 12 97 bb
       0.11223112 -0.05412676 -0.091209486 -0.00461035
000340 cc de 8e 3d 8d 1c 99 bb b9 7f 61 3e b2 7c cc bc
       0.06976089 -0.004672593 0.22021379 -0.024961803
000350 a3 1c a4 3d 4f 2d de 3d 2c 61 a2 bd 6d 68 a6 3c
       0.080132745 0.10848486 -0.0792869 0.020313466
000360 27 0b 24 bc a2 be d3 3d 69 ba 48 bd 3b 1e cd bd
       -0.010012425 0.10339095 -0.0490059 -0.10015532
000370 82 43 7f 3d b9 aa bb 3d e8 15 a7 bd a6 67 b3 3c
       0.06232024 0.09163422 -0.08158475 0.02190001
000380 b6 e2 9b bd 53 7a 0e be 22 76 b1 bd 2d b7 b6 3d
       -0.07611601 -0.1391385 -0.0866511 0.08921657
000390 3c d4 64 3d 50 3d 91 3d 2d fe 8b 3b 51 67 36 3d
       0.055866465 0.070917726 0.0042722435 0.044532124
0003a0 86 5a 8a bd 41 7e 8d 3d dc 71 3a 3d 3f 94 a9 bd
       -0.06755547 0.06908847 0.04551874 -0.08280229
0003b0 1d 9c 00 be ee c5 e0 bd 16 76 72 bd b2 6a e9 3c
       -0.12559552 -0.10975252 -0.059194647 0.02849326
0003c0 71 89 09 3e 91 2f bb 3d 5f 3a 15 bd 26 bf 01 3e
       0.13431336 0.09139932 -0.03643262 0.12670574
0003d0 7e 5a 8d 3d 1a 6c bd bc 17 47 9f bd 84 1a 25 bd
       0.06902026 -0.023122836 -0.07777231 -0.04030849
0003e0 a0 da 88 bd 7d d7 92 3d 2c c7 9d bd 61 10 0a be
       -0.066823244 0.071700074 -0.07704005 -0.1348281
0003f0 e6 55 e0 3d 2a 8e 0d 3e 87 38 2f 3e 98 d1 dd bd
       0.10953884 0.13823763 0.17111407 -0.108309925

layer1.bias f4 [32]
000000 04 7f f7 3c 67 d8 6f 3c d4 7d 2d 3e 50 cf c4 3c
       0.030211933 0.014638997 0.16942531 0.024024636
000010 ac d5 ef 3c eb eb 23 3d 6f ac bf ba 8a 9e 29 3d
       0.029276691 0.04001991 -0.0014623533 0.04141096
000020 a7 ff 3e 3d 42 4f 5e 3d 56 3b 41 3e 66 2d e6 3d
       0.046630528 0.054274805 0.18870291 0.11239128
000030 4c c7 98 3d 24 a3 4a 3e 79 39 19 3e e9 76 e5 3c
       0.07459888 0.19788796 0.1496333 0.028010802
000040 80 60 b9 3c 6b 19 24 3e aa 12 1d 3e fb e9 d3 3c
       0.022629023 0.16025321 0.15339151 0.025868407
000050 f1 f7 a6 3d 21 2c ae 3d 47 81 2e bc 1a c8 6f 3d
       0.0815276 0.08504511 -0.010650939 0.05854044
000060 2d 76 b2 3c fa e2 4e 3e 10 d3 eb 3c ce 88 12 3e
       0.021784866 0.20203772 0.028787166 0.1431
000070 95 d0 b8 3c 76 07 11 3c a3 67 30 3d 46 2a 2f 3e
       0.022560397 0.0088518765 0.043067586 0.1710597

layernorm1.weight f4 [32]
000000 b4 9a 92 3f 1f 4f 87 3f ad 92 a7 3f 84 d5 98 3f
       1.1453462 1.0571021 1.3091637 1.194016
000010 2f 76 93 3f 81 3c 88 3f 43 c5 98 3f c5 f3 6e 3f
       1.1520442 1.0643464 1.19352 0.9334071
000020 e8 15 91 3f bc 3c 80 3f db b1 c8 3f c3 04 95 3f
       1.133481 1.0018535 1.5679277 1.1642078
000030 f2 12 80 3f d9 5e 8e 3f ce 29 9a 3f 52 2f 92 3f
       1.0005782 1.1122695 1.2044008 1.1420691
000040 d9 26 8e 3f 24 4d a9 3f 58 c0 b6 3f 40 15 83 3f
       1.1105605 1.3226666 1.4277449 1.024086
000050 7b 0f 8c 3f 33 26 94 3f 46 ac 9d 3f 67 6d 82 3f
       1.0942224 1.1574157 1.2318199 1.0189637
000060 89 29 85 3f 7d a0 8a 3f 7d 90 97 3f a3 6a 84 3f
       1.04033 1.0830227 1.1840969 1.0345043
000070 f3 28 8c 3f 23 35 95 3f 76 a5 9d 3f c2 fa 83 3f
       1.0949997 1.1656841 1.231612 1.03109

layernorm1.bias f4 [32]
000000 c0 41 07 3d 16 02 94 3c da 08 e6 3d db e5 c7 3c
       0.03302169 0.0180674 0.11232157 0.024401596
000010 31 2a b0 3b 2e fe f2 3d 29 c1 dd 3c 95 92 6d 3e
       0.0053761234 0.11864887 0.027069645 0.23200448
000020 3d 9a 26 3d 5a b5 48 3c 7d ef b5 3d 98 89 1b 3d
       0.040674437 0.012250269 0.088835694 0.037973017
000030 76 80 c8 3d 07 84 0e 3e 0a 33 b7 3d c7 71 de 3d
       0.09790127 0.13917552 0.08945282 0.10861545
000040 3b ed 3d 3c 04 9f 00 3e d2 c0 0a 3d 84 20 82 3d
       0.011592205 0.1256066 0.033875294 0.06353858
000050 e4 31 05 3e 0c 82 62 3d 5b e6 75 bc 26 11 9d 3d
       0.13007313 0.055299804 -0.015008534 0.076692864
000060 fa 39 6a 3d d7 9f e7 3d 82 44 d8 3c 93 f2 a2 3d
       0.057184197 0.11309784 0.026399855 0.079564236
000070 3c 27 11 3e b2 ed 56 bc 45 4f 01 3c ce 41 02 3e
       0.14175123 -0.013118194 0.0078924345 0.12720415

blocks.0.fcn_layer.weight f4 [32, 32]
000000 02 5f 84 3d c1 20 a0 3e f9 19 16 3d 02 e6 0c 3f
       0.06463434 0.3127499 0.036645863 0.55038464
000010 9b d2 7c 3e fb 50 f8 3d f3 8c 87 3e b3 84 94 3e
       0.24689715 0.12124821 0.26474723 0.2900749
000020 a1 17 10 3e 37 a0 67 3e 90 95 ed be 46 f0 83 3d
       0.14071514 0.22619711 -0.4640317 0.06442313
000030 3f 0b 77 3e f6 9b f7 bc 53 32 04 be 54 4d bf 3e
       0.24125384 -0.030225735 -0.12909822 0.37363684
000040 4c 3d 81 3e 62 c9 a8 be 52 f1 de be bd 0b 7d 3e
       0.25242078 -0.32966143 -0.43543488 0.24711509
000050 22 3a 87 3e 6a 31 4c be f4 02 f6 3e 8b 99 5f 3e
       0.2641154 -0.19940725 0.48049128 0.21835916
000060 a1 0e 06 3e 79 00 88 3d 2e 1b 9f 3e 5f a5 0e be
       0.13091518 0.06640715 0.31075424 -0.13930272
000070 53 41 74 3e 9c 3e b2 3e 0f 9f a6 3e 3a d2 20 bd
       0.23853044 0.34813392 0.32543227 -0.039262988
000080 f2 52 93 3e d6 1e 9f 3e eb 0f 97 be d4 35 ac 3e
       0.2877422 0.31078213 -0.29504332 0.33634818
000090 57 55 bb 3e 39 61 67 3e 7c 13 e2 3e ee 3b 57 3e
       0.36588547 0.22595681 0.4415549 0.21018955
0000a0 25 40 97 bb cc 3b 3d 3e 3a 27 9a be 8e 83 2e 3e
       -0.004615801 0.18479842 -0.30108052 0.17042372
0000b0 4a c6 06 3d 87 a5 ab bd dd 06 37 3e 66 94 65 3e
       0.032903947 -0.08381181 0.17873712 0.22419891
0000c0 dd 21 46 3d 03 0c 77 be 0d b7 98 be d0 79 3f 3e
       0.04837214 -0.24125676 -0.29827157 0.18698812
0000d0 66 1d 13 3e eb 30 61 3e 07 99 96 3e 43 2a 4d 3e
       0.14366683 0.21991317 0.29413626 0.20035653
0000e0 c5 32 6b 3e 8d 72 e9 bb f5 59 85 3e 6a 75 57 3d
       0.22968586 -0.007124251 0.26045194 0.05260221
0000f0 2b a6 9d 3e f0 94 9a 3e 4f af 03 3f 0b bf d7 3c
       0.3079084 0.30191755 0.51439375 0.026336214
000100 f1 d4 5a 3e ed 22 c8 3e e5 44 10 be 5e 0d a6 3e
       0.21370293 0.39089146 -0.14088781 0.32432073
000110 a2 ee c3 3e 3b aa 8a 3e 55 07 bd 3e b9 ca 79 3e
       0.38268 0.27083 0.36919656 0.24393739
000120 4b 28 6e 3e 6d ba 60 3e 37 7a f4 be b3 a4 2a 3e
       0.23257558 0.21946116 -0.47749493 0.1666439
000130 21 f7 e2 3c da b1 5b be 8f aa 83 bc 16 62 ad 3e
       0.02770573 -0.21454564 -0.01607254 0.33863896
000140 50 c6 76 3d ab bd d7 be a7 6a e2 be 77 50 7d 3e
       0.06024772 -0.42136893 -0.44221994 0.24737726
000150 88 4d 0e 3e e0 37 c7 3b a8 98 ac 3e 8c ba 97 3e
       0.13896763 0.006079659 0.33710217 0.2963451
000160 a2 f9 5f 3e 0b 8f 0b 3e 8e 23 d2 3e 65 1c 20 3d
       0.21872571 0.13628785 0.4104275 0.03908958
000170 10 04 b4 3e 2f b5 42 3e 03 73 74 3e a2 b7 01 3e
       0.3515935 0.19014429 0.23871998 0.12667707
000180 21 11 2a 3e b6 8b cc 3d 2b d6 b5 3d a1 92 6f 3e
       0.16608097 0.09987585 0.0887874 0.23395778
000190 f1 91 55 3e 34 2c 55 3e 78 af 22 bd 1a f1 41 bb
       0.20856453 0.20817643 -0.03971812 -0.002959317
0001a0 17 16 73 3e b1 95 4c 3e ee 45 de bd f2 23 ab bd
       0.23738895 0.19978978 -0.10853182 -0.083564654
0001b0 87 0b b9 3c 9e 90 25 bd eb 60 5d bd 8b 89 0e 3e
       0.022588504 -0.04042112 -0.054047506 0.13919656
0001c0 c3 cc 67 3e 46 af 09 3d e4 9b d4 3c ad 33 c1 3d
       0.22636704 0.03361442 0.02595324 0.094336845
0001d0 af 89 64 3d bb 7c 63 3e fe 44 de 3d 98 7a d7 3d
       0.055795368 0.2221555 0.10853003 0.1052143
0001e0 d6 47 c1 3d 2b dc 3a 3c 51 4d f1 3d c2 96 4a 3e
       0.0943753 0.011405031 0.11782325 0.19784072
0001f0 61 1c 12 3e b6 2d ae 3e e7 ad c1 3e ae ce 0b 3d
       0.14268638 0.3401925 0.3782799 0.034132652
000200 88 da a9 be 97 f4 27 be 61 74 63 3e b9 09 93 be
       -0.3317454 -0.16401897 0.22212364 -0.28718355
000210 c5 ff 51 be 55 eb 64 bd 3d 8d 6a be 96 14 60 be
       -0.20507725 -0.055888493 -0.2290544 -0.21882853
000220 fb 35 14 be 5c f3 03 be b8 24 f4 3e 9a 34 23 3e
       -0.14473717 -0.12885803 0.47684264 0.15938035
000230 0f 45 25 be 15 a7 52 3e 5f 23 52 bc 61 e9 b9 bd
       -0.16139625 0.20571549 -0.012825816 -0.090777166
000240 da 51 59 be 14 c5 ce 3e 72 6d cd 3e 4e e3 cf bd
       -0.2122263 0.40384734 0.40122563 -0.10150777
000250 ff 0c 61 be 50 08 32 be 4e db 6d be d4 66 20 be
       -0.21977614 -0.17385983 -0.2322819 -0.15664226
000260 ef 77 8c be 04 f9 6d 3e 29 d0 a8 be 1f 61 50 bd
       -0.27435252 0.23239523 -0.32971314 -0.050873872
000270 cf 06 47 be 55 cf 95 be 40 3f d1 be 85 aa 2d 3e
       -0.19436191 -0.29259744 -0.40868568 0.1695958
000280 94 d6 3f be 9a 11 e8 bb 46 40 ee 3d 0c 6a c2 be
       -0.18734199 -0.0070821764 0.11633353 -0.37971532
000290 75 69 d5 bd 69 38 3a be 1a 66 07 be 8a d7 2b be
       -0.10420505 -0.18185581 -0.13222542 -0.1678144
0002a0 d8 f6 92 be 82 65 cb 3a b0 92 08 3f dc e5 57 bd
       -0.28703952 0.0015517923 0.5334883 -0.052709445
0002b0 90 b2 38 be b9 e1 97 3e 0a e8 3f 3e da 37 37 be
       -0.18036866 0.296644 0.1874086 -0.178924
0002c0 dc d5 96 be 6f 34 9f 3e 16 07 fa 3e 83 3f b2 bd
       -0.29460037 0.3109469 0.4883353 -0.0870352
0002d0 f9 31 46 3c c9 72 84 3d e5 86 db be db 70 74 be
       0.012096875 0.06467206 -0.42876354 -0.23871176
0002e0 80 e3 8c bd 0c d2 98 3c 52 df 8e be a9 46 0c 3e
       -0.0687933 0.018654846 -0.27904755 0.1369883
0002f0 37 69 9e be a8 35 d1 bd 2a 22 ac be c2 99 77 3c
       -0.30939648 -0.10215312 -0.33619815 0.015112342
000300 27 53 d7 bd 2f 5c 4e be cf 7d 1c 3e 86 c1 b0 be
       -0.10513907 -0.20152353 0.15282367 -0.34522647
000310 72 4e 73 be 99 dd 9b be 90 a8 23 be 10 33 8d be
       -0.23760393 -0.30442503 -0.1598227 -0.2757802
000320 91 f1 77 be 15 35 fd 3c 3f f3 15 3f 10 ce 8a bd
       -0.24213244 0.0309091 0.5857429 -0.067775846
000330 ce 8d 11 bd 89 ba 83 3e 2e 92 5e 3e cd 03 19 be
       -0.035535626 0.25728253 0.2173545 -0.14942856
000340 71 37 a1 be b0 07 74 3e 74 2f 14 3f 4d 14 15 be
       -0.3148761 0.23831058 0.5788491 -0.14558525
000350 f8 ef 89 be 30 80 1f bd 57 de d7 be 12 f9 13 be
       -0.26940894 -0.03894061 -0.4216182 -0.14450482
000360 ad 32 d2 bd fe a4 82 bd 2b 4e cf be c2 ce b7 3d
       -0.10263572 -0.06379126 -0.40489325 0.08974983
000370 fa 22 02 be 49 9b 48 be 0e 66 42 be 1b e9 30 3e
       -0.12708655 -0.19590487 -0.18984243 0.17276423
000380 84 68 83 3e e4 93 96 3e b6 f1 aa 3d ce c5 5f 3d
       0.25665677 0.29409707 0.08346884 0.054632
000390 b9 ec d0 3e ae 44 25 3e 14 23 8c 3e 46 fe 79 3e
       0.40805605 0.1613948 0.27370512 0.24413404
0003a0 13 f8 7e 3e 73 25 f0 3d 67 de b4 be e7 0f 85 3e
       0.2489932 0.11725893 -0.3532593 0.25988695
0003b0 94 c6 18 3e f9 f5 e5 bd 34 b8 46 3d a0 be 03 3e
       0.14919502 -0.11228556 0.048515514 0.12865686
0003c0 13 88 ff 3d bd 8d 43 be 5d 75 85 be 67 be 36 3e
       0.12477126 -0.19097038 -0.26066104 0.1784607
0003d0 ef 7d 84 3e fe 93 a5 3d 5d e6 29 3e eb 5f 21 3e
       0.2587733 0.08084868 0.16591783 0.15759246
0003e0 08 48 2c 3e 14 60 16 be c2 29 ae 3e bb 23 f8 bd
       0.16824353 -0.14685088 0.34016234 -0.1211619
0003f0 18 d1 bd 3e 17 fc 1d 3e a0 bc 86 3e 66 20 16 3e
       0.37073588 0.15428196 0.26315784 0.14660797

blocks.0.fcn_layer.bias f4 [32]
000000 3d 9c a2 3c 05 57 dc bd e6 e6 b2 bd d2 6f d6 bd
       0.01984989 -0.10758785 -0.08735447 -0.10470547
000010 02 77 42 3d 08 e6 09 3e ac 3c 19 3e ad 6b 42 be
       0.047476776 0.13466656 0.1496455 -0.18986388
000020 bd 3e 10 3e f6 98 30 bd d2 d0 ab bc 1b e0 0a be
       0.14086433 -0.043114625 -0.020973597 -0.13562052
000030 1f 31 6f bd 43 a7 b3 3d f1 a8 80 3d b3 57 df bd
       -0.058396455 0.08772137 0.06282223 -0.10905399
000040 09 0d d0 bd 60 e8 05 bc b2 41 23 3e ec 5a 4c 3e
       -0.10158736 -0.008173078 0.1594303 0.19956559
000050 ee ef 8e bc 40 d7 8f bd e9 c8 f6 bd d7 07 57 be
       -0.017448392 -0.070234776 -0.12050039 -0.20999084
000060 92 1e fd 3b af 4b 90 3d f6 99 d7 bd e3 54 cd bc
       0.0077245915 0.070456855 -0.105274126 -0.025064891
000070 76 0c ba bc 99 82 9b bd 09 d7 ff bc 92 ab 15 be
       -0.02271102 -0.07593269 -0.031230466 -0.1461623

blocks.0.layer_norm.weight f4 [32]
000000 a7 ea ab 3f b1 c6 b0 3f b3 51 9e 3f 83 bf 77 3f
       1.3430985 1.3810636 1.2368683 0.967766
000010 a4 62 b4 3f 54 f5 aa 3f 1c 90 a9 3f 15 f2 a9 3f
       1.4092603 1.3356118 1.3247104 1.3277003
000020 13 b9 7b 3f ed 2b 9f 3f a5 01 ac 3f da 87 cc 3f
       0.98329276 1.243528 1.3438002 1.5978959
000030 58 e9 c0 3f a7 4b aa 3f 44 6d a0 3f 6f 37 ac 3f
       1.5071211 1.3304337 1.2533345 1.3454417
000040 9d 65 7b 3f 1d ef c4 3f 03 94 91 3f 7d 9c aa 3f
       0.98201925 1.5385472 1.1373295 1.3329006
000050 88 b2 a7 3f e6 a2 b7 3f 76 9b 99 3f ff 2e a9 3f
       1.3101358 1.4346588 1.2000568 1.3217467
000060 55 0b b0 3f c1 33 a0 3f ce 42 ac 3f 51 de bb 3f
       1.3753458 1.2515794 1.3457887 1.467722
000070 dd 90 a8 3f c6 f9 9d 3f e1 5f b4 3f d2 7a b5 3f
       1.3169209 1.234185 1.409176 1.4178107

blocks.0.layer_norm.bias f4 [32]
000000 de f3 81 3e 1f 8b 90 3e 34 39 a8 3e 06 a2 95 be
       0.25381368 0.2823114 0.32856143 -0.29225177
000010 93 66 94 3e 72 c1 69 3e 29 d2 4d 3e fe d4 6e 3e
       0.28984508 0.228277 0.20099701 0.23323438
000020 6d 33 c5 3d 8b b9 58 3d e2 c9 0f 3e e4 e6 14 3e
       0.09628949 0.052911323 0.14041856 0.14541203
000030 01 43 7b 3e fa 32 47 3e 88 43 90 3e 32 3b 78 3e
       0.24537279 0.1945304 0.28176522 0.24241331
000040 16 89 fb 3d 3c 28 22 3e 8b 6a ee 3d b2 73 7d 3e
       0.122820064 0.1583566 0.11641415 0.24751166
000050 1c b0 47 3e 27 70 b8 3d de 98 49 3e 2d 91 b6 bd
       0.19500774 0.09005766 0.1968722 -0.08914409
000060 03 32 33 3e 29 3c 40 3e 79 e3 ba 3e aa 2b 2a 3e
       0.17499547 0.1877295 0.36501673 0.16618219
000070 d2 c2 12 3e ae 48 68 3e f7 bb ad 3d 9f f2 01 3e
       0.1433213 0.22683975 0.08483117 0.12690209

last_layer.weight f4 [1, 32]
000000 27 48 ca 3e 28 b4 bf 3e 59 4f be 3e c3 03 bf 3e
       0.39508173 0.37442136 0.37169912 0.37307557
000010 0e 02 f8 be b4 b1 d4 be 2a 7b de be 8a ce a9 3e
       -0.48439068 -0.41541827 -0.43453342 0.3316539
000020 f8 3b f7 bd 49 50 8c 3e 17 28 ac 3e 15 e6 00 3f
       -0.12071985 0.27405003 0.33624336 0.5035108
000030 39 5e 08 3f 0c 6f a6 3e a9 50 9a 3e 98 e1 c6 3e
       0.5326877 0.32506597 0.30139664 0.3884399
000040 18 ca 20 3e ab a2 f3 3e 24 67 88 be c1 fc e2 be
       0.15702093 0.47585043 -0.2664119 -0.4433346
000050 86 f3 d3 be ed c0 cd 3e 11 94 9c 3e 53 1a d4 3e
       -0.4139673 0.40186253 0.30581716 0.41426334
000060 63 b9 f2 3e de 3d 90 be b9 30 bd 3e 21 65 01 3f
       0.47407064 -0.281722 0.36951235 0.50544935
000070 02 69 b4 3e 18 db 99 be b5 24 01 3f 1e 37 e7 3e
       0.35236365 -0.30049968 0.50446635 0.4515924
