wakeword_models/hey_zelda/hey_Zelda_8_15.onnx (onnx, 205430 bytes, 9 tensors)

layer1.weight f4 [32, 1536]
00000000: d607 eebc 2289 a23c ea70 ed3d c6d5 4cbe
00000010: ec60 033e c216 d63d 6d3f 223e e18e 0dbe
00000020: 1da0 86bb d192 a93d d059 dcbd fa7c abbd
00000030: 8215 9d3d bec7 23bd f8a8 e5bd 68e0 c63d
00000040: a91b f03d de76 a73d b311 c63d 94d4 c4bd
00000050: d450 1f3e 96c3 733d bba3 3dbe 0317 c43d
00000060: 37ad adbd da41 033e 9885 aabd 8978 713d
00000070: 4946 543e 8047 e73d e098 a3bd 48d6 23bc
00000080: 9271 3fbd 918e 0cbe f0cc edbd fb55 a63d
00000090: a902 6f3d 9cd1 173d 4ab4 c73c a239 3f3d
000000a0: 05a1 66bd 91df e23d da83 483d 3274 00bd
000000b0: 4ac8 12be 8bb2 07be cd62 a9bd 227a a53c
000000c0: 70c5 4e3e 5444 ef3d b0e6 08bd c508 063d
000000d0: 88ae 493d e465 f93c c174 88bc b8b5 d7bd
000000e0: c90e 0ebe 4a0c cc3c 0688 5cbd 57a9 56be
000000f0: 394f 263e 542e ce3d d723 7a3e 7d0b 06be
00000100: 3a52 113d 2555 c03d c57e 5c3e b835 f5bd
00000110: 02f0 56be 93ed 16be 1e06 003d b93e 463d
00000120: c40b 543e 54ad 15be 7c16 2e3d 68c6 b63d
00000130: 36c6 9b3d 9913 8f3d fe5a c0bd 883a ccbd
00000140: 75f8 d33d ad02 143e 3fef 943d 37e3 ecbd
00000150: 016f c13d 03f0 ffbd 87f0 933d 614b cabd
00000160: 9c78 5c3d dceb 293d 3155 7f3e ec6d e33d
00000170: df6f 693d 5d1c 79bc dd8d e8bd 6992 9c3d
00000180: 39d0 e9bd b53b 0d3c 3b29 143e ca7b 8fbe
00000190: 5c98 983d 04a4 823d 9b8c 003e ff87 d6bd
000001a0: 14db 123d b908 b23c d325 73bd c2a8 01be
000001b0: ebdd ef39 fe0a 93bd 0479 e5bd 175c 583d
000001c0: af5a dc3c 6ab1 2b3e e169 7d3d ae12 17be
000001d0: f441 3b3e 978c b93d 9d2f 1fbe 7f69 2c3e
000001e0: 9c89 ccbd 7d54 f93d 25a0 99bd 7f48 febd
000001f0: b1c4 753e 4f10 653d c2e2 68bd d344 833d
00000200: 0852 5dbd 758d 6d3d 03dd 16be f296 da3d
00000210: 8915 573d e738 2a3d 9f40 ab3d 8af7 983d
00000220: 62b5 e0ba c4a4 ea3d f12e 4f3d 326f 12bd
00000230: d0d1 11be fbbc ffbd d946 efbd 26c7 c0bc
00000240: 01e2 1b3d f05b 0f3e 02e1 c5bd 746d 083e
00000250: 89a9 cc3d d554 c73d 654b 10bd 2158 f1bd
00000260: 9c3e 08be 9fdd 8b3d 7c14 53bd 7d0d f7bd
00000270: 799f a53d 80dc 263e df06 bf3d 52b2 bfbd
00000280: a4b1 9d3d cd29 d43d 4eef 0a3e 8829 97bd
00000290: 35c4 46be 3d32 45bd 3fa8 593c 521a 5f3d
000002a0: 38ac 0e3e 6742 f8bd 6a00 58bc a827 6f3d
000002b0: 28fd a03d 5897 c63d a933 c7bd b824 aabd
000002c0: bd4e 213e 82cb 0b3e 0e55 753d a35e e9bd
000002d0: 68d3 8b3c 1103 65bd a3b8 5ebb b2aa 1fbe
000002e0: fdb1 1d3d 5043 8b3d b5c3 873e 9451 cc3d
000002f0: 1b10 843d c4ad 7fbd f63e c8bd 2990 863d
00000300: 187a 77bd ae51 c73d b679 843c 480a fabd
00000310: 6d9d 7c3d e087 7e3d d707 2a3e 8ea0 42bd
00000320: 6499 91bd 6442 373c 19ca a4bd 14be c2bd
00000330: dcd5 bbbd 83c6 30be 1aeb 24be 3f6e 67bb
00000340: 9502 4dbd 8bb8 c23d d565 b93d 0adf febd
00000350: 6217 7cbc 658e 1e3d 4ba8 27be ce0f 473e
00000360: b1f2 2bbe b79b 473e 8144 0bbd 250a d5bd
00000370: e1bd 523e b2e3 683d 5bda 70bd 13f8 3fbc
00000380: bf84 97bd 77ae 8239 e5fa 3fbe 7469 823d
00000390: 10b1 7d3d 31b1 bd3d 82aa f23d 7834 9c3d
000003a0: eadb c7bd f5bf 9b3d 40b4 aa3d 4c5d 32bc
000003b0: 2de1 a4bd 4dd1 2fbe a7b6 c8bd 2ba4 a4bd
000003c0: fe55 b53d 0410 7b3e 2af1 42bd f753 de3d
000003d0: 5fb2 443e 0108 1b3e 32e3 55bd a748 13bd
000003e0: cbdd 55bd 52f8 833d 5291 7cbd 247a 9abd
000003f0: 4a77 903c e5c2 3e3d df00 893c c09b 84bd
-0.02905647 0.01984078 0.11593802 -0.20003423 0.12829942 0.104535595 0.15844508 -0.13824035
-0.0041084425 0.08279956 -0.10759318 -0.08373447 0.07670118 -0.03998541 -0.11213869 0.09710771
0.11724026 0.08176969 0.096713446 -0.096108586 0.15558177 0.059512697 -0.1851949 0.09574702
-0.08480304 0.12818089 -0.08326262 0.058952842 0.20729937 0.112929344 -0.07988143 -0.009999819
-0.04673917 -0.1372626 -0.11611354 0.08121868 0.058352146 0.037065133 0.02437796 0.046685822
-0.056305904 0.11077798 0.04895387 -0.031360812 -0.14334217 -0.13251702 -0.08270798 0.020199839
0.20192504 0.116829544 -0.033423126 0.032723207 0.04923871 0.030444093 -0.016657235 -0.10532707
-0.13872828 0.024908204 -0.05384066 -0.20963036 0.16241159 0.1006743 0.24427734 -0.1309032
0.035478808 0.0939124 0.21532734 -0.11973137 -0.20989993 -0.14739065 0.031255834 0.04839966
0.20707613 -0.146169 0.04250191 0.08924562 0.07606165 0.0698616 -0.093923554 -0.099721014
0.10350124 0.14454146 0.07272195 -0.11566775 0.094450004 -0.124969505 0.07223611 -0.09877659
0.05382596 0.0414847 0.24934842 0.1110495 0.056991454 -0.015204516 -0.11355183 0.07645113
-0.114166684 0.008620192 0.14468853 -0.2802413 0.07450935 0.0637894 0.12553637 -0.10475158
0.03585346 0.021732675 -0.059362244 -0.12662032 0.00045750974 -0.07179831 -0.112047225 0.0528222
0.02689871 0.16766897 0.061868552 -0.1475322 0.18286878 0.090600185 -0.15545507 0.16837119
-0.099871844 0.12174318 -0.07501248 -0.12416171 0.24000813 0.055923756 -0.056856878 0.064096116
-0.05403331 0.057996232 -0.14732747 0.10673322 0.052510772 0.041558173 0.08361935 0.07469089
-0.00171439 0.11457208 0.050581876 -0.035750575 -0.14240193 -0.12487217 -0.11683435 -0.023532461
0.03805733 0.13999915 -0.096620575 0.13323003 0.09993274 0.09732977 -0.03522815 -0.117843874
-0.13305134 0.0682938 -0.051533207 -0.120631196 0.080870576 0.16295052 0.093274824 -0.09360184
0.07699898 0.10359535 0.1356785 -0.07380968 -0.19410785 -0.048143614 0.013284742 0.05446846
0.13932884 -0.1212204 -0.0131836925 0.05838743 0.07860786 0.09696835 -0.0972665 -0.08307785
0.15752693 0.13651851 0.059895568 -0.11395004 0.01706858 -0.055911127 -0.0033984564 -0.15592459
0.03849982 0.06799948 0.265165 0.09976497 0.064483844 -0.062421575 -0.09777634 0.06570465
-0.060419172 0.09732376 0.016171318 -0.12208992 0.06167357 0.0621413 0.16604553 -0.047516398
-0.07109335 0.011185262 -0.080463596 -0.09508911 -0.0917165 -0.17263226 -0.16105309 -0.0035313515
-0.05005129 0.09507855 0.09052626 -0.12444885 -0.015386434 0.038710017 -0.16372792 0.19439623
-0.16791798 0.19492994 -0.034000877 -0.104023255 0.20580246 0.056857772 -0.05880199 -0.01171686
-0.07398366 0.0002492552 -0.18748052 0.0636777 0.061936438 0.09262312 0.11848928 0.07627195
-0.09758742 0.07604972 0.08335161 -0.0108865015 -0.08050761 -0.17169686 -0.09800463 -0.08039125
0.08854292 0.24517828 -0.047593273 0.10855859 0.19208668 0.15139772 -0.052218623 -0.03595796
-0.05221347 0.06443848 -0.061662026 -0.07542828 0.017635006 0.046572585 0.016724048 -0.064750195

layer1.bias f4 [32]
00000000: c3bc 633c 4619 f33d 27ed 153e f08d 473e
00000010: aa13 013e 484d 803d c086 a93c 1dae 0c3d
00000020: d9b9 233e 2ee0 4b3c 533d 873d b86e 0c3d
00000030: 0e1d f93c 40e9 ed3c 585e 013d 6a20 563d
00000040: 9b2f 203e 45d1 233c fcb0 873c 5726 5b3d
00000050: 185f 1a3d 652e c83c 37df f43c 2ce9 363d
00000060: ba93 c43d 32ba d53d 8574 363e a581 f33d
00000070: e834 063e 40c1 ae3c 5f6f 1a3e ec3a 183e
0.013899985 0.11870055 0.14641248 0.19487739 0.12605157 0.0626474 0.020694137 0.034345735
0.15988864 0.012443585 0.066034935 0.034285277 0.030409362 0.029041886 0.031584114 0.052277006
0.1564316 0.009998624 0.016563885 0.05350336 0.037688345 0.024436185 0.029891593 0.044655964
0.09598489 0.104359046 0.17817886 0.11889962 0.1310612 0.021332383 0.15081547 0.14866227

layernorm1.weight f4 [32]
00000000: 4de6 9f3f 6362 883f 8a5e 9e3f 76b5 c93f
00000010: 5049 8d3f 97f3 813f 7760 993f c7ee 9f3f
00000020: 55b6 893f bd85 933f 7d55 763f 16e8 a53f
00000030: 20b1 863f fbe5 903f 4ef5 913f 6440 7f3f
00000040: 4b89 8a3f 1336 8c3f 088e 843f e5a5 723f
00000050: 7cb0 a33f 94bb 973f 57ea 6c3f 802b 923f
00000060: 88be 943f eeb7 633f ce57 b73f 3e0a 643f
00000070: 9453 843f 8782 893f 326b b13f 7f57 a73f
1.2492157 1.0655025 1.2372601 1.5758502 1.1037998 1.0152463 1.1982564 1.2494744
1.0758768 1.1525189 0.96224195 1.2961452 1.0522804 1.1320184 1.1402986 0.9970763
1.0823148 1.0954002 1.0355844 0.94784385 1.2788234 1.1854119 0.92545074 1.1419525
1.1620646 0.8895253 1.4323671 0.8907813 1.0338006 1.0742959 1.3860838 1.3073577

layernorm1.bias f4 [32]
00000000: f39f b13d 035c 9c3d 4c62 7c3d 81ef 4b3c
00000010: e471 4d3c 78ea 9abd 9cc8 0c3d 82a1 e33c
00000020: eb8c cb3d 1821 22bc 87ca 8abd 081d 593c
00000030: 2767 8c3b 5ac8 8b3d 7d1e a93d 8656 eb3d
00000040: 2b21 d23d 67ec fe3b 3ab8 52bc 3e04 7bbb
00000050: eaa1 273c b34f 143c 573c 72bd 3442 41bd
00000060: 1119 bebb f816 48bd 458e 293d e1bf cfbd
00000070: 2dd2 173c b8dc c33b c341 c63d 3771 7b3d
0.08673086 0.07634737 0.06161718 0.012447239 0.012539361 -0.075642526 0.034371004 0.027786974
0.09938987 -0.0098955855 -0.0677691 0.0132515505 0.0042847577 0.068253234 0.08257768 0.114911124
0.102602325 0.007779646 -0.012861306 -0.003830209 0.010231474 0.009052205 -0.059139576 -0.047182277
-0.005801328 -0.04885003 0.041395444 -0.1014402 0.009266418 0.0059772395 0.09680512 0.061387267

blocks.0.fcn_layer.weight f4 [32, 32]
00000000: 4f2a 88be 1324 a83d f7e6 203e d936 1f3f
00000010: d0b7 26be 603e a1bd d2a3 a7be ee9e d1be
00000020: e8e2 3a3e 7806 56be cd34 34bd b6f5 8ebe
00000030: 1d7a 78be d5b9 8abe f97f 66be 63f3 81be
00000040: b20f 473e 8245 3bbe 52d4 6dbe 90ee adbd
00000050: 6ca5 62be 9d93 49be 73b8 37be 291b 4fbe
00000060: a3e9 b9bd f43c 6f3d c58e cc3e aabf 4d3d
00000070: fb25 e2bc 7db6 01be a91d ba3e 8c4c c93e
00000080: ce23 c73e 990a 4cbd fa0e 823d ffe8 b4bd
00000090: 923a 953d 1ef8 a53e 8081 da3e 82e4 7e3c
000000a0: bee2 c9bd 00e4 ce3e 8250 b23e 2817 8a3e
000000b0: cbdf d03e caf7 073e f66b 753e 050a 9b3e
000000c0: ec75 4bbd af00 9a3e 4eae de3e da9d 003e
000000d0: e98d 8ebd 2f45 fe3e 6072 8f3e b76d 6c3e
000000e0: 3fc7 463e 9bf5 263d d247 1fbd 0fde 483e
000000f0: 8aee 4d3e 8b94 e83e 70d0 20be 6ceb 953b
00000100: f9e5 9c3e ee8f 7a3d f43b ddbd 20b0 60be
00000110: 4905 053d 1cbf ae3e c133 4d3e 85df 9c3e
00000120: 4a19 e73d 2e75 593c 4c37 103e e18a 8e3e
00000130: 1be4 163e e4ac 203e cc22 7a3e 7e8e a43d
00000140: 81fd 70bd b152 243e d2dc 8b3e 928c 003e
00000150: 6f1d 703e 87a3 253e 2cfd 283e 6b0a 4e3e
00000160: db7d 2abd b8c7 c83d af06 78be 34f1 9abd
00000170: 0654 0d3e 4b65 1a3e d286 19be 96a1 6fbe
00000180: 807a 22be d53c 113e 75db 943e 88b1 253f
00000190: a7fd 1fbe 2ce2 89be 8682 efbd 07c2 cdbe
000001a0: f18a 643e 4f24 67be 0f95 09be 47f8 b9be
000001b0: 26a3 bb3d 3d92 e3be 13f1 b6be ef05 febd
000001c0: 6622 483d ae41 d13b 52d5 70bd ee8f 8ebd
000001d0: d5cf 5ebe 2176 44be 31f1 97bd a60f f6bd
000001e0: 900b 57be 0fa9 8f3c 9e1c b73e f835 3c3d
000001f0: 70f9 2f3b 727c b0bd badb d13e 2a24 843e
00000200: d1b4 f6be 25cd 8e3d 4622 373e 1db3 243f
00000210: 0a08 b63d 1d18 d0bd bf6a bdbe f7e4 53be
00000220: 30ce e2bb 1ad9 12be a7c1 2ebd 69ca 94be
00000230: 199f 12be d0ef 9d3c 9deb d9bd c7f5 1dbe
00000240: 7316 eb3d 8b58 b0be c901 1ebe df91 29be
00000250: 6644 20bd 2e62 94be 39e7 94bd bc38 14be
00000260: 90c0 003e f718 143e 13cb ed3e 91e8 443e
00000270: fdbc 4bbd b97c e1bd ab79 fb3e 3c28 e43e
00000280: ae70 9b3e a488 043e 9c44 79bd d7ab 6b3d
00000290: ad46 2f3d bbf5 dc3c 6e08 183e a0be e73d
000002a0: 208b a73c 6f8d e73d c055 ed3d bbf2 633d
000002b0: 12b4 f03b 1a01 e43c 53b5 763d 53e6 95bd
000002c0: 1fd3 273d 0437 d23c be0c 91bc 310e e5bc
000002d0: b37c 013c 058c 0f3e ac76 9cbb 4b0d ff3d
000002e0: 6e98 0fbc e16b 833d 16a0 35bd 48c4 c5bd
000002f0: 5547 4e3d 2996 983c 0d95 53bc ffb7 f4bd
00000300: 4e43 973e 3a53 f3bd 7aea 33be 0485 92be
00000310: 3f1b f23d d971 c43e dcfb a23e 993f b03e
00000320: b1cd f43c b187 fd3e 2ded b83e aa46 083f
00000330: 1ee2 823e 5231 a5bc c48e 363e 9282 d13e
00000340: cc50 6b3d 3754 9a3e bac6 d03e fbff 703e
00000350: da24 8f3e d43e cd3e 9ae2 be3e f483 273e
00000360: b2df ba3d a880 c63d 14c0 b2bd 017e 9fbd
00000370: 5a21 12be ea88 7e3e 8919 a5be f11d 84be
00000380: 4a1e be3e 7a9b 483e fca3 b7bd f08e a6be
00000390: 24ab d8bb e195 4f3e 0760 cc3e 15a2 5e3e
000003a0: bd0d 4dbc 4aee b43e f084 943e 9d74 d13e
000003b0: 01d0 0f3e 9029 c63d 8571 fd3e fcc1 443e
000003c0: 022c febd f160 433e 229f 953e aa49 1f3e
000003d0: 7034 9c3e 0dbd 893e cd6e 373e 88e0 a23e
000003e0: 92b7 593e e6d4 073e ae04 91be 2fda 1a3d
000003f0: 848d 753e 01ce ba3e 11c4 47be a3ff 86be
-0.2659478 0.082100056 0.15713106 0.62193066 -0.16281056 -0.07873225 -0.32742172 -0.40941566
0.1825062 -0.20900905 -0.043995667 -0.27921838 -0.24265333 -0.27094904 -0.22509755 -0.25381002
0.19439581 -0.18288234 -0.23225525 -0.08492768 -0.22133416 -0.19685216 -0.17941456 -0.20225205
-0.09077766 0.05840774 0.39952675 0.050231613 -0.027606001 -0.1266727 0.36350754 0.39316213
0.38894504 -0.049814794 0.06350513 -0.08833503 0.07286562 0.3241586 0.42676926 0.01555741
-0.09857701 0.40408325 0.34827048 0.26970792 0.4079574 0.13278118 0.23966965 0.30281082
-0.049673006 0.30078647 0.4349236 0.12560216 -0.06960661 0.49662158 0.2801695 0.23088728
0.19411944 0.04076157 -0.038886853 0.19615959 0.20110527 0.4542583 -0.15704513 0.0045751836
0.30644205 0.06117242 -0.10802451 -0.21942186 0.032475743 0.3413018 0.20039274 0.30639282
0.112841204 0.013272567 0.14083594 0.2784033 0.14735453 0.15690953 0.24427336 0.08034991
-0.05883551 0.1604717 0.2731691 0.12553623 0.23448728 0.16175662 0.16502827 0.20121162
-0.04162393 0.09803718 -0.242213 -0.07565537 0.13801584 0.15077703 -0.14992836 -0.23401484
-0.15867043 0.14183362 0.29073682 0.64724016 -0.15624104 -0.26930368 -0.11694817 -0.40187094
0.22318627 -0.22572444 -0.13435768 -0.36322233 0.091619775 -0.44447508 -0.357308 -0.124034755
0.04886093 0.0063860035 -0.058797188 -0.06961046 -0.21758969 -0.19185688 -0.074190505 -0.120147035
-0.21000504 0.017536668 0.3576402 0.045949906 0.0026851557 -0.08617486 0.4098795 0.2580884
-0.48184827 0.06972722 0.17884168 0.64335805 0.08888252 -0.10160849 -0.36995503 -0.20692812
-0.006921552 -0.1434063 -0.04266515 -0.29060677 -0.14318503 0.01927939 -0.10640643 -0.15425788
0.11478891 -0.34442553 -0.15430368 -0.16559552 -0.03912773 -0.28981155 -0.07270665 -0.14474767
0.12573457 0.14462648 0.46443996 0.19229342 -0.04974078 -0.11010117 0.49116263 0.44561946
0.30359405 0.1294275 -0.060856447 0.057536926 0.04279201 0.026972642 0.14846966 0.11315656
0.020452082 0.11306273 0.11588621 0.055651408 0.007345685 0.027832557 0.060231518 -0.073193215
0.040972825 0.025661 -0.017706271 -0.027960869 0.007903266 0.14018257 -0.004774889 0.12453707
-0.008764369 0.06417061 -0.044342123 -0.09656578 0.050360996 0.01862629 -0.012913954 -0.11949157
0.29543537 -0.118811086 -0.17569914 -0.28617108 0.11821603 0.3836811 0.31832778 0.3442352
0.029883238 0.49517587 0.3611845 0.53232825 0.2556314 -0.02016512 0.17827898 0.4091993
0.0574501 0.30142376 0.40776616 0.23535149 0.27957803 0.40086997 0.37282258 0.1635893
0.09124698 0.09692508 -0.08728042 -0.07787705 -0.14270535 0.24856916 -0.32246044 -0.25804093
0.37132484 0.1959056 -0.089668244 -0.32530928 -0.0066121984 0.20272018 0.39917013 0.21741517
-0.0125154825 0.3533805 0.29007673 0.4090928 0.14044191 0.09675896 0.4950067 0.19214624
-0.124107376 0.19079949 0.2922297 0.15555444 0.30508757 0.26902047 0.17913361 0.3181193
0.21261433 0.13264808 -0.28323883 0.037805732 0.23979765 0.36485294 -0.19508387 -0.2636691

blocks.0.fcn_layer.bias f4 [32]
00000000: 8821 1f3e da01 d63d 8fcf 8cbd b687 2a3e
00000010: 394e 1b3e c3a8 763d c430 0fbe e836 02bd
00000020: 1bd6 0c3d a63e 9b3c e142 01be f4df 54bd
00000030: 6ba4 b33d 51ce 353e c829 6a3e 5da0 9e3d
00000040: 3ef0 d13d e4cd e2bd 2cb3 73bd 8566 f63d
00000050: 4838 313e c3a6 453e 8fa7 2bbe 7a1d 99bc
00000060: e691 0d3d 417a ccbc 5919 00bd 302f cebd
00000070: 6413 7fbd 3eb3 7fbc 3962 92bd 1ed3 cc3d
0.15540135 0.10449572 -0.06875526 0.16653332 0.15166558 0.060219537 -0.13983446 -0.031790644
0.034383874 0.018950772 -0.12623169 -0.05197139 0.087715946 0.17754485 0.22867501 0.077454306
0.10250901 -0.11074427 -0.059497043 0.12031273 0.17306626 0.19301896 -0.16763137 -0.018690813
0.034562968 -0.024960639 -0.031274173 -0.10067594 -0.06227435 -0.0156066995 -0.07147641 0.10001205

blocks.0.layer_norm.weight f4 [32]
00000000: bcf7 ad3f 5943 ba3f a737 9c3f 0a94 bf3f
00000010: 6020 a13f 08cd 973f d503 a23f 5457 ab3f
00000020: 1a83 9d3f 32d6 ad3f b306 a13f 9828 b73f
00000030: 0dd7 a53f e9f1 993f 0b8c 5f3f e448 a83f
00000040: d11a b83f 856b ba3f e6ac a63f 505e a53f
00000050: 8d31 c43f e31c a93f 18b0 b13f 2872 ac3f
00000060: 6d79 b43f ef2e ac3f 2524 c13f 9e94 a23f
00000070: 465a b03f a96c a63f 2e6e 8e3f d271 b03f
1.3591228 1.4551803 1.2204484 1.4967053 1.2588005 1.1859446 1.265742 1.3386025
1.2305634 1.3580992 1.258017 1.4309263 1.2956253 1.202695 0.87323064 1.3147244
1.4383184 1.4564062 1.3021514 1.2919407 1.5327622 1.321194 1.3881865 1.3472338
1.4099556 1.3451823 1.5089155 1.2701604 1.3777549 1.300191 1.1127374 1.3784735

blocks.0.layer_norm.bias f4 [32]
00000000: e697 333e bdfd 5b3d 7702 01bc 912a d43d
00000010: e3d5 103e 3beb 1b3e ea59 2e3e d10d 753e
00000020: 5a64 6e3e 60e1 7c3e ba49 dfbb 823e 633d
00000030: d6cd 753d c170 3e3e 7ea0 1f3e f2ec 9f3e
00000040: b502 4b3e bf53 14be 225d 5f3e 62a6 a43d
00000050: 100b 86bd 0a22 7d3e 3ad7 963e 97fb 3d3e
00000060: a0b7 503e f512 383e f254 db3d 27c1 e93d
00000070: 919c 9e3e f498 3d3e 9c73 9f3e 432c 223e
0.17538413 0.05370878 -0.007874123 0.103596814 0.14144091 0.15226452 0.17026487 0.23931052
0.23280469 0.24695349 -0.006814209 0.055479534 0.060010754 0.185977 0.15588567 0.31235462
0.19825251 -0.14485072 0.21812871 0.080395475 -0.06545079 0.24720016 0.2946108 0.18553005
0.20382547 0.17975982 0.107095614 0.11413794 0.30978826 0.18515378 0.3114289 0.15837197

last_layer.weight f4 [1, 32]
00000000: c72a d8be cac4 e33e e74a b33e 2a80 0ebf
00000010: cec2 a9be e725 9d3e 237d cd3e 2add dc3e
00000020: 0b41 babe 6a01 ea3e e4e3 d83e 5b41 ee3e
00000030: b561 9d3e b375 86be 4331 c13a 777e ea3e
00000040: 17e0 023f 0063 2a3f 5dd6 eebe 6603 b83e
00000050: 1b34 f83e 5dfd bcbe d26f e53e 1f7b 9f3e
00000060: 1c2e cc3e 989d b13e 3c13 0e3f 6ccd 8c3e
00000070: e91a de3e 56f8 b0be d144 4c3e 9d45 c53e
-0.42220137 0.44486076 0.35018083 -0.5566431 -0.33156437 0.3069298 0.40134534 0.43137485
-0.3637775 0.45704204 0.42361367 0.46534237 0.30738607 -0.26261672 0.0014739413 0.4579961
0.51123184 0.6655731 -0.4664792 0.35940093 0.48477253 -0.3691205 0.44811875 0.3114862
0.3987893 0.34690547 0.554981 0.27500474 0.43379906 -0.34564465 0.19948126 0.38529673
