wakeword_models/hey_zelda/hey_Zelda_full_cv11.onnx (onnx, 205430 bytes, 9 tensors)

layer1.weight f4 [32, 1536]
-0.024157355 -0.009041316 0.14306952 -0.22306755 -0.011131031 0.063563995 -0.07517559 -0.026656717
-0.023648439 0.14597054 -0.11426838 -0.0713761 -0.09818248 0.0025788103 -0.041779444 -0.2729307
0.016273675 -0.0028340085 -0.009024486 -0.048520327 0.0051128985 0.16057506 -0.0010275241 -0.009987897
-0.083303206 0.06914309 -0.049890697 0.12535329 -0.010110042 0.09859099 -0.047751214 -0.010276067
-0.1307603 -0.049828846 0.014663095 0.0030769713 0.12112637 0.0680065 -0.019114872 0.07386678
-0.025582962 -0.0835211 0.15130173 0.010994534 -0.16444068 -0.04036007 -0.06883031 0.029053317
0.052444283 0.16496432 -0.043134887 0.09256721 -0.042812053 0.069021344 -0.084740125 -0.02511388
-0.012651219 0.066624485 -0.053523194 -0.07154513 -0.052656166 0.053453814 0.08324989 0.08978429
0.12762505 0.037590124 0.028280202 -0.020396803 0.12625755 -0.09333812 -0.045089066 0.092090465
0.05323765 -0.024225064 0.018527906 0.027750686 0.038304687 0.01629729 -0.15623346 -0.13254213
-0.05112101 0.07908254 0.07971715 -0.04341587 -0.00065527816 0.02970842 0.029939948 -0.03376456
-0.03930575 0.09461295 0.11503534 0.08892725 -0.018730268 -0.012494783 -0.01785161 0.11971283
0.12971042 0.06219554 0.03753164 -0.081753656 0.009355251 0.05214668 0.023933837 -0.053611815
-0.012131874 0.13167296 -0.10700641 -0.013714646 -0.026529752 -0.039693363 0.07456797 -0.112914644
0.027766462 -0.15263619 -0.05880978 -0.01899411 0.08206548 0.099437416 0.047977947 -0.028889379
-0.04883876 0.112210445 -0.11849874 -0.036973394 -0.082746774 0.10950767 -0.07554825 0.029917898
-0.104775995 0.109937415 0.04485825 0.09852249 0.09667877 0.065230615 -0.012266675 0.041166574
0.0056436313 0.00765314 0.11843794 5.05347e-05 -0.13211909 -0.07317717 -0.11483789 0.011111979
0.100438036 0.020118343 -0.057111986 -0.022275804 0.042333167 -0.03592639 -0.082414955 -0.00810218
0.035866592 0.07583609 -0.061137125 -0.019647744 0.01912673 0.025173005 0.15657215 0.063037895
0.04625966 -0.06215518 0.066808395 -0.023635378 0.057433132 -0.027991666 -0.09929623 0.11473808
0.063483894 0.060951438 0.04929283 0.042695362 0.09113166 -0.024583114 -0.0619991 -0.1668339
0.065066546 0.07281643 0.12015779 -0.008269548 -0.02187167 0.06542549 0.028714364 -0.053273045
-0.021982437 0.08568125 0.061292905 0.058153328 -0.01068855 -0.06679619 0.031467937 0.049561553
0.09561112 0.032033764 0.119303696 -0.098179646 0.043932024 0.07707503 0.046397626 0.002086085
-0.019058986 0.057429258 -0.05036199 -0.05317507 -0.08430595 0.04775153 0.030503724 -0.063397005
0.025738357 0.02441061 -0.14734562 -0.038773276 0.059137028 0.19949114 -0.0057906196 0.014698279
-0.042517856 0.084138766 -0.13298018 0.030479923 0.04503462 0.09621524 -0.09361225 0.10142384
-0.12443975 -0.013340191 -0.05048067 0.071085915 0.14186673 0.09594619 0.004090716 0.04856427
-0.04361777 -0.043613914 0.10891016 -0.053602643 -0.026463127 0.013881486 -0.08480431 0.04738731
0.0017349741 -0.10797203 -0.0645454 0.038288467 0.101185784 -0.02914657 -0.083092436 -0.09197582
-0.059863247 0.11508572 -0.07149588 -0.068848 -0.022581035 -0.039186504 0.050482195 -0.02762123
00000000: a5e5 c5bc 0722 14bc d180 123e d26b 64be
00000010: ee5e 36bc d72d 823d a9f5 99bd 305f dabc
00000020: 5fba c1bc 4d79 153e 8a05 eabd a22d 92bd
00000030: e513 c9bd 4201 293b ec20 2bbd 93bd 8bbe
00000040: 5f50 853c c6ba 39bb 70db 13bc 40bd 46bd
00000050: 1a8a a73b ca6d 243e fdad 86ba 47a4 23bc
00000060: df9a aabd e49a 8d3d 305a 4cbd 9d5c 003e
00000070: 97a4 25bc 13ea c93d c796 43bd f35c 28bc
00000080: 07e6 05be 5519 4cbd 7a3d 703c 03a7 493b
00000090: 1a11 f83d fe46 8b3d cb96 9cbc 7747 973d
000000a0: 5c93 d1bc 1c0d abbd d7ee 1a3e 6b22 343c
000000b0: 2363 28be 9a50 25bd e8f6 8cbd 3901 ee3c
000000c0: d1cf 563d 68ec 283e 35ae 30bd e193 bd3d
000000d0: b15b 2fbd 105b 8d3d 3b8c adbd a0bb cdbc
000000e0: 0f47 4fbc 6b72 883d 233b 5bbd 4186 92bd
000000f0: fead 57bd 63f2 5a3d eb7e aa3d d3e0 b73d
00000100: 24b0 023e 1af8 193d e2ab e73c 3217 a7bc
00000110: a949 013e 0e28 bfbd 50af 38bd ed99 bc3d
00000120: b90f 5a3d a473 c6bc d6c7 973c 6855 e33c
00000130: 60e5 1c3d e581 853c aafb 1fbe 20b9 07be
00000140: 4464 51bd 07f6 a13d bf42 a33d d7d4 31bd
00000150: f9c6 2bba 135f f33c 9f44 f53c b54c 0abd
00000160: 11ff 20bd 6fc4 c13d a697 eb3d 7d1f b63d
00000170: 3870 99bc ebb6 4cbc 8a3d 92bc 002c f53d
00000180: cfd2 043e c0c0 7e3d c7ba 193d 766e a7bd
00000190: c446 193c c297 553d e510 c43c 1098 5bbd
000001a0: c5c4 46bc 47d5 063e 2d26 dbbd 65b3 60bc
000001b0: ec54 d9bc 8295 22bd 18b7 983d cb3f e7bd
000001c0: 7e76 e33c a94c 1cbe 86e2 70bd 8999 9bbc
000001d0: f211 a83d d8a5 cb3d 8684 443d 6ba9 ecbc
000001e0: 270b 48bd 97ce e53d 78af f2bd 6a71 17bd
000001f0: 2477 a9bd 8f45 e03d 0ab9 9abd 6116 f53c
00000200: cc94 d6bd de26 e13d 49bd 373d 29c6 c93d
00000210: 85ff c53d a197 853d 2afa 48bc 489e 283d
00000220: 36ee b83b 31c7 fa3b 978f f23d 39f5 5338
00000230: 3a4a 07be e9dd 95bd 2130 ebbd 050f 363c
00000240: 75b2 cd3d 39cf a43c 42ee 69bd bf7b b6bc
00000250: 8b65 2d3d 8d27 13bd 2cc9 a8bd 02bf 04bc
00000260: d9e8 123d f44f 9b3d ec6a 7abd 4ef4 a0bc
00000270: a9af 9c3c 9e37 ce3c 7354 203e 031a 813d
00000280: c57a 3d3d 6e96 7ebd d7d2 883d fb9e c1bc
00000290: 013f 6b3d c74e e5bc d25b cbbd ccfb ea3d
000002a0: d803 823d 37a8 793d 47e7 493d 55e1 2e3d
000002b0: 3ca3 ba3d 8762 c9bc c5f2 7dbd 82d6 2abe
000002c0: 9c41 853d c820 953d 4a15 f63d 007d 07bc
000002d0: 372c b3bc cdfd 853d 633a eb3c d634 5abd
000002e0: 8314 b4bc a779 af3d 450e 7b3d 2f32 6e3d
000002f0: 071f 2fbc 71cc 88bd 86e4 003d 0e01 4b3d
00000300: c3cf c33d d635 033d 7f55 f43d 6912 c9bd
00000310: 11f2 333d 83d9 9d3d 700b 3e3d b3b6 083b
00000320: 9721 9cbc f13a 6b3d 6048 4ebd 1ace 59bd
00000330: 99a8 acbd 1c97 433d f2e2 f93c 4ad6 81bd
00000340: 3fd9 d23c c2f8 c73c c5e1 16be bad0 1ebd
00000350: ab39 723d 6847 4c3e 3dbf bdbb 0dd1 703c
00000360: 3427 2ebd f250 ac3d f52b 08be 08b1 f93c
00000370: 3976 383d 7f0c c53d c8b7 bfbd 4db7 cf3d
00000380: 45da febd d190 5abc d2c4 4ebd 7e95 913d
00000390: 8345 113e 707f c43d 6a0b 863b 54eb 463d
000003a0: 8ca8 32bd 81a4 32bd 4a0c df3d 728e 5bbd
000003b0: 33c9 d8bc 2c6f 633c e2ad adbd 3219 423d
000003c0: 1268 e33a 7120 ddbd 6130 84bd 5ed4 1c3d
000003d0: 7e3a cf3d cac4 eebc 5e2c aabd d25d bcbd
000003e0: 2a33 75bd 10b2 eb3d 6f6c 92bd 2e00 8dbd
000003f0: ddfb b8bc 0782 20bd 6bc6 4e3d eb45 e2bc

layer1.bias f4 [32]
0.13376704 0.041558698 0.16670771 0.18260251 0.01679903 0.1550661 0.17325486 0.016318563
0.0114578605 0.14205869 -0.0155461375 0.1430387 0.18628974 -0.033896077 -0.031315524 0.0069756405
0.14628181 0.15368795 0.0050767767 -0.012990748 -0.018517256 -0.017155426 0.13436456 0.038854055
-0.0050683734 -0.0051489444 0.020538481 0.17613317 0.014066913 0.02601304 -0.03200631 0.020828813
00000000: 3afa 083e 7439 2a3d 6db5 2a3e 27fc 3a3e
00000010: 1f9e 893c a6c9 1e3e b969 313e 82ae 853c
00000020: c0b9 3b3c d577 113e 3ab5 7ebc bd78 123e
00000030: bdc2 3e3e 9dd6 0abd b544 00bd ea93 e43b
00000040: e6ca 153e 6060 1d3e 175b a63b 25d7 54bc
00000050: 80b1 97bc 8989 8cbc dd96 093e 6e25 1f3d
00000060: 9914 a6bb 7ab8 a8bb 5140 a83c 415c 343e
00000070: e978 663c 4d19 d53c 0c19 03bd 30a1 aa3c

layernorm1.weight f4 [32]
1.3108455 1.0791409 1.1472297 1.6397724 1.0840832 1.0850823 1.424401 0.99128383
0.9313697 1.0669726 0.98994094 1.337579 1.676131 1.1315285 1.2647815 1.063877
1.2874957 1.2969955 1.0200619 1.1325653 1.1164112 1.0161412 1.1143169 0.9593497
1.1223991 1.0385255 1.0367953 1.1064187 1.0075339 0.9870198 1.0334672 1.1612383
00000000: c9c9 a73f 4a21 8a3f 6cd8 923f 10e4 d13f
00000010: 3dc3 8a3f fae3 8a3f c652 b63f c7c4 7d3f
00000020: 3f6e 6e3f 8f92 883f c56c 7d3f ca35 ab3f
00000030: 768b d63f edd5 903f 5ce4 a13f 1f2d 883f
00000040: a9cc a43f f303 a63f 6391 823f e6f7 903f
00000050: 90e6 8e3f ea10 823f f0a1 8e3f f197 753f
00000060: c6aa 8f3f 67ee 843f b5b5 843f 219f 8d3f
00000070: dff6 803f 54ad 7c3f a748 843f 75a3 943f

layernorm1.bias f4 [32]
0.026904652 -0.011737972 -0.013227824 0.062059045 -0.040022828 -0.012846191 0.06045804 -0.12702045
-0.03275275 0.024044871 -0.080439135 -0.033372197 0.041222777 -0.0454914 -0.028398722 -0.08520196
0.055481374 0.015448717 -0.033613827 -0.030879421 -0.029850759 -0.0943726 0.028225917 -0.104531616
-0.031320762 -0.0024670525 -0.08419184 0.15100977 -0.07517362 -0.11422157 -0.05281626 -0.051977646
00000000: 2567 dc3c 9f50 40bc 84b9 58bc a031 7e3d
00000010: faee 23bd d578 52bc daa2 773d a611 02be
00000020: bf27 06bd c0f9 c43c 46bd a4bd 49b1 08bd
00000030: 37d9 283d 3155 3abd 70a4 e8bc 5d7e aebd
00000040: 7040 633d 9e1c 7d3c a7ae 09bd d7f6 fcbc
00000050: 9489 f4bc 6c46 c1bd 0a3a e73c ac14 d6bd
00000060: 334a 00bd 46ae 21bb c56c acbd 4ea2 1a3e
00000070: a0f4 99bd 00ed e9bd dd55 58bd 83e6 54bd

blocks.0.fcn_layer.weight f4 [32, 32]
0.17508057 -0.25353625 -0.030055037 0.7325648 -0.088703595 0.13571975 0.5265481 -0.058504052
-0.08993868 0.19897024 -0.0636457 -0.03036488 0.8425606 -0.28073713 -0.59101945 -0.118781075
0.11715934 0.30945385 -0.24374492 -0.32746458 -0.29659933 -0.23148488 0.112954505 -0.047161527
-0.3246019 -0.12522796 -0.38127628 0.17421989 -0.37805125 -0.16957499 0.0103557315 -0.45326963
-0.23888041 0.27419937 -0.2031112 -0.28383696 0.23472631 0.2692028 -0.1635971 0.013542644
0.2548137 -0.06575087 0.23598352 -0.26413667 -0.39896885 0.25629747 0.3602989 0.24056223
-0.09883067 -0.08702848 0.31336454 0.31437436 0.3256424 0.44375867 -0.016184947 0.16029854
0.3398036 0.2563995 -0.013061408 -0.03259733 0.17555113 0.24278438 0.2089616 0.35240856
-0.033080947 -0.058851853 0.11146122 -0.42334753 0.4083353 -0.038545232 -0.20805214 0.18126519
0.23926067 -0.035537995 0.32837766 0.03913616 -0.49553227 0.39265838 0.4845644 0.38355976
-0.21088026 -0.089494444 0.30348814 0.38183945 0.25603038 0.22894949 0.04699809 0.34716177
0.38533968 0.21654844 0.32506981 -0.017549809 0.2729961 0.3007589 0.293614 0.5242444
-0.123157136 -0.05861385 0.12871967 -0.29762897 0.35326073 -0.17879711 -0.10071677 0.22757927
0.15434833 -0.16328774 0.33754477 -0.14317091 -0.3455258 0.106703825 0.081189916 0.15524821
-0.3026425 -0.29793993 0.0055661295 0.23462813 0.16213308 0.28488877 0.008959624 0.13803066
0.40372294 0.24507666 0.21247596 0.072335586 0.26350188 0.17513998 0.22919545 0.078529045
-0.24442081 0.2107416 -0.09228423 -0.37311184 0.21602009 0.03851618 -0.2519711 0.07746239
0.19161075 -0.06483207 0.1659341 -0.1995469 -0.37804794 0.22307876 0.43985265 0.2744095
-0.04853205 -0.29300296 0.17626207 0.3044573 0.2353062 0.2363596 0.21920112 0.2374877
0.3439819 0.26143283 0.011348897 -0.018730333 0.18022352 0.08371392 0.13519132 0.3127514
-0.00985525 0.17500259 -0.039604846 -0.08145484 0.26708144 0.0036665108 -0.10562898 0.361521
0.29505703 0.22240032 0.24899563 0.041387416 -0.14668977 0.28230393 0.35255808 0.3810801
0.2384364 0.15681258 0.15031992 0.10177859 0.44217908 0.24939418 0.04626367 0.28665167
0.18458785 0.08190896 0.10828073 -0.0774739 0.28185052 0.21182863 0.20190367 -0.10955893
-0.27714467 0.24476245 -0.2266867 -0.27042943 0.22844544 0.1737053 -0.23285906 0.17170233
0.18157488 0.09377163 0.27448887 -0.24246752 -0.40276915 0.24209166 0.34634927 0.19288129
-0.12428638 0.058824595 0.43741304 0.33368802 0.36424464 0.12225454 -0.07449873 0.3781306
0.26824123 0.34042183 -0.018552141 -0.008827958 0.16159622 0.31076986 0.1349728 0.42269495
0.008197056 -0.017440526 0.037379403 -0.31167346 0.3242058 0.101578414 -0.09090943 0.015569968
0.28173542 -0.00094812695 0.24799933 0.2050427 -0.20408873 0.6067135 0.43246865 0.40355134
0.11966505 -0.004992127 0.11819355 0.17696394 0.31769088 0.32380512 0.112772904 0.2448155
0.15844321 0.3743082 0.27127248 -0.057623737 0.096942626 0.38963228 0.32707646 0.4616591
00000000: 5248 333e 81cf 81be fb35 f6bc 5e89 3b3f
00000010: 3baa b5bd 1efa 0a3e dbcb 063f f2a1 6fbd
00000020: c531 b8bd dbbe 4b3e ad58 82bd c5bf f8bc
00000030: 0db2 573f c7bc 8fbe 0d4d 17bf 7e43 f3bd
00000040: 3cf1 ef3d bc70 9e3e 4598 79be 70a9 a7be
00000050: dedb 97be 5f0a 6dbe b154 e73d 722c 41bd
00000060: 3832 a6be c23b 00be a536 c3be b366 323e
00000070: ef8f c1be 11a5 2dbe 16ab 293c f512 e8be
00000080: 119d 74be dc63 8c3e 62fc 4fbe 1453 91be
00000090: 185c 703e f3d4 893e 0086 27be f7e1 5d3c
000000a0: f176 823e 64a8 86bd aaa5 713e ec3c 87be
000000b0: a545 ccbe 6c39 833e 1979 b83e f255 763e
000000c0: bc67 cabd fd3b b2bd 5171 a03e adf5 a03e
000000d0: 9aba a63e 5634 e33e 4b96 84bc 4d25 243e
000000e0: bdfa ad3e cc46 833e 84ff 55bc c784 05bd
000000f0: adc3 333e 789c 783e 08fa 553e e56e b43e
00000100: e37f 07bd a40e 71bd c845 e43d 02c1 d8be
00000110: 5311 d13e 9be1 1dbd 9f0b 55be 959d 393e
00000120: c000 753e 4a90 11bd 1e21 a83e 3d4d 203d
00000130: 68b6 fdbe 850a c93e d318 f83e f261 c43e
00000140: fff0 57be dd48 b7bd cc62 9b3e 7680 c33e
00000150: 6a16 833e bc71 6a3e 1281 403d 30bf b13e
00000160: 3e4b c53e e0be 5d3e 8d6f a63e 9ec4 8fbc
00000170: 25c6 8b3e 12fd 993e 9354 963e e234 063f
00000180: cf39 fcbd 1415 70bd 17cf 033e d362 98be
00000190: 97de b43e 9716 37be 9844 cebd 8a0a 693e
000001a0: 7d0d 1e3e e734 27be abd2 ac3e 659b 12be
000001b0: c2e8 b0be 8987 da3d e646 a63d 63f9 1e3e
000001c0: f5f3 9abe 958b 98be 1464 b63b 5b42 703e
000001d0: 3706 263e f1dc 913e 63cb 123c e957 0d3e
000001e0: c6b4 ce3e 60f5 7a3e 4c93 593e ae24 943d
000001f0: b8e9 863e e557 333e 36b2 6a3e d6d3 a03d
00000200: 7349 7abe a5cc 573e 84ff bcbd 8408 bfbe
00000210: 5f34 5d3e 24c3 1d3d 5b02 81be 9aa4 9e3d
00000220: 9c35 443e adc6 84bd a1ea 293e 0656 4cbe
00000230: 808f c1be c26e 643e 5e34 e13e 677f 8c3e
00000240: 8bc9 46bd 7c04 96be 0b7e 343e d4e1 9b3e
00000250: 1cf4 703e 4008 723e 4276 603e fa2f 733e
00000260: 651e b03e 86da 853e b9f0 393c 5b70 99bc
00000270: 848c 383e 3472 ab3d 986f 0a3e f420 a03e
00000280: ea77 21bc e133 333e b138 22bd ccd1 a6bd
00000290: e6be 883e d849 703b 0254 d8bd 4819 b93e
000002a0: b711 973e e9bc 633e b6f8 7e3e da85 293d
000002b0: d835 16be 248a 903e 7e82 b43e ee1c c33e
000002c0: ac28 743e 7a93 203e 77ed 193e 4b71 d03d
000002d0: 4c65 e23e 3061 7f3e f97e 3d3d 02c4 923e
000002e0: 9904 3d3e e3bf a73d 4ac2 dd3d a3aa 9ebd
000002f0: b64e 903e 9be9 583e d6bf 4e3e 6f60 e0bd
00000300: e8e5 8dbe 02a3 7a3e 8f20 68be ba75 8abe
00000310: 9aed 693e cddf 313e 9b72 6ebe bcd2 2f3e
00000320: c4ee 393e 570b c03d ce89 8c3e 6849 78be
00000330: c237 cebe e0e6 773e b154 b13e ac82 453e
00000340: dc89 febd 0ff2 703d 9af4 df3e 28d9 aa3e
00000350: 467e ba3e 9760 fa3d ca92 98bd 569a c13e
00000360: ea56 893e c54b ae3e a9fa 97bc 24a3 10bc
00000370: 7b79 253e 3a1d 9f3e 4f36 0a3e 796b d83e
00000380: f24c 063c 6fdf 8ebc 251b 193d aa93 9fbe
00000390: 4dfe a53e 5808 d03d b92e babd 2e19 7f3c
000003a0: a03f 903e b98b 78ba 89f3 7d3e b7f6 513e
000003b0: a3fc 50be 9351 1b3f 886c dd3e 489e ce3e
000003c0: f312 f53d ff94 a3bb 760f f23d 0936 353e
000003d0: 61a8 a23e c9c9 a53e 7bf5 e63d eab0 7a3e
000003e0: f03e 223e 53a5 bf3e 3ae4 8a3e de06 6cbd
000003f0: db89 c63d e27d c73e 9176 a73e 955e ec3e

blocks.0.fcn_layer.bias f4 [32]
0.022593169 -0.028966833 -0.07121689 -0.07038614 -0.16715443 -0.0067987586 -0.15386678 -0.068512104
-0.05481907 0.17590585 0.055549722 0.20364848 0.0926426 -0.049653444 0.08681741 -0.05708082
-0.09410291 -0.010916312 0.0772446 0.057661545 -0.09761234 -0.019995227 -0.03509431 -0.15300557
0.15932272 0.15853192 0.2576395 -0.11996691 -0.15264045 -0.07298906 0.06269393 -0.08408949
00000000: 4f15 b93c da4b edbc 29da 91bd 9c26 90bd
00000010: 882a 2bbe 1fc8 debb 418f 1dbe 1350 8cbd
00000020: f689 60bd aa20 343e 1b88 633d 3a89 503e
00000030: 67bb bd3d 6961 4bbd 54cd b13d 94cd 69bd
00000040: 07b9 c0bd 55da 32bc 6b32 9e3d 832e 6c3d
00000050: fae8 c7bd 08cd a3bc 0dbf 0fbd 7ead 1cbe
00000060: 7f25 233e 3156 223e 53e9 833e 36b1 f5bd
00000070: c74d 1cbe 4a7b 95bd ad65 803d 1c37 acbd

blocks.0.layer_norm.weight f4 [32]
1.3661587 1.3554717 1.379765 1.388098 1.4519573 1.2635733 1.3789835 1.2728541
1.394628 1.3926617 1.3583665 1.1457287 1.1960164 1.1470891 1.111765 1.4543245
1.4433339 1.2832806 1.406516 1.2808244 1.4264848 1.4165117 1.2802927 1.321311
1.0262492 1.160196 1.4095092 1.4000651 1.3545264 1.2725971 1.296105 1.2844746
00000000: 4ade ae3f 1980 ad3f 249c b03f 32ad b13f
00000010: bdd9 b93f c5bc a13f 8882 b03f e2ec a23f
00000020: 2c83 b23f bd42 b23f f4de ad3f 3da7 923f
00000030: 1117 993f d1d3 923f 514e 8e3f 4e27 ba3f
00000040: 2abf b83f 8a42 a43f b708 b43f 0ef2 a33f
00000050: 0e97 b63f 4150 b53f a2e0 a33f b820 a93f
00000060: 225c 833f 4d81 943f cc6a b43f 5535 b33f
00000070: 1f61 ad3f 76e4 a23f c5e6 a53f aa69 a43f

blocks.0.layer_norm.bias f4 [32]
0.055471785 0.2501681 0.14222153 0.16184957 0.31465638 0.05207762 0.2257607 0.04433852
0.2945104 0.14505541 0.25938156 0.12445065 0.2457069 0.14514248 0.13839954 0.035594128
0.027239384 -0.04096735 0.22634621 0.033343088 0.21082702 0.31441483 0.10241533 0.10142054
0.15020557 0.18544959 0.26610324 0.11097273 0.008006921 0.085583165 0.09492872 0.055878073
00000000: 6236 633d 0916 803e 85a2 113e e5bb 253e
00000010: a41a a13e 584f 553d d02d 673e 4f9c 353d
00000020: 11ca 963e 6889 143e a9cd 843e fbdf fe3d
00000030: 979a 7b3e 3ba0 143e 9cb8 0d3e 26cb 113d
00000040: 2125 df3c 61cd 27bd 4dc7 673e c392 083d
00000050: 0ae3 573e fbfa a03e 21bf d13d 92b5 cf3d
00000060: 7dcf 193e 7fe6 3d3e af3e 883e ac45 e33d
00000070: 762f 033c 3a46 af3d fd69 c23d 68e0 643d

last_layer.weight f4 [1, 32]
-0.44904885 0.48446664 0.36043552 0.36327574 0.5023772 0.3722069 0.493186 0.4126431
0.5120129 -0.47569895 -0.4440725 -0.23666574 -0.2582956 -0.24674514 -0.25342736 0.53916615
0.55156904 0.45421955 0.38444445 0.424719 0.46109828 0.40155646 0.3367436 0.31461886
0.14394125 -0.28300384 -0.5115523 0.37513793 0.3217816 -0.37143263 0.35524905 0.42534256
00000000: bbe9 e5be 030c f83e 018b b83e 47ff b93e
00000010: cb9b 003f e791 be3e e082 fc3e f545 d33e
00000020: 4713 033f d08e f3be 795d e3be 8158 72be
00000030: 523f 84be c2aa 7cbe 3bc1 81be cb06 0a3f
00000040: a133 0d3f 778f e83e e7d5 c43e c574 d93e
00000050: 1315 ec3e cf98 cd3e a869 ac3e b915 a13e
00000060: 5665 133e e1e5 90be 17f5 02bf 1412 c03e
00000070: 8fc0 a43e 6b2c bebe 34e3 b53e 80c6 d93e
