wakeword_models/hey_zelda/hey_Zelda_cv11.onnx (onnx, 205430 bytes, 9 tensors)

layer1.weight f4 [32, 1536]
00000000: 5f84 3e3c 1ee3 bb3d 847b b33d 596c 923b
00000010: e19c 913c fc11 073e 49ed 3a3d c4fa b13d
00000020: fa1e 1fbd 41e1 2a3e c9bd c9bd 639c 87bc
00000030: 6e45 1e3d ae4c 103d 509e e9bd fb93 003e
00000040: 21f3 993d 2db3 77bd fe98 bc3c 59ef 1bbd
00000050: 8ea0 173e 45c8 883d acbd 8ebd e084 14be
00000060: ec34 f43a 197b ba3d 00f8 f8bd 181e 8abd
00000070: 27c7 843d 7371 e83d 391d 98bd 9909 8b3d
00000080: 6dc9 e3bd 31eb c0bc ab5c acbc a2cc 983d
00000090: 0ed3 b33d db3a 913d 6009 8d3d e3ad ad3d
000000a0: 0846 0abd 42af 803c d97a cd3d 80ec bebd
000000b0: 6af0 9fbd ebf5 80bd 3840 8cbd 0b5c 0f3e
000000c0: e4f2 0fbd c293 df3d e28e f1bd 0d18 023e
000000d0: 8f64 8a3d 710b bfbd 90da 57bd 9bbe 73bd
000000e0: 3a93 8f3a c3f7 c13d c767 04be 2c69 9bbd
000000f0: d1bc c43d 33f2 ad3d 306a 903d 690c 1cbd
00000100: 0c32 b73d ceaf 483d 3fd1 213e 740d 0fbd
00000110: 09db da3d 4814 a4bd f618 873d 2fab bc3d
00000120: eb1b 813d d77d 8ebd 8b76 013e e57b a0bd
00000130: 63ac a73d a31e 8ebb 74a5 a4bd 67cf e1bd
00000140: 8d8d a2bc a093 443d 8cd5 353d 3e6f bbbc
00000150: 13fa 4c3d 08df ea3c e633 3b3c e783 e8bd
00000160: dbfb 403e c74b 933d ed19 9d3d e470 193e
00000170: 6db1 013e bb9f 30bd a804 c83d cb2b b23d
00000180: d520 8b3c 08ad 643d 8fda aa3d fbdc 0fbd
00000190: 00b4 a93d 5d07 c83d 7bb7 4e3d 22db a03c
000001a0: c28c b83d 349e dd3d 7b3d fcbd f9f1 f2bc
000001b0: 5d76 923c eaf8 c0bd ba6b a6bd af1a 5bbd
000001c0: 82bd 19bc 1655 a0bd fe17 b63b 4134 d8bc
000001d0: 2ccd 093e fc90 a03d e97b c7bd 9b7e 25bd
000001e0: 5f87 73bd 4447 4c3d 47c0 0abe fe84 3fbd
000001f0: d9a8 43bc 7dfa be3d 53aa a5bd 2dfa 663d
00000200: bc39 03be 2855 3cbe b1a8 3ebd d3d5 a53d
00000210: 5d37 da3d 9d74 f13c 4240 803d 0a02 e13d
00000220: 55e0 78bd 5358 a1bd cbc3 ac3d 129a b1bd
00000230: ccdc 7cbd f7e3 e0bd 8384 0ebe 8713 88bc
00000240: a3eb 673d 56ae 8b3d 75d9 2bbe c14c c73c
00000250: 5e54 813b 2693 1bbd 5c58 f9bd 1343 8dbc
00000260: b856 8ebd a757 bd3d f9b3 f2bc ec71 b7bc
00000270: 1c91 183d c3aa 1c3e 04ca 9abc 4bfb e3bd
00000280: f0ce 233e 7be8 353d aad6 203d 0e9d cabb
00000290: dab2 55bd 38fd 973d 0574 3e3d 425e a63d
000002a0: 267d 663d 5754 f9bd d3b3 f93d 52a7 5bbd
000002b0: dae2 db3c 4890 183b 5783 9abd d39c 02be
000002c0: ce0b e93c 03c9 903d 5a17 bc3d d05f a6bd
000002d0: 46b1 f83c a538 613c 0e8a 58bd 6fa3 92bd
000002e0: 4942 b93d f4ec 293d 4c44 96bd 38e8 953d
000002f0: fcd5 103e 2a25 c0bd 8d1a 343c 7861 b03d
00000300: cf82 42bd abf8 f93c 333c 843b 3006 d0bd
00000310: d590 fe3c 2f40 963d a355 d53c 1a23 ab3c
00000320: a942 ec3d 226d 443e bb19 1cbe 74c9 893b
00000330: dc54 303e e7a4 c2bc 468b adbd c6b3 4fbc
00000340: d73b 78bc a30e 61bd 54ae 203e 9a61 46bd
00000350: c2dd cf3d 5b4b a93c f8f7 dcba 0c1c e23d
00000360: 0864 47bd ffe3 c73d d832 b3bd db69 1f3d
00000370: 02ff 953d e990 8c3d 6a4f 0cbe 1e79 bd3d
00000380: 9ec6 f3bd eff8 85bc c6fb afbd 7d5c 653d
00000390: 8dd2 833d 6c29 053c 434d 2abb 78d6 0d3e
000003a0: 0abf d1bc 4237 003d 02a2 8c3d 9557 e2bd
000003b0: 0891 ac3c c940 e1bd 9f5d e4bd 6f16 803b
000003c0: 9b67 623d 50d1 263e 4ead d0bd e137 7d3c
000003d0: ac40 433d 577f a73c 29b8 fbbd b562 59bd
000003e0: 5900 49bd baf1 413d 6420 e0bc 5463 e6bd
000003f0: 6a4e 893c c503 693d 8a21 23bb dd6c 0fbc
0.011628239 0.091741785 0.08763793 0.0044684825 0.017775001 0.13190454 0.04563645 0.08690408
-0.0388479 0.1668749 -0.09850652 -0.016554063 0.038640432 0.035229377 -0.11407149 0.1255645
0.07517076 -0.06047361 0.023022171 -0.038070057 0.1480734 0.066788234 -0.06969771 -0.14503813
0.0018631495 0.0910551 -0.12156677 -0.06744021 0.06483298 0.11349764 -0.07427449 0.0678894
-0.11122403 -0.023549648 -0.021040281 0.074609056 0.0878049 0.07091304 0.06886554 0.08480432
-0.033758193 0.01570857 0.10033197 -0.093224525 -0.07809527 -0.06296905 -0.06848186 0.13999955
-0.035143748 0.109168544 -0.11794831 0.12704487 0.06757461 -0.09328354 -0.05269867 -0.059507947
0.0010953911 0.09471085 -0.12930213 -0.07588419 0.09606326 0.084934615 0.07051504 -0.038097773
0.089450926 0.048995785 0.15802477 -0.03492494 0.10686309 -0.08011681 0.06596558 0.09212338
0.06304153 -0.06957596 0.12642877 -0.07836131 0.08187177 -0.0043371483 -0.0803937 -0.11025887
-0.019842887 0.04799235 0.044393107 -0.022880193 0.050043177 0.028670803 0.011425948 -0.113532834
0.18846075 0.07192188 0.076709606 0.1498447 0.12665339 -0.04312108 0.09766513 0.08699759
0.016983429 0.055829078 0.08342468 -0.035122853 0.082862854 0.097670294 0.05046795 0.01963574
0.090112224 0.108211905 -0.12316414 -0.029656397 0.017878706 -0.094224766 -0.08126016 -0.053492244
-0.009383561 -0.07828729 0.0055570593 -0.026392104 0.13457173 0.078401536 -0.09740431 -0.040403944
-0.05945527 0.04987265 -0.1354991 -0.04675769 -0.011942112 0.093251206 -0.080891274 0.05639093
-0.12814993 -0.1839186 -0.046547595 0.08097424 0.10655091 0.02947455 0.06262256 0.10986717
-0.060760815 -0.07878175 0.08435782 -0.08671965 -0.061734006 -0.10980981 -0.13917737 -0.016610874
0.056621205 0.06820361 -0.16782172 0.024328591 0.003946825 -0.03798213 -0.12175056 -0.017243898
-0.06950134 0.09245234 -0.029626833 -0.02239319 0.037247762 0.15299515 -0.018895157 -0.11131915
0.15996909 0.044411164 0.03926722 -0.006183273 -0.05217252 0.074213445 0.046497364 0.08123447
0.056271695 -0.1217429 0.12192502 -0.053626366 0.02684157 0.0023279358 -0.07544582 -0.12755136
0.028448012 0.0706959 0.091841415 -0.081237435 0.030357968 0.013746415 -0.052866034 -0.07160079
0.09045846 0.04148574 -0.07337245 0.07319683 0.14144129 -0.093820885 0.010992658 0.08612341
-0.04748803 0.030514082 0.0040354966 -0.1015743 0.03107492 0.07336461 0.026041811 0.020890761
0.11536152 0.19182256 -0.1524419 0.0042049233 0.17219871 -0.023760272 -0.0847383 -0.012677139
-0.015150986 -0.0549456 0.15691501 -0.048432924 0.10149719 0.020665815 -0.0016858568 0.11040506
-0.04867938 0.09760284 -0.08749932 0.03891931 0.073240295 0.06863577 -0.13702169 0.09251617
-0.119031176 -0.016354052 -0.08592944 0.055996407 0.06436644 0.0081275515 -0.0025985993 0.13851345
-0.02560379 0.031302698 0.06866838 -0.11051861 0.02106525 -0.10998685 -0.11150669 0.0039089243
0.055274587 0.16290784 -0.10189305 0.015455217 0.047669098 0.020446463 -0.12290985 -0.05307265
-0.049072597 0.04734967 -0.027359195 -0.11249414 0.016761024 0.05688836 -0.0024891817 -0.008753982

layer1.bias f4 [32]
00000000: f4c7 aa3d ef68 2a3d 09f0 303e ec75 e33b
00000010: 3b07 0c3e eb90 213b 3885 293e 4fa3 843b
00000020: c864 3a3c 3eb2 893a be50 113e 31a4 cfbb
00000030: f107 fe3c 85a1 01bd 3b94 a33c 5a14 c63c
00000040: 0810 c63d 38dd fb3d 60d7 0a3e b000 7f3d
00000050: f3a5 273e ed94 2a3e 3691 e13d 22d9 d43b
00000060: 60e1 df3c 1812 babb 617a ad3c 7ceb f63d
00000070: 6eee 8cbc a945 68bb 5e46 e53d b3ca 153e
0.08338919 0.04160398 0.17279066 0.0069415476 0.13674633 0.0024653028 0.16554725 0.004047788
0.011376567 0.0010505391 0.14190957 -0.006336712 0.031009646 -0.031648178 0.019968143 0.024179626
0.096710265 0.122980535 0.13558722 0.062256515 0.16371898 0.16658373 0.11014025 0.006495611
0.027329147 -0.0056784265 0.021176519 0.12056634 -0.017203536 -0.0035441911 0.11195062 0.14628105

layernorm1.weight f4 [32]
00000000: 1764 883f 46fb 7c3f a469 ec3f 1263 923f
00000010: 5a46 953f 00ec 7a3f 6f67 733f c3cd 983f
00000020: 3499 773f 703d 8b3f 4c52 b53f 50ba 7f3f
00000030: 8c34 863f 7746 963f c25a 893f 1d30 883f
00000040: 00bc af3f f2e4 a93f 6fee 9d3f b25e 853f
00000050: 0784 a63f 158e 853f a21d 823f b742 953f
00000060: b0ae 943f d999 7e3f dc46 903f 1664 ab3f
00000070: 5e96 8a3f 8e2a 893f c7cf 833f 605d ad3f
1.0655545 0.9882091 1.8469739 1.1436484 1.1662095 0.9801636 0.950797 1.1937793
0.96718144 1.0878124 1.416574 0.99893665 1.0484786 1.1740254 1.0730822 1.0639683
1.3729248 1.3272994 1.2338389 1.0419524 1.3009042 1.0433985 1.0165293 1.1660985
1.161581 0.994535 1.1271625 1.3389919 1.0827138 1.0716112 1.0297784 1.3544121

layernorm1.bias f4 [32]
00000000: a9e1 3c3d 1fd0 53bc 51b0 873d c910 393b
00000010: 2ff2 573d 69f0 03be dcd8 5c3d 6a58 473d
00000020: 3e1c 02bd 2f5d 8b3c 394f c33c 226f 17bc
00000030: 1e91 56bd cf98 f93c 54f1 4b3d 77f5 11bd
00000040: 5a1d 863d f33a 953d a28a bd3c 6ebe 0d3b
00000050: 7ce5 9f3c 17a8 393d ba8f ea3c 0945 483c
00000060: 4395 483d c18b e3bc 2436 3cbc d10f 833d
00000070: 7888 91bd 3ad3 6abc f9fb 043d becf 6e3d
0.046113644 -0.012928038 0.066254266 0.0028238764 0.0527212 -0.12884678 0.05391775 0.048668303
-0.031765215 0.017012207 0.023841487 -0.009242805 -0.05238449 0.030468373 0.049790695 -0.035634484
0.06548567 0.07286634 0.023137394 0.0021628398 0.019518606 0.04532632 0.028632987 0.0122234905
0.048970472 -0.0277766 -0.0114875175 0.06399501 -0.071061075 -0.014332587 0.032466862 0.058303587

blocks.0.fcn_layer.weight f4 [32, 32]
00000000: 6661 84bc 2da3 6a3c 16f9 3e3f 1aa6 2abe
00000010: 08f5 03bc c76e a9be f752 f13d ca17 93be
00000020: 3f98 01be 398b ae3c b4e7 f73e 6dd3 eabd
00000030: 2ec4 14be b225 35be 33fd 02be 3c84 f7bd
00000040: 3fdf 5d3e 0c60 9d3e 891e 003e d391 e13d
00000050: c1ea ad3e 4d55 0c3d 4361 16be 4ccc f93c
00000060: 0ac8 aebe 7cbd 1fbe 4f5e 1fbe 0097 9d3e
00000070: 674c 73be 72c8 7fbe afb2 843e 41f2 983c
00000080: ae7c 0a3e e3ec 663d e5b9 eebe d1b5 9f3e
00000090: d43e 063e 5e63 8c3d f88c f9bd 937f b83e
000000a0: 697d d73d 3063 193e 7922 44be f485 1e3e
000000b0: 068b df3d 63c4 6d3e e994 523e 174a 633e
000000c0: 990d 18be 4d81 47be 90de 21be 4210 88bd
000000d0: 3bce 38be 7951 83bd 599d ee3d 9ddb 1b3e
000000e0: 4af6 2b3e 48db 153e 61fa 0f3e 8ebd 0ebe
000000f0: 00f0 bd3e 606d 443e 34b3 593e a85d 0abe
00000100: 6770 2ebc 87c5 7e3d aab1 00bf ebbf 8e3e
00000110: de9a 19be 7a75 023d 6dfe e53c 0d31 993e
00000120: 6285 883e e511 cf3d 00fe bcbe 4771 983c
00000130: 651d 063e aa68 843e a4ef 1f3e a3f6 543d
00000140: 6d28 78be 045a 21be e0f2 b1bc a208 0ebd
00000150: 27bc 47be 9e78 343e 4a8a eebd 1ee9 3b3e
00000160: 43b9 453e d4b9 8c3e 4743 ad3d a996 32be
00000170: e471 503e fb85 aa3e 5dfa a2bd 18f2 e6bd
00000180: dea5 c03d 70bd 93bd 7506 683f ceff acbe
00000190: 9c1f f93d 2c53 a0be 17ab 383e 564c bfbe
000001a0: 6ce2 9cbe 5235 7cbe e46e 133f 0b20 84be
000001b0: d402 33be 3a52 80be 2886 2abe e0db 6bbe
000001c0: ee90 423e 1cdd d23e ac98 5a3e 098d 2d3d
000001d0: 79cb aa3e 6f02 cabd 22c4 603d 951b 72be
000001e0: a934 aebe 942e 0ebe ff95 37be 2270 d93e
000001f0: db01 a3be 4cef c5bd a54a 023e 7ef5 023f
00000200: c7a4 163d 9788 b2bd 6a66 c13e 707b 00be
00000210: da9e d63d 309e 60be ccc9 2ebd 64da 13be
00000220: d171 18be 6b9d cdbe 3550 603e 0d60 a2be
00000230: b7e9 21be 5721 8fbe 067b e1bd 27f1 68be
00000240: 9ea4 3a3e 9b6c a03e 17b3 b43d aff2 473d
00000250: 7f41 a23e 21e6 0c3e 768b 293e 4205 9fbe
00000260: 8661 44be 0082 f9bd 62a3 39be b97b a33e
00000270: a7ed 84be c713 0bbe ae14 0b3e 0039 d63e
00000280: a23f bebc fcea 723e 966d 13be c3fc bd3d
00000290: acea d9bc f808 553e b545 06ba 2ed6 673e
000002a0: f7be a93e aba8 fd3e 510c 823d 1253 9b3e
000002b0: 59e0 943e 7b73 a03e 8e91 953e 016e 983e
000002c0: effd c83d 7430 2f3e f863 a43d 9392 f1ba
000002d0: f657 0abe 2eab 93bd 7fc9 f83c 9ac1 f43e
000002e0: a05c 923e 18d0 983e 05f3 373e 13a3 3a3d
000002f0: e811 073f 0692 ad3e 3327 0b3d 4cc6 033e
00000300: 6652 493e af54 dbbc 8eb7 02bf d2fd b33e
00000310: 4867 bebd 7495 433d 36d9 adbd a174 b53e
00000320: 1289 183e c498 763e 2046 94be 5dae fb3d
00000330: 7281 243e 3e42 b33e c130 833e aa3b 0e3e
00000340: 0ab7 c5be fcb8 92be 11dd 95bd 6c68 0d3e
00000350: 6491 83be 2cdb 613d 0a1a 4d3e 3a76 8c3e
00000360: 439b de3e 5493 8d3e 3bbb 893e 991f 58be
00000370: 68b7 b93e 5b22 b43e c4a3 043d 6259 88be
00000380: 917c 0d3e 878a 163e bb14 c5bb 0371 793e
00000390: 6ada 85bd c004 bf3e 9969 aa3c bb81 a8bd
000003a0: e1d6 5a3e c4f3 2e3e 127a 0c3b ce93 0f3e
000003b0: 007b 533e 0759 db3e febf 633e dd47 1c3e
000003c0: c5d9 32bd 8469 733d 0596 973d 65ac c73d
000003d0: 63c9 18be ce72 cc3d c9a5 a2bc 1f30 3d3e
000003e0: d768 163e 97c6 823e db24 653e a151 83bd
000003f0: 86fb 833d d77e 2b3d 7d83 31be 38a0 d2bd
-0.016159724 0.014321131 0.74598825 -0.16664925 -0.0080540255 -0.3309233 0.117834024 -0.28729087
-0.12655734 0.02130662 0.48418963 -0.114661075 -0.14527962 -0.17690161 -0.127919 -0.120857686
0.21667193 0.3073734 0.12511648 0.11014142 0.33968166 0.034261037 -0.1468554 0.030492924
-0.34136993 -0.15599626 -0.1556332 0.30779266 -0.23759614 -0.24978808 0.25917575 0.018670203
0.13524124 0.056378257 -0.466262 0.31193402 0.13109905 0.0685489 -0.12185091 0.3603483
0.10521967 0.14979243 -0.19153775 0.15480787 0.109151885 0.23219447 0.20564617 0.22196232
-0.14848937 -0.19482918 -0.15807557 -0.06643726 -0.1804742 -0.06412024 0.116511054 0.15220495
0.1679317 0.1463443 0.14060356 -0.13939497 0.37097168 0.19182348 0.21259767 -0.1351229
-0.010646916 0.062200096 -0.50271094 0.27880797 -0.15000483 0.031850316 0.028075421 0.29920235
0.26664263 0.10110835 -0.36912537 0.018608702 0.1309715 0.25861102 0.1561876 0.051993024
-0.24234171 -0.15756994 -0.021722257 -0.0346762 -0.19505368 0.17624137 -0.1164747 0.18350646
0.19308953 0.27485526 0.08460098 -0.17440285 0.20355946 0.33305344 -0.07957909 -0.112766445
0.09406637 -0.07213867 0.9063485 -0.33788913 0.12164232 -0.31313455 0.18034016 -0.37362927
-0.30641496 -0.24629715 0.5759108 -0.25805697 -0.17481548 -0.25062734 -0.16652739 -0.23033094
0.19000599 0.41184318 0.21347302 0.04237083 0.33358362 -0.098637454 0.054874547 -0.23643334
-0.34024552 -0.13884956 -0.17928313 0.42468363 -0.31837353 -0.09664783 0.12723787 0.5115584
0.036778238 -0.08717459 0.37773448 -0.12547088 0.10479517 -0.21935344 -0.042672917 -0.14438778
-0.14887168 -0.40159163 0.21905597 -0.31713906 -0.15811811 -0.27955124 -0.11009793 -0.22748242
0.18226859 0.3133286 0.08823221 0.048815425 0.31690595 0.13759662 0.16557106 -0.310587
-0.19177827 -0.12182999 -0.18128732 0.3193033 -0.25962564 -0.13581763 0.13582107 0.41840363
-0.023223702 0.23722452 -0.14397272 0.09276726 -0.026601158 0.20804203 -0.00051220815 0.22640297
0.33153507 0.49542746 0.063500054 0.30336815 0.29077414 0.31338105 0.29212612 0.29771426
0.09814059 0.17108327 0.0802688 -0.0018430523 -0.13510117 -0.07210384 0.030369518 0.47803956
0.28586292 0.29846263 0.17963798 0.045565676 0.527617 0.3390047 0.03397293 0.12868613
0.19660339 -0.026773779 -0.5106133 0.35154587 -0.09297043 0.04774995 -0.08488695 0.35440543
0.14896038 0.24081713 -0.2895975 0.122891165 0.16065004 0.35011476 0.25623134 0.13889948
-0.3861621 -0.28656757 -0.07317556 0.13809365 -0.25696862 0.05514066 0.20029464 0.2743395
0.4347783 0.27651465 0.26900658 -0.21105804 0.3627274 0.3518246 0.03238274 -0.26630694
0.1381705 0.14701281 -0.006014434 0.24359517 -0.065358 0.3730831 0.020802306 -0.08227869
0.21371032 0.17085177 0.0021435064 0.14021227 0.2065239 0.4284136 0.22241208 0.15261789
-0.043664712 0.0594268 0.07401661 0.097496785 -0.14920573 0.09982835 -0.019854443 0.18475388
0.1468843 0.25542137 0.2237734 -0.06412054 0.06444459 0.04186901 -0.17335315 -0.102844656

blocks.0.fcn_layer.bias f4 [32]
00000000: c109 253d 9bc1 e43d f01d 893d 9884 993c
00000010: 1b6e 503e 4db2 49be 82db e1bd 5207 30be
00000020: 6365 443e 63be 303d deaf 26be a359 963d
00000030: 431b b7bd a2b4 20be 6fbc 6dbd ecb4 b13d
00000040: cacf 08bd 47a9 bfbd a6f5 0d3e 2c5e 683e
00000050: 04b5 163e f91c 10be 1c58 8f3d 1683 8f3e
00000060: c1ad 773e 5bad 39be aa68 943e e56c db3d
00000070: 3502 5abc 7ea3 a8bd 1733 2dbe 6259 df3d
0.040292505 0.1116974 0.06695163 0.018739983 0.20354502 -0.19696923 -0.11028196 -0.17190292
0.19179301 0.043150317 -0.16278026 0.073413156 -0.08940747 -0.15693906 -0.058041032 0.08677086
-0.033401288 -0.09358459 0.13863239 0.22692174 0.1471749 -0.14073552 0.069992274 0.28029698
0.24187376 -0.18132536 0.28986102 0.10714129 -0.01330619 -0.08234309 -0.1691402 0.1090572

blocks.0.layer_norm.weight f4 [32]
00000000: 517b a53f 9c07 be3f bb16 a33f c423 a63f
00000010: ea34 793f 1be4 a33f fabb b23f 1931 993f
00000020: a45c c13f 9928 ad3f bb48 bd3f ac19 9f3f
00000030: 0085 b33f 98ea ad3f 231d b53f b06d ba3f
00000040: 762b b83f e2f7 d23f 4917 9c3f e815 9d3f
00000050: ef57 b33f 430c b73f 254b 9d3f 85b6 bc3f
00000060: c90a 943f c350 ca3f 2695 703f c24a 963f
00000070: d104 a63f 7646 a03f 144e bc3f bd50 813f
1.2928258 1.4846072 1.2741312 1.2979665 0.97346365 1.2803987 1.3963616 1.1968108
1.5106397 1.3528014 1.478782 1.242971 1.4024963 1.3587217 1.4149517 1.4564724
1.4388263 1.6481898 1.2194606 1.227231 1.401121 1.4300617 1.2288557 1.47432
1.1565791 1.5805897 0.9397758 1.1741564 1.297022 1.2521503 1.4711328 1.0102764

blocks.0.layer_norm.bias f4 [32]
00000000: bb7e 943d 62ae 303e 94c7 6b3e a9b7 193e
00000010: 9ea6 a0bb d65e cabd 0868 b33e f3b7 a23c
00000020: e69d e23d 1488 4b3d 65eb d63b dd59 8b3e
00000030: 6c74 803e d8fa 303e b66e 593e 91d9 863e
00000040: 21a3 8ebd fb99 473e ba81 e2bd 05f4 a3be
00000050: 03fc 273e 507c 37bc 112c 06be 8cbb 6c3e
00000060: 523b d73d ebeb 6a3e ec8d 50be 90ed 78bb
00000070: ca2a 353e 9ff1 dd3d b281 423e a72b ebbd
0.072507344 0.17254022 0.23025352 0.15011467 -0.004902675 -0.0988137 0.35040307 0.019863104
0.11065273 0.04969032 0.006558823 0.27216998 0.25088823 0.1728319 0.21233639 0.26337865
-0.06964708 0.19492333 -0.110599 -0.3202211 0.16404729 -0.011199072 -0.13102747 0.23118418
0.10509361 0.22941558 -0.20366639 -0.0037983395 0.17692104 0.10837101 0.18994787 -0.114829354

last_layer.weight f4 [1, 32]
00000000: b401 9ebe b931 ec3e 2d1a a93e 88d2 babe
00000010: ec5d 453d 4dff c53e 95f1 013f 286a 913e
00000020: 5d0a 1bbf 5c78 d73e 8082 1b3f c054 923e
00000030: a08a fb3e 61b4 c03e 12c0 063f ec66 f73e
00000040: 4fa6 da3e fbd4 173f ba5e c43e d903 07bf
00000050: 2c59 f9be e833 0b3f 7ad5 b93e 5de9 06bf
00000060: dcdd a0be 87a2 2c3f 0d15 c63c baa5 a8be
00000070: bd5c df3e d95b b93e 24aa fd3e 3c09 5b3e
-0.30860674 0.46131685 0.33027783 -0.36488748 0.048185274 0.38671342 0.5075925 0.28401303
-0.6056269 0.42084014 0.60746 0.28580284 0.491292 0.37637618 0.52636826 0.4832071
0.42705008 0.5930936 0.3835352 -0.52740246 -0.48700845 0.5437608 0.36295682 -0.52699834
-0.31419265 0.674355 0.02417996 -0.3293894 0.4362544 0.36202887 0.4954387 0.21390241
