wakeword_models/hey_zelda/hey_Zelda_8_12.onnx (onnx, 205430 bytes, 9 tensors)

layer1.weight f4 [32, 1536]
00000000: 2bd7 093c 9ee1 aabc 00cf 393d 4867 8fbd
00000010: de9a d63c eb59 3bbb 43e4 043d 2fbe 57bd
00000020: b6e8 0e3a 7e8b b73c 4613 cf3b 1371 66bc
00000030: 3411 84bb 4eb9 3d3d a8fd 45bd 2b8c 783c
00000040: 37cc aebc 7a99 bc3d 2756 803b c6c9 07bd
00000050: 2ce7 3cbd 3bdc 233b dd38 01bd 8183 2f3d
00000060: c258 62bd ec47 adba 6601 acbc fbe7 91bc
00000070: f783 6f3c 81c7 633c 2e02 8b3c afd5 aabc
00000080: 9a73 5cbc 6005 a03a 0f76 cebc ae19 853d
00000090: f079 db3c f554 c03c a311 5ebc c780 17bd
000000a0: 473e 1bbb d3b9 ad3c fb29 513c 8404 3c3c
000000b0: 715d 90bd 8c45 cdba 2370 b5bb ec5b 8cbc
000000c0: 1770 bfba f4d8 113d c847 293c a8f3 9b3c
000000d0: ac3c fabc edce 8d3d c6df f2bb 7560 27bd
000000e0: 9f92 abbc 2f0e 8b3c 1989 02bd 55dd d1bb
000000f0: b564 f33a 13aa e5bb be70 793c 7d78 a3bc
00000100: f9ed a83c e825 1c3c f275 c23d e975 a13b
00000110: d8a7 c7bc f5ec 1fba 0b12 033d 57ea 7cbc
00000120: edf5 ea3c 38e4 f8bc cb74 f2bc 8dfb 7cba
00000130: 99af 653d 64a9 c63a cc78 f6bb 7ec4 b73b
00000140: 4c58 bd3b 8df5 dbbb 6285 99bc 5ca7 673c
00000150: cd41 a3bb f69a 8dbd 7f15 5a3c 9a01 70bc
00000160: 9086 413c c337 523c d0f7 3c3d fb4d f2bc
00000170: 9414 193d 4c12 02bc 2599 65bd dcae 933c
00000180: b177 c73c 3313 0dbc 88bf 043d 2f4c 78bd
00000190: 8736 5a3c 28e5 24bb 8325 083b a63e 46bd
000001a0: dc5b b53c 87e2 b5bb 48fa a4bc 81c4 28bd
000001b0: 65fa be3c d28d 473c 4e08 f9bb f589 21ba
000001c0: 3de1 e7bc b007 753d c900 fc3a 9116 063c
000001d0: 6ce0 a03c 6a9a 493c da09 43ba fec4 2e3c
000001e0: e3ac 95bc 2a8f 19bc ead8 94bc 98c1 643c
000001f0: 1852 cdbc d456 063d 0ea4 d0bb 7fec d9bb
00000200: cf5a 5fbc 0d50 96bb 8b5d 9abc 0a35 2fbc
00000210: 241e 3f3c 6748 8fbb 848b 14bc 438c 8d3b
00000220: c576 223c 8191 453a 6c83 0cbc 2f42 2cbc
00000230: 10c8 eabc f382 17bd 589a 33bd 2e1c 8e3b
00000240: 8d6f 073c d279 8b3c 8e07 b83c d52b 383c
00000250: b716 80bd 7c39 7c3c bfb2 b13c fc13 12bd
00000260: d5db 34bd e7d2 8e3c 1ada 943b ffec eabc
00000270: 135f 273b e767 c8bc 39c4 3b3d 2983 6c3c
00000280: 1ed2 993c 95d3 a93c 6359 d23d f009 db3c
00000290: 81ce 1c3d a41a f23b 4fc3 ca3c 2298 f63a
000002a0: f0e3 143d e266 e2bc 4f1c 97bc ab16 b63b
000002b0: 523c 0d3d e9d1 023c 26b8 4dbc 8502 743c
000002c0: 2622 923d 5be7 03bd 97be f03c acea 353c
000002d0: 08f3 2b3c 7c11 53bd c02c 9c3c 090d 123c
000002e0: 48c2 8e3d 6de7 0fbd 9ab6 473d c781 80bb
000002f0: c2cc 153d fad3 c1bc ae48 4abb 04fa 903c
00000300: b528 a9b9 193c 0fbc 764e 063d 23f1 4fbd
00000310: dc28 293c 5947 01bd 285d f23b 1b6d 0cbd
00000320: ca41 15bc 2ba4 18bc 92a7 f9bc 6fd6 d9bc
00000330: 084e debb c1f9 1ebd 07d4 213b 4445 a2bd
00000340: 992e 50bc 5e0c 14bb 4879 633c 2c38 9abc
00000350: 40b1 f93c ac59 d1bc 0d58 713a ab63 79bb
00000360: 6768 82bc 0822 3fb9 2f32 0fbc 2d20 fd3b
00000370: 600a 23bc c4eb 4fbd d5fd d1ba 5642 14bc
00000380: b37e 2fbc d6fb 5a3c 0814 ee3b 9a81 e3bc
00000390: 5783 8a3c bdf7 0abb 6723 5ebd e7b3 7ebb
000003a0: 01a1 7e3c 54b2 963a 65cf 2abc 8eae 143c
000003b0: 1158 debc 4062 0dbd 2fcf ffbc 52a7 ffbc
000003c0: 3b05 8f3b 7dfd 0a3d 272b 083d b2c8 133d
000003d0: c7f6 62bc 580f 9939 f53b 843a 8983 53bc
000003e0: 911a abbc 61dd a73c bd14 fe3b 2404 c8bc
000003f0: b419 ba3c 6621 f93b d74c 5d3c ea45 cdbb
0.008413116 -0.020859536 0.045363426 -0.07002121 0.026196893 -0.002858753 0.03244425 -0.052671608
0.0005451547 0.022405382 0.0063194362 -0.014065045 -0.004030371 0.0463193 -0.04833761 0.015170137
-0.021337612 0.09208961 0.00391652 -0.03315141 -0.0461189 0.0025003094 -0.03154837 0.04285002
-0.055260427 -0.0013220287 -0.02099676 -0.017810812 0.014618865 0.013902546 0.016968813 -0.020853845
-0.013455296 0.0012208633 -0.02520278 0.06499039 0.026791543 0.02347801 -0.01355401 -0.036988046
-0.0023688243 0.021206772 0.012766357 0.011475686 -0.070490725 -0.0015660985 -0.0055370494 -0.017133676
-0.0014605549 0.035607293 0.010332055 0.019037083 -0.030546509 0.069242336 -0.00741193 -0.040863473
-0.020943938 0.016974537 -0.031869028 -0.0064045587 0.0018569442 -0.0070088 0.015224634 -0.019954914
0.020621287 0.009530522 0.094951525 0.004927386 -0.024372026 -0.0006100678 0.03199963 -0.01543673
0.02868172 -0.03038226 -0.029596707 -0.0009650521 0.056075666 0.0015156684 -0.0075217243 0.0056081405
0.005778348 -0.0067126215 -0.01874036 0.014139023 -0.0049822093 -0.06914322 0.013310789 -0.014648819
0.011811867 0.012830677 0.04613477 -0.0295782 0.03737314 -0.007938933 -0.056054253 0.018027715
0.024349065 -0.0086105345 0.03240922 -0.06061953 0.013318664 -0.0025161002 0.0020774312 -0.04839959
0.022138529 -0.005550686 -0.020138875 -0.041203026 0.023312757 0.012179809 -0.007599867 -0.000616222
-0.028305644 0.059821784 0.0019226308 0.008184091 0.019638263 0.012304882 -0.00074401277 0.010667084
-0.018270915 -0.009372512 -0.018169839 0.013962172 -0.02506356 0.03279765 -0.006367213 -0.006650507
-0.01363249 -0.0045871795 -0.018843433 -0.010693798 0.011664901 -0.0043726447 -0.009066466 0.004319699
0.009916012 0.00075366354 -0.008576255 -0.010513826 -0.02865985 -0.036990117 -0.043848366 0.0043368554
0.008266342 0.017025862 0.02246454 0.011240919 -0.062543325 0.015394565 0.021691678 -0.03566359
-0.04415496 0.01743455 0.0045426013 -0.028677462 0.0025538846 -0.024463607 0.04584143 0.014435568
0.01877695 0.020730773 0.102709554 0.026738137 0.038282875 0.0073884297 0.024751334 0.001881365
0.03635019 -0.027636949 -0.018446116 0.0055569015 0.034481354 0.007984617 -0.012556111 0.014893179
0.071354195 -0.03220306 0.029387755 0.011103313 0.010494955 -0.051530346 0.019064307 0.008914241
0.0697065 -0.035132814 0.048758127 -0.0039217207 0.036572225 -0.023660649 -0.0030866074 0.017697342
-0.0003226452 -0.008742356 0.03278967 -0.050767075 0.010324683 -0.031562183 0.007396359 -0.03428374
-0.009109924 -0.009316484 -0.030475412 -0.026591508 -0.0067842044 -0.038812403 0.0024693029 -0.079233676
-0.012706422 -0.002259038 0.013883896 -0.018825613 0.030480027 -0.025555454 0.0009206541 -0.0038053792
-0.015918924 -0.00018227857 -0.008739992 0.007724783 -0.009951204 -0.050761953 -0.0016021082 -0.009049019
-0.01071136 0.013365706 0.0072655715 -0.02777176 0.01690833 -0.0021204792 -0.05423298 -0.0038864554
0.015541316 0.0011497238 -0.010425423 0.00907482 -0.027141603 -0.034517527 -0.031226723 -0.031207714
0.004364637 0.03393315 0.03324428 0.03608007 -0.013852782 0.00029193866 0.0010088669 -0.012909778
-0.020886691 0.020491304 0.007753937 -0.024416037 0.022717334 0.0076028584 0.01350709 -0.006264438

layer1.bias f4 [32]
00000000: b1e7 00bd d87d 473c 1098 d93c 2d81 acbc
00000010: 3d01 5bbc 6e17 d1bb aee9 7abc 4528 7d3c
00000020: 02a1 403b c78c a5bc 7059 d63c 23bd 5b3c
00000030: 95a9 38bc 1e63 1e3a 150a b6bb 35e7 af3c
00000040: e0b4 5d3b c798 cbbc 4593 d0b9 f820 29bc
00000050: af45 34bc 573f 9bbc e333 90bb d669 513b
00000060: 9fe2 e5bc 12d1 363c 1204 7dbc 8ac5 23bb
00000070: 052e 44bc 2ee6 a03c 4cfb 47bc 3fc0 87b9
-0.03147096 0.012176 0.026561767 -0.02105769 -0.013366994 -0.006380967 -0.015314503 0.015451496
0.0029392843 -0.02020873 0.026165694 0.013411793 -0.0112709 0.00060419913 -0.005555401 0.021472553
0.0033829734 -0.024853123 -0.00039782576 -0.010322802 -0.011002942 -0.018951101 -0.0044007166 0.0031953952
-0.028062163 0.011158245 -0.015442865 -0.0024989569 -0.011973863 0.019641008 -0.01220591 -0.0002589244

layernorm1.weight f4 [32]
00000000: 4a3e 813f ffa4 753f ad83 593f 22aa 803f
00000010: c1b8 783f 0b30 7f3f 2d99 753f 452a 773f
00000020: ca96 773f 8431 6e3f 5df1 7d3f d3f5 843f
00000030: 6a1a 823f 467b 753f 0e73 783f c052 853f
00000040: c2bb 833f d05f 823f 29ab 883f 5ad7 7b3f
00000050: 1a30 803f 7b8a 6b3f b481 813f 7006 713f
00000060: 4446 813f 6407 753f 2463 683f 9fb7 843f
00000070: 66d1 863f 6f40 9a3f 65d5 733f f473 823f
1.0097134 0.9595489 0.84966546 1.005192 0.9715691 0.9968268 0.9593685 0.96548873
0.9671446 0.93044305 0.99196416 1.038752 1.0164311 0.95891225 0.9705056 1.0415878
1.0291674 1.018549 1.0677234 0.98375475 1.001468 0.9200818 1.0117707 0.9415045
1.0099568 0.957144 0.90776277 1.0368537 1.0532653 1.2050914 0.9524749 1.0191636

layernorm1.bias f4 [32]
00000000: 918f 61bb 56d1 31bd 7d93 8dbc 8bd3 be3c
00000010: 458d 00bd 5d3f 323c e271 8bbd a880 e6bc
00000020: d477 84bd 1e65 8cbd fff6 d13c 899d 313c
00000030: 7e51 97bc 9728 82bc 55b3 043d 768b ba3c
00000040: 1069 da3c d127 af3c b0b6 043d 4591 fc3c
00000050: 5007 453c 4aba bfbd 3571 1abc 8519 bb3c
00000060: 462d 9a39 432f 83bd 3cb2 aabd 2a66 b6b9
00000070: 793f 993b f197 f83c c687 90bb ac92 ba3c
-0.0034417848 -0.04341253 -0.017282242 0.02329423 -0.031384725 0.010879365 -0.06808831 -0.02813752
-0.06468168 -0.06855224 0.025630472 0.010840782 -0.018471476 -0.015888495 0.032397587 0.022771578
0.026661426 0.02138129 0.032400787 0.030830989 0.012025669 -0.09361704 -0.009426405 0.022839317
0.000294069 -0.06405499 -0.08334777 -0.00034789863 0.004676756 0.030345889 -0.0044107167 0.022775017

blocks.0.fcn_layer.weight f4 [32, 32]
00000000: 0edc 19bd ee65 9f3d f112 673d b230 91bd
00000010: d6e8 e1bd d396 903d bdf4 dbbd d11c e7bd
00000020: 292a c83d 19e2 8c3d c9e5 1cbc 388e 413d
00000030: 8ee5 233e 87f7 20be fd89 15be dc32 c53d
00000040: 7d17 9a3d 7960 063e a645 2c3e f229 403d
00000050: 96a2 cabd 00ee d23d ddf7 72be 755e 2b3e
00000060: 70fa 933d 77d9 88bd dd6a c83d d910 223e
00000070: 3f94 6bbe 3d2b 503e 3797 013e 7d0e 533e
00000080: bc70 f63d a401 083e 7dec 98bd f99a 3b3e
00000090: d2e3 be3d b26d 37bd f796 113e 19f8 073d
000000a0: a4dd d0bb 9ba4 93bd 894b 8cbc 880e d33d
000000b0: 6f70 df3c 0960 cabd e121 cbbd 0acb 163e
000000c0: 994c 43be 7a65 e63d dbd5 1cbe 4d6d de3d
000000d0: 5243 45bd f60f debc 0a45 a63d 8589 c13d
000000e0: 51e7 943d df19 ccbd a536 9ebd 5429 ce3a
000000f0: 492d 74bd ee9a 19be 551c 1c3e 20da 9b3d
00000100: 68a4 263e 712d 19bd 5259 0fbc 5a64 933c
00000110: f180 623d e4ca 00bd 7a26 263e 4099 3e3c
00000120: fdcd b13c 4982 df3d 40e2 ecbc 21a9 453e
00000130: c8b6 90bd c93a 1e3e 19da e13b 71b3 a83d
00000140: 4e91 ce3d 06a9 25bd 677e 40bd 18e6 efbd
00000150: 177b 8fbd 67f2 713d 6455 403e 49af ff3d
00000160: 6bbe a33d 6eba 3a3d a635 c6bc 8630 383d
00000170: 0351 34bd 8ecb 1bbe 8fea d8bc 8c76 4dbe
00000180: e273 7abd 0df0 a03d a9bd a4bd c1c2 1bbd
00000190: b4c1 083e 85ce 9fbd 1a9b 8f3d e3d6 08bd
000001a0: 81bc 623d 53e9 47bd 86af 833d 86e6 203e
000001b0: c0ae 3fbe 79d7 093e 92d8 14be e963 cd3d
000001c0: f7d8 ea3c dda2 e63d 2203 4dbe 6b92 e6bb
000001d0: b24d d6bd 6aa3 d63c a72d 1abd de7e 0f3e
000001e0: bda1 c13d 72d9 12bd 69f3 053e 5261 65bd
000001f0: 537d 0c3e 41d9 17be 7d22 5c3d b0fc 38be
00000200: 3943 08be 81e0 20be b410 e8bd 7e20 debc
00000210: c57a 8bbd 86dd 4d3d 5c90 313d 3bc4 7dbd
00000220: 0c55 3c3b 09bb 623d 8148 413e 176c b3bd
00000230: 54e5 9d3d 19df 9a3b 3da5 273d 842c 273e
00000240: 0755 2f3d 4ec2 afbd 0a2e ab3d 47a3 073e
00000250: 1757 47be 8640 643d ac98 d33d 99cb ad3d
00000260: c005 c0bd ea61 b53d 7b9a 3b3c a721 133e
00000270: 1a02 5f3d 41ca 883e 042f 42be 5f11 39bd
00000280: d999 e83d 075b 0ebb 99cd 2bbd 60ee 15be
00000290: a063 313e c267 d5bd 6bd7 f6bd 691f d03c
000002a0: 9b46 6a3d 7c6d 223e ae9b cf3d c4a9 453e
000002b0: 61c3 ab3c 8ae1 70bc 8c6d 33be 2617 63be
000002c0: e97f 993d 1b01 653c c317 a0bd 2600 8abd
000002d0: 9bf1 e6bc 60e4 313e e069 babd f7cc babd
000002e0: abf6 1c3e b887 873d 8089 653e fae2 893c
000002f0: b598 0dbb 6c20 f4bd 50e3 003e 2423 9ebd
00000300: a11a c13d aaae 1e3e 3aa7 543e 0ee8 cbbd
00000310: f16b ae3d cbf0 ff3d 32a6 863d e5b1 353e
00000320: 4dae 083e a059 a7bd 4aed 17be 95a4 803b
00000330: 5023 63bd e370 9e3d be86 b9bd d7aa 21be
00000340: 6680 bbbd 3832 ff3d 5ec0 81bd 52b8 163e
00000350: b9e0 223e cda7 603e b401 453e b33d 683d
00000360: d96b 063e 3e59 a53c 4826 ef3d 67d5 d0bd
00000370: dc40 d7bd 4bd6 19be 1048 3e3d 4768 9cbd
00000380: 4353 7a3d dd87 52bc 7699 553d aa0f f93d
00000390: b4bc 6ebc 065b da3d e255 2e3c 86c7 423d
000003a0: bfbd b73d a184 b9bc 3bea edbc 17b2 22be
000003b0: 8ee2 21bd 0aad 28ba 5700 a13b 8eca 37bd
000003c0: 948a fe3d 2cc4 39bd 9302 02be adcd 0abc
000003d0: 95a6 5fbd b529 43be 627c 103e d476 ca3c
000003e0: 4762 2e3d 4e60 0bbe f4ac f7bd 27c4 edbd
000003f0: 9974 563d 50a1 c9bd 6f92 e33d 73ea c7bc
-0.037563376 0.077831134 0.05641455 -0.07089366 -0.11030738 0.070600174 -0.107400395 -0.11284793
0.097736664 0.06879062 -0.009576269 0.04725477 0.16005537 -0.15719424 -0.1460342 0.09628841
0.07524011 0.13122739 0.16823444 0.046915002 -0.09894292 0.10299301 -0.23727365 0.16735251
0.072255015 -0.06682103 0.097860076 0.1582674 -0.2300577 0.20328994 0.1265534 0.20610996
0.12033221 0.13281876 -0.074669816 0.18320836 0.09320797 -0.044782348 0.14217745 0.03319559
-0.006374078 -0.072091304 -0.017125862 0.10305506 0.027275292 -0.098815985 -0.09918571 0.14725891
-0.19072188 0.11249824 -0.15315954 0.10860691 -0.048159905 -0.02710722 0.08118637 0.09450058
0.072706826 -0.09965872 -0.07725266 0.001572887 -0.0596135 -0.15000507 0.15245183 0.076099634
0.16273654 -0.037396852 -0.008749323 0.017992187 0.05529875 -0.03144349 0.16225615 0.011633217
0.021704668 0.10913522 -0.028916478 0.19302799 -0.07066113 0.15452112 0.0068924543 0.08237351
0.100863084 -0.040444396 -0.046995547 -0.11713809 -0.070058994 0.059069064 0.18782574 0.12484605
0.07995304 0.04558795 -0.024195503 0.04496815 -0.04402257 -0.15214369 -0.026479034 -0.20064753
-0.06114567 0.07858286 -0.08043987 -0.03802753 0.13355142 -0.07803062 0.07012005 -0.033408057
0.055355553 -0.0488065 0.06429963 0.15712938 -0.18719006 0.13461103 -0.1453574 0.10028822
0.02866791 0.112615325 -0.20020726 -0.0070364974 -0.10464038 0.026200969 -0.037641194 0.1401324
0.09454677 -0.035851903 0.13081135 -0.056001015 0.13719682 -0.1482897 0.053743828 -0.18065143
-0.13306893 -0.15710641 -0.11331311 -0.027115103 -0.06810526 0.05026009 0.043350562 -0.061954718
0.0028737215 0.055354152 0.18875314 -0.08760851 0.077097565 0.0047263023 0.040929068 0.16325575
0.042805698 -0.085819826 0.08358391 0.13245879 -0.19466816 0.055725597 0.10331854 0.08486099
-0.09376097 0.08856566 0.011450405 0.14368306 0.054445364 0.26716807 -0.18963248 -0.045182582
0.11357469 -0.0021721737 -0.04194412 -0.14641714 0.1732316 -0.10420181 -0.120528065 0.025405603
0.05719624 0.15862077 0.101371154 0.19303042 0.020967187 -0.01470221 -0.17522258 -0.22176799
0.074951 0.013977314 -0.07817032 -0.067383096 -0.028191378 0.17372274 -0.09102225 -0.09121125
0.15328471 0.06617683 0.22415733 0.016831864 -0.0021605913 -0.119202465 0.12586713 -0.07721546
0.09428907 0.15496317 0.20766917 -0.0995637 0.08516682 0.124970995 0.06574668 0.17743643
0.1334774 -0.081713915 -0.14836612 0.0039258697 -0.0554536 0.07736375 -0.09058903 -0.15787826
-0.091553494 0.1246075 -0.06335519 0.1471875 0.15906037 0.21939011 0.19238931 0.056699466
0.13127078 0.020184156 0.116772234 -0.10196953 -0.10510418 -0.15023153 0.046455443 -0.07637077
0.06111456 -0.012849775 0.052148305 0.12161191 -0.0145713575 0.106618926 0.010640593 0.04755356
0.08971738 -0.02264625 -0.029042354 -0.15888248 -0.0395227 -0.0006434476 0.0049133706 -0.044870906
0.124287754 -0.0453531 -0.12696294 -0.0084718885 -0.054602224 -0.19058879 0.14109948 0.024714865
0.042574193 -0.13610956 -0.12093535 -0.11609679 0.05235729 -0.09845221 0.11111914 -0.024403786

blocks.0.fcn_layer.bias f4 [32]
00000000: a382 273e 0ed8 0e3e ce0c cdbd 10bd 783d
00000010: 4eb0 163d 85d4 8b3d cbbe 15bd 0fd2 3c3d
00000020: f819 08be 4ee6 4ebd b836 aabd 0e7b 9ebd
00000030: 9635 3c3c 1e69 59bd aaf8 e63d 3919 003d
00000040: 48c8 76bd 2474 033e b44c 3f3e e6bc 8e3d
00000050: 8ebd e5bc ce2e d33d d8ae e8bc 47f5 1dbe
00000060: 88df 893c 9cde fe3d d632 b8ba 9bd7 1d3e
00000070: 2abe 40bd 3d57 d2bd da16 b53d 20b8 9a3b
0.16358428 0.13949606 -0.10012208 0.06072718 0.03678923 0.06827644 -0.036558907 0.046098765
-0.13291156 -0.050512604 -0.08311218 -0.077383146 0.011487385 -0.053078763 0.11277898 0.031274054
-0.060249597 0.12837273 0.18681604 0.06969623 -0.028044488 0.10311662 -0.028403684 -0.15425597
0.01683022 0.12444803 -0.0014053236 0.15414278 -0.047056355 -0.10270546 0.08842249 0.0047216564

blocks.0.layer_norm.weight f4 [32]
00000000: 160e ab3f 1e03 913f 0a3e 893f a3a5 8c3f
00000010: 983d a33f c09b 953f b9b2 953f 20d6 743f
00000020: ae32 813f 3b60 873f 1211 a13f 9aea 8d3f
00000030: af30 a13f 5b8b 8e3f 4884 8d3f 74d1 6d3f
00000040: 1d09 833f 7ceb a03f 3af2 a23f ac53 7e3f
00000050: cf72 923f c66a a73f b7f6 923f 68ea 723f
00000060: 29cc a43f b1ad 933f d803 a73f f0ae 943f
00000070: 98ba 8f3f d7d3 8f3f c919 913f 6a05 a23f
1.3363674 1.1329076 1.0722058 1.0988048 1.2753172 1.1688156 1.1695167 0.9563923
1.0093591 1.0576242 1.2583334 1.108722 1.2592982 1.1136278 1.1055994 0.92897725
1.0237156 1.2571864 1.2730172 0.99346423 1.1441287 1.307946 1.1481541 0.94888926
1.2874805 1.1537381 1.3048048 1.1615887 1.1228819 1.1236523 1.1335994 1.2657902

blocks.0.layer_norm.bias f4 [32]
00000000: 2e61 7d3e 050c f63d 4b29 293c 6501 413d
00000010: 386d 813e 3932 473d d0b2 853d 30ca 10bd
00000020: f0b8 75bd 1bea 3abd 3ca2 c83c cc24 a13d
00000030: 2b20 793e 08b1 823d 7885 4e3d 449e edbd
00000040: 9b98 283d abd2 873e d0c4 803e 66cd 05bd
00000050: a9a6 493d 2779 863e 416e be3d 45d8 a2bd
00000060: 1169 6e3e 053a 493d 01cf 703e 2f84 9f3d
00000070: f89f d03d 2bb9 bc3d 7ddd 133e 2433 813e
0.24744102 0.12014011 0.010324786 0.04712047 0.2527864 0.04863188 0.065282464 -0.03534907
-0.059990823 -0.045633417 0.024491422 0.078683466 0.24328677 0.06381422 0.050420254 -0.116024524
0.04116116 0.26527914 0.25150156 -0.032666586 0.049231205 0.26264307 0.09298373 -0.079514064
0.23282267 0.049127597 0.23516466 0.07788884 0.101867616 0.092150055 0.1443996 0.2523433

last_layer.weight f4 [1, 32]
00000000: 92b0 d7be 5264 0a3e 898f 793e d05a 143e
00000010: 0720 a2be 4b98 823e 58e8 ab3e 4b91 583d
00000020: 8272 883d 576d 7b3e c80f 56be f428 f83d
00000030: 47b6 c5be a2c7 263e c2ff 383e 620d cebd
00000040: 5f51 7a3d 15d8 92be 9e29 bfbe ddb6 893d
00000050: d324 233e 00b9 a3be 175f 503e c07b 3cbc
00000060: ae9e c5be 8f06 873e 2d87 cfbe dca4 803e
00000070: e1c4 863e 7559 433e 03fa 7f3e 280a abbe
-0.421269 0.13514832 0.2437116 0.14487767 -0.3166506 0.25506815 0.33575702 0.052872937
0.06662466 0.24553429 -0.20904458 0.12117186 -0.3861563 0.16287091 0.18066314 -0.10061146
0.061112758 -0.28680483 -0.3733644 0.067243315 0.15932016 -0.3197708 0.20348774 -0.011504114
-0.38597625 0.2637219 -0.40532818 0.25125778 0.26322082 0.19077094 0.24997716 -0.33406186
