wakeword_models/hey_co_pilot/hey_co_pilot_jul_25.onnx (onnx, 205430 bytes, 9 tensors)

layer1.weight f4 [32, 1536]
-0.028048113 -0.011619575 -0.020607784 0.04306208 0.03439483 0.020028941 0.032523617 -0.04622359
0.03300672 0.022654694 -0.004342266 -0.009313136 0.042104367 -0.05195696 0.006652205 -0.101480365
-0.025545651 -0.04875081 0.010462151 -0.009003122 0.03814941 0.029666455 -0.02976663 -0.08245604
-0.017669907 -0.004500583 -0.038366698 0.051445376 -0.014350328 0.041905403 0.024775265 0.002996781
-0.010437554 -0.07148622 -0.06458557 -0.040709432 0.0099663455 0.06160395 -0.08162374 -0.008230514
0.012570238 -0.023409184 -0.008368528 -0.027256861 0.016725928 -0.009640554 -0.010051534 -0.0052150064
0.0029565718 0.0784977 0.00364691 0.041446574 0.030954247 -0.03632484 -0.01975594 -0.029959144
-0.011142594 -0.016478708 -0.042878572 0.0049626604 0.027192397 0.049428355 0.036874242 -0.03137937
0.022597337 0.0007638866 0.029855682 -0.02036677 -0.034637697 -0.019211816 0.03759032 0.03794989
0.09674382 0.012806716 -0.040174592 0.0891323 0.035273124 -0.053670034 -0.036879737 -0.038141683
0.064169586 -0.003276692 0.028559031 -0.022491345 0.0077175447 0.014332142 -0.005000003 -0.04004168
0.10631983 0.0045615877 0.043561373 -0.0026654562 0.0078206565 0.0043883356 0.15615351 -0.04577471
0.0021888865 0.0015664283 -0.08276536 0.034709904 0.0069736075 -0.008720516 0.030195225 0.024706632
0.06105439 -0.010482404 -0.03184588 -0.005178122 0.047988705 0.040944073 -0.032601595 -0.06257944
0.033136815 -0.035019126 0.036105644 -0.0040878747 0.027532509 -0.005267129 0.007345383 -0.041253895
-0.04715453 0.017459936 0.00064909447 0.019246297 0.011391767 0.009363167 0.0363869 -0.010787713
-0.034828868 -0.07569562 -0.026652014 0.021115515 -0.0023692804 0.005012893 -0.08196229 -6.649126e-05
-0.06692716 -0.006559707 0.019352421 0.009272879 0.06770731 -0.0074901474 -0.044133052 0.006086908
0.024603054 0.00075237005 -0.04370773 0.024687491 0.0511683 0.009497444 -0.06689346 0.0021941646
-0.044771463 -0.031432185 0.009992272 0.0030849057 0.10873958 0.024708508 0.0048870156 0.037923463
0.008498418 -0.021348014 0.039950516 0.01749493 0.032403525 0.004788663 0.062398635 0.033455018
-0.01555938 0.008557787 -0.03348859 0.1082441 0.038883314 -0.0028932882 0.00942317 -0.00091973075
0.030845918 0.0079407245 0.02515767 0.01609674 -0.004135387 0.051906835 0.06321065 -0.017108057
0.061968837 0.0015930512 0.040346436 0.008537246 -0.005498831 -0.011821199 0.12377174 0.0014176155
-0.028719803 -0.020149216 -0.047597434 -0.05508038 0.0073668826 0.006934987 0.0077880896 0.03868399
0.037848923 0.000979295 -0.03661183 -0.054660678 -0.019996077 0.020668544 -0.0061646122 -0.057794843
0.0029615355 -0.02820177 -0.024760423 -0.0031125057 0.024930406 0.0069394615 0.006966308 -0.0031080083
-0.034076057 -0.0070326314 0.009791367 0.03530461 0.027906803 -0.06942814 0.017731886 0.028783092
-0.0150467735 -0.000106027794 0.004592253 0.05055186 0.022595786 -0.025828429 0.097302206 0.010523705
-0.02103864 0.045102507 0.012311822 -0.008765972 0.010317252 -0.036203023 -0.0026589197 -0.014763415
0.037209034 0.009372549 -0.04895461 0.02748228 0.06896662 -0.03723871 -0.04978458 -0.032460585
-0.06951268 -0.017091464 0.014219931 0.07426767 0.08289297 0.04888195 0.025115317 -0.032561507
00000000: 28c5 e5bc 0860 3ebc a8d1 a8bc dd61 303d
00000010: 98e1 0c3d bc13 a43c 7c37 053d f254 3dbd
00000020: 0e32 073d 5696 b93c 9149 8ebb 2096 18bc
00000030: a175 2c3d d2d0 54bd bdfa d93b f0d4 cfbd
00000040: 1d45 d1bc eeae 47bd 7169 2b3c d581 13bc
00000050: 8e42 1c3d 1107 f33c 26d9 f3bc b6de a8bd
00000060: 7bc0 90bc a079 93bb 6626 1dbd 63b8 523d
00000070: a31d 6bbc 00a5 2b3d 7ff5 ca3c a465 443b
00000080: 4602 2bbc 5e67 92bd 7045 84bd efbe 26bd
00000090: e249 233c 6c54 7c3d 592a a7bd 47d9 06bc
000000a0: 66f3 4d3c 9ec4 bfbc 271c 09bc c849 dfbc
000000b0: d004 893c 6af3 1dbc 30af 24bc a5e2 aabb
000000c0: 0bc3 413b 67c3 a03d ff00 6f3b e2c3 293d
000000d0: c393 fd3c 5bc9 14bd 36d7 a1bc e16c f5bc
000000e0: 6d8f 36bc 5bfe 86bc 71a1 2fbd d09d a23b
000000f0: 97c2 de3c 6375 4a3d 7209 173d a787 00bd
00000100: 0d1e b93c 903f 483a e793 f43c 36d8 a6bc
00000110: 42e0 0dbd 1962 9dbc 4ff8 193d 5871 1b3d
00000120: a021 c63d 43d3 513c 1d8e 24bd ff8a b63d
00000130: 8d7a 103d 1cd5 5bbd 350f 17bd 743a 1cbd
00000140: 586b 833d c5bd 56bb a1f4 e93c c53f b8bc
00000150: 75e3 fc3b 5cd1 6a3c 11d7 a3bb bf02 24bd
00000160: 36be d93d 5f79 953b 696d 323d efae 2ebb
00000170: 3622 003c 07cc 8f3b b5e6 1f3e 437e 3bbd
00000180: 6c73 0f3b 9d50 cd3a e380 a9bd f92b 0e3d
00000190: dc82 e43b 7fe0 0ebc fa5b f73c 9065 ca3c
000001a0: 2b14 7a3d 64be 2bbc d370 02bd 3cad a9bb
000001b0: ce8f 443d f9b4 273d 4089 05bd a629 80bd
000001c0: 78ba 073d 3770 0fbd 83e3 133d 94f3 85bb
000001d0: db8b e13c e197 acbb 8ab1 f03b d8f9 28bd
000001e0: 1c25 41bd 2408 8f3c fe27 2a3a 69aa 9d3c
000001f0: 89a4 3a3c f867 193c 6e0a 153d f3be 30bc
00000200: b7a8 0ebd 4e06 9bbd 5355 dabc 72fa ac3c
00000210: ee45 1bbb 3243 a43b d8db a7bd 3971 8bb8
00000220: 1b11 89bd d0f2 d6bb f888 9e3c 46ed 173c
00000230: 21aa 8a3d e96f f5bb dcc4 34bd af74 c73b
00000240: 588c c93c b33a 453a e006 33bd 6c3d ca3c
00000250: da95 513d 2b9b 1b3c 70ff 88bd f9cb 0f3b
00000260: 4862 37bd 09bf 00bd a0b6 233c 212c 4a3b
00000270: dbb2 de3d 7f69 ca3c 4223 a03b a255 1b3d
00000280: f33c 0b3c 08e2 aebc 27a3 233d 8751 8f3c
00000290: 8fb9 043d 37ea 9c3b b695 7f3d 2108 093d
000002a0: c5ec 7ebc f635 0c3c 552b 09bd 15af dd3d
000002b0: 1c44 1f3d 529d 3dbb a463 1a3c 161a 71ba
000002c0: 94b0 fc3c d019 023c 7517 ce3c 4fdd 833c
000002d0: 2482 87bb 439c 543d 9674 813d 3226 8cbc
000002e0: 09d3 7d3d eecd d03a 4e42 253d cedf 0b3c
000002f0: 8a2f b4bb b4ad 41bc 0a7c fd3d 48cf b93a
00000300: cb45 ebbc f80f a5bc 87f5 42bd f79b 61bd
00000310: e465 f13b e33e e33b 3b33 ff3b 1a73 1e3d
00000320: 7907 1b3d b05b 803a 49f6 15bd e0e3 5fbd
00000330: d0ce a3bc 1451 a93c 8400 cabb 49ba 6cbd
00000340: 5216 423b 6607 e7bc 5fd6 cabc 2efb 4bbb
00000350: da3a cc3c 6c64 e33b a145 e43b baaf 4bbb
00000360: 5693 0bbd fd71 e6bb f86b 203c 919b 103d
00000370: cf9c e43c 5730 8ebd 7642 913c 85ca eb3c
00000380: be86 76bc 3d5b deb8 9c7a 963b 780f 4f3d
00000390: cc1a b93c 2496 d3bc 6146 c73d 9e6b 2c3c
000003a0: 3a59 acbc 68bd 383d 86b7 493c 279f 0fbc
000003b0: b109 293c 9f49 14bd 4541 2ebb 40e2 71bc
000003c0: 8068 183d 528f 193c a184 48bd 8522 e13c
000003d0: 5f3e 8d3d 9e87 18bd eaea 4bbd 64f5 04bd
000003e0: aa5c 8ebd 6603 8cbc b7fa 683c a619 983d
000003f0: cac3 a93d 7138 483d a3be cd3c 375f 05bd

layer1.bias f4 [32]
0.011504324 0.065223806 0.010866153 0.023294838 0.029598877 0.056509107 -0.0038690513 -0.007937649
0.034654263 0.030343188 -0.033502176 -0.013609132 0.028842548 0.057418786 0.033297755 0.04754479
0.047856577 -0.028484061 0.0036010907 -0.021140818 -0.011375241 0.054625474 -0.010962941 -0.0008830335
-0.011840205 0.05767761 0.042586867 0.06145836 0.034331065 -0.00896998 -0.02882265 0.008280036
00000000: a27c 3c3c 0f94 853d f307 323c d1d4 be3c
00000010: 5879 f23c 1876 673d e98f 7dbb ea0c 02bc
00000020: a1f1 0d3d 4792 f83c 9439 09bd d6f8 5ebc
00000030: 3547 ec3c f62f 6b3d 3a63 083d 53be 423d
00000040: 4205 443d 6857 e9bc 4700 6c3b 822f adbc
00000050: 385f 3abc f6be 5f3d e89d 33bc 607b 67ba
00000060: 6bfd 41bc 5c3f 6c3d 916f 2e3d c3bb 7b3d
00000070: bb9e 0c3d d3f6 12bc 7a1d ecbc fda8 073c

layernorm1.weight f4 [32]
0.97191745 0.8750373 1.1189803 0.95998025 0.9147965 1.2070401 0.9876264 1.0416775
1.2009315 0.92186636 1.0227151 1.032594 1.1704854 1.096889 0.9132392 0.9010544
1.3077494 1.0906694 0.9813075 1.0838023 1.0189689 0.90490204 0.85604584 0.96580255
0.9273946 1.2063752 1.1091344 1.0067534 1.213938 1.0271151 1.0160351 1.0353887
00000000: 95cf 783f 7202 603f bf3a 8f3f 44c1 753f
00000010: 1a30 6a3f 4a80 9a3f 15d5 7c3f b055 853f
00000020: 20b8 993f 6fff 6b3f 54e8 823f 0a2c 843f
00000030: 77d2 953f dc66 8c3f 0bca 693f 80ab 663f
00000040: 5564 a73f 0e9b 8b3f f836 7b3f 09ba 8a3f
00000050: 936d 823f a9a7 673f d225 5b3f d63e 773f
00000060: bc69 6d3f 816a 9a3f 1ef8 8d3f 4cdd 803f
00000070: 5262 9b3f 8278 833f 700d 823f 9e87 843f

layernorm1.bias f4 [32]
-0.015415774 0.022478666 -0.03115799 0.010718224 -0.005345975 -0.020794706 -0.036048166 -0.023449581
0.0074514393 -0.07069364 -0.027285153 -0.060768146 -0.02317836 0.010243601 -0.00094665657 0.008729108
0.018684423 -0.026246207 -0.07334051 -0.017963268 -0.087150216 2.2861115e-05 -0.07651064 -0.054845836
-0.048672788 0.014871673 0.013213872 0.00612931 0.021184755 -0.026800761 -0.08459235 -0.043387987
00000000: 7192 7cbc 2e25 b83c 0b3f ffbc 7d9b 2f3c
00000010: 4a2d afbb a959 aabc 3ea7 13bd 5619 c0bc
00000020: 342b f43b d4c7 90bd 1d85 dfbc 05e8 78bd
00000030: 8be0 bdbc c7d4 273c 0c29 78ba 8804 0f3c
00000040: 1310 993c 4902 d7bc 8d33 96bd b427 93bc
00000050: d07b b2bd dfc5 bf37 9cb1 9cbd 07a6 60bd
00000060: 1e5d 47bd 51a8 733c ff7e 583c 61d8 c83b
00000070: a78b ad3c 458d dbbc c13e adbd 9ab7 31bd

blocks.0.fcn_layer.weight f4 [32, 32]
0.122452654 -0.007695571 0.21600997 -0.012013768 0.08162552 -0.08116031 0.1316853 0.12948483
-0.13286509 0.057876404 0.07038714 0.21963848 -0.06441957 -0.15484582 0.09456999 0.11675063
-0.116517216 0.04089803 0.053297 0.12322108 0.24402422 -0.14264885 0.06719569 0.08813022
0.011227134 -0.14115566 -0.13861153 -0.06013214 -0.1502696 0.08563929 0.092725255 0.12846881
0.015610969 -0.066094376 -0.119499385 -0.06757622 0.033028718 0.26429555 -0.15705118 -0.20576549
0.34387437 0.060492467 -0.009711374 -0.25752413 0.32371 0.10387918 0.12343716 0.16906472
0.34402746 -0.098631814 -0.22454973 -0.21377805 -0.11808512 -0.06425249 0.11157907 0.049792167
-0.1715875 0.18500613 0.16188885 0.18618628 0.34422478 -0.18162698 -0.14618053 0.042099804
0.099553205 -0.01928096 0.19387093 -0.06351584 0.12745656 -0.073698945 0.10504405 0.05239284
-0.20225021 -0.11536224 0.22340162 0.18804945 -0.040964056 -0.108087 0.100218564 0.1224952
-0.22065678 0.24473724 0.21245222 0.20765512 0.18572032 -0.017376477 0.017949749 0.19311441
0.06740721 0.024838706 -0.10384592 0.018224854 -0.16334504 0.12701549 0.17853476 0.24517559
0.1543274 -0.04140086 0.19722982 0.041713275 0.07210569 -0.155284 0.12397145 0.0789205
-0.12823857 0.10032321 0.18696265 0.14315633 -0.045554604 -0.08899926 -0.05049206 0.14213055
-0.10647181 0.14488697 0.23319118 0.2571438 0.22380818 -0.049900766 -0.018755436 0.026926696
-0.030058997 -0.14662799 -0.15420334 -0.07154428 -0.15158607 0.016851718 0.108219974 0.113421805
-0.08915714 0.094234765 -0.13480003 -0.042507317 0.105545424 0.30653712 0.070050254 -0.09370365
0.18011494 0.034488913 -0.17644641 -0.17164049 0.2598638 0.13459545 0.12160461 0.0635414
0.38439643 -0.17927173 -0.18879265 -0.17224267 -0.23182204 -0.03656589 -0.054338526 -0.10105934
0.024672624 0.3126082 0.07139775 0.09223532 0.39449984 -0.17390583 -0.08308384 -0.18011828
0.08397541 -8.686986e-05 0.038604468 0.009513825 0.18104231 -0.01626182 0.103767954 0.10507579
0.079663455 0.10233357 0.060483105 0.029774103 0.07132041 -0.07272121 -0.06624461 0.029535277
0.115016304 0.037234582 -0.015077568 -0.0062840353 0.09741072 -0.050816238 -0.05408934 0.03300237
0.031716447 -0.007222959 0.09902804 0.10943378 0.11777774 0.06899436 -0.02545254 0.045130916
0.103407316 0.01749532 -0.092514336 0.006980403 -0.037447955 0.16829966 -0.008904337 -0.016807908
0.15359375 -0.012531687 0.086484596 -0.027446656 0.15941769 -0.0041376953 0.03865207 0.16416168
0.08658121 -0.059717778 -0.0061741853 -0.07449 -0.03431305 -0.016870791 -0.03476633 0.060418397
-0.02652862 0.097854465 0.08103675 0.15473887 0.108450875 -0.030773636 0.03741521 0.055936754
-0.048187077 -0.017969117 -0.17421497 0.1120044 0.13364135 0.3487332 0.021039745 0.04088869
0.30797514 0.04787268 0.008074705 -0.17138414 0.21804573 0.011777387 -0.015656855 0.014855964
0.37478983 -0.10800027 -0.029872583 -0.08907771 -0.22776335 -0.03539351 -0.036063325 -0.07297607
-0.12530394 0.26090914 0.1983545 0.09606812 0.28319058 -0.06307932 0.07024558 -0.22520266
00000000: 75c8 fa3d 212b fcbb b831 5d3e 65d5 44bc
00000010: 482b a73d 6037 a6bd 83d8 063e ac97 043e
00000020: c90d 08be cf0f 6d3d 2227 903d e9e8 603e
00000030: 68ee 83bd e78f 1ebe e9ad c13d f41a ef3d
00000040: 94a0 eebd b184 273d f44d 5a3d 555b fc3d
00000050: 7ce1 793e 8a12 12be e59d 893d 9e7d b43d
00000060: 03f2 373c 1c8b 10be 2ef0 0dbe 1e4d 76bd
00000070: 46e0 19be a763 af3d bde6 bd3d 548d 033e
00000080: 26c5 7f3c 7d5c 87bd 18bc f4bd 6765 8abd
00000090: 1f49 073d bf51 873e 06d2 20be 30b4 52be
000000a0: 4d10 b03e f3c6 773d 741c 1fbc 34da 83be
000000b0: 51bd a53e 9cbe d43d 9fcc fc3d 4d1f 2d3e
000000c0: 5e24 b03e 7aff c9bd 5df0 65be a2e8 5abe
000000d0: 9dd6 f1bd cf96 83bd 9183 e43d dff2 4b3d
000000e0: a2b4 2fbe 3f72 3d3e 31c6 253e 9ea7 3e3e
000000f0: 3b3e b03e 6cfc 39be 59b0 15be d870 2c3d
00000100: 8de2 cb3d 1bf3 9dbc 1a86 463e 9814 82bd
00000110: f983 023e 79ef 96bd 5621 d73d e099 563d
00000120: ae1a 4fbe 0a43 ecbd 65c3 643e 0990 403e
00000130: edc9 27bd b85c ddbd 643f cd3d c3de fa3d
00000140: daf3 61be 669c 7a3e 138d 593e 8ba3 543e
00000150: 782d 3e3e 1d59 8ebc 5a0b 933c c9bf 453e
00000160: cb0c 8a3d 8b7a cb3c 2bad d4bd 4a4c 953c
00000170: ec43 27be 5910 023e d1d1 363e 4f0f 7b3e
00000180: 0008 1e3e f393 29bd 9df6 493e 8adb 2a3d
00000190: 26ac 933d c502 1fbe bee4 fd3d 12a1 a13d
000001a0: f950 03be 4176 cd3d 2373 3f3e 9397 123e
000001b0: 7797 3abd 3e45 b6bd c3d0 4ebd ac8a 113e
000001c0: e40d dabd 405d 143e abc9 6e3e 5aa8 833e
000001d0: f92d 653e bf64 4cbd 00a5 99bc 6095 dc3c
000001e0: 493e f6bc a625 16be 7be7 1dbe cf85 92bd
000001f0: 6139 1bbe 9d0c 8a3c 6fa2 dd3d b149 e83d
00000200: 0598 b6bd 28fe c03d 0509 0abe 271c 2ebd
00000210: 3328 d83d 6ff2 9c3e 8276 8f3d b3e7 bfbd
00000220: 0d70 383e 3f44 0d3d 5eae 34be 86c2 2fbe
00000230: de0c 853e 64d3 093e d60b f93d fe21 823d
00000240: 9ccf c43e 0293 37be dc52 41be 6260 30be
00000250: c262 6dbe 1dc6 15bd 1392 5ebd 33f8 cebd
00000260: 3e1e ca3c 2f0e a03e fc38 923d dfe5 bc3d
00000270: e2fb c93e 5f14 32be dc27 aabd ed70 38be
00000280: 4dfb ab3d e72d b6b8 b81f 1e3d e0df 1b3c
00000290: 2863 393e 8237 85bc 4b84 d43d fa31 d73d
000002a0: 9826 a33d 4394 d13d 22bd 773d d2e8 f33c
000002b0: 6f10 923d dcee 94bd 41ab 87bd f7f3 f13c
000002c0: ab8d eb3d 4a83 183d e707 77bc 4fea cdbb
000002d0: 467f c73d b024 50bd c98c 5dbd 7e2d 073d
000002e0: 1be9 013d 92ae ecbb 37cf ca3d d11e e03d
000002f0: 7535 f13d ea4c 8d3d d881 d0bc 32db 383d
00000300: 37c7 d33d 5852 8f3c 2878 bdbd ddbb e43b
00000310: 0763 19bd bf56 2c3e 7fe3 11bc bdb0 89bc
00000320: ae47 1d3e b451 4dbc d61e b13d cfd7 e0bc
00000330: 643e 233e 8195 87bb a251 1e3d 001a 283e
00000340: 7d51 b13d a19a 74bd d250 cabb 378e 98bd
00000350: d78b 0cbd 9d34 8abc 2467 0ebd 4879 773d
00000360: 8c52 d9bc ec67 c83d 98f6 a53d de73 1e3e
00000370: 7e1b de3d fe18 fcbc b140 193d f01d 653d
00000380: d05f 45bd f833 93bc 6965 32be 9062 e53d
00000390: 47d9 083e 288d b23e 8b5b ac3c e67a 273d
000003a0: ebae 9d3e 2516 443d c44b 043c 537f 2fbe
000003b0: 6147 5f3e f1f5 403c ce42 80bc 6e66 733c
000003c0: 74e4 bf3e 3f2f ddbd 59b7 f4bc 606e b6bd
000003d0: cc3a 69be c9f8 10bd 23b7 13bd 7a74 95bd
000003e0: ad4f 00be e295 853e 711d 4b3e 5dbf c43d
000003f0: 5bfe 903e bb2f 81bd eadc 8f3d 879b 66be

blocks.0.fcn_layer.bias f4 [32]
0.048805315 -0.0288797 0.03872396 0.09059101 0.071058795 -0.097462 0.07802854 0.14538628
0.14168586 0.079965234 0.025433552 0.09735371 -0.11411196 0.01721183 -0.093097426 -0.005097887
0.15492414 0.050514136 -0.060369316 -0.05422275 0.15860148 0.07257369 0.1640059 -0.064026214
0.05066762 0.00823216 -0.103060625 -0.035724264 0.063101485 -0.068045005 0.08749063 -0.104063496
00000000: 15e8 473d 1f95 ecbc 049d 1e3d c887 b93d
00000010: 4687 913d 289a c7bd 6dcd 9f3d 24e0 143e
00000020: 1916 113e d0c4 a33d 065a d03c 6261 c73d
00000030: 88b3 e9bd d3ff 8c3c dda9 bebd 2d0c a7bb
00000040: 6fa4 1e3e e9e7 4e3d d145 77bd ad18 5ebd
00000050: 6d68 223e 84a1 943d 2af1 273e 2d20 83bd
00000060: da88 4f3d 2ee0 063c 7311 d3bd 9b53 12bd
00000070: 5a3b 813d 2e5b 8bbd 4a2e b33d 3e1f d5bd

blocks.0.layer_norm.weight f4 [32]
1.4662576 1.3184687 1.3492835 1.4613588 1.4263256 1.1613411 1.083754 1.3333261
1.1923463 1.3835454 1.0896549 1.1396836 1.3710675 1.3375707 1.173539 1.2122322
1.3939592 1.4340034 1.3620409 1.4468554 1.4092735 1.4335933 1.4950334 1.322109
1.1991553 1.4840558 1.4521227 1.4905169 1.2898047 1.403249 1.3104453 1.3169667
00000000: 54ae bb3f 95c3 a83f 52b5 ac3f ce0d bb3f
00000010: d691 b63f d3a6 943f 73b8 8a3f 6eaa aa3f
00000020: ce9e 983f 0418 b13f d079 8b3f 27e1 913f
00000030: 247f af3f 8435 ab3f 8736 963f 6d2a 9b3f
00000040: 416d b23f 6c8d b73f 5b57 ae3f 8f32 b93f
00000050: 1363 b43f fc7f b73f 415d bf3f de3a a93f
00000060: ec7d 993f 8af5 bd3f 28df b93f 42c9 be3f
00000070: 5218 a53f aa9d b33f acbc a73f 5d92 a83f

blocks.0.layer_norm.bias f4 [32]
0.20484136 0.22479808 0.10074894 0.12952875 0.23659042 0.17056112 0.06653809 0.21308178
0.22238833 0.20622961 0.0031132305 0.14078543 0.23458044 0.12037434 0.21694827 0.21832746
0.17351264 0.18411985 -0.028491233 0.2633031 0.20704848 0.06627004 0.26807263 0.03868495
-0.024661016 0.25621244 0.16321868 0.09732295 0.18532975 0.24219057 0.123594955 0.10008011
00000000: efc1 513e 7831 663e 7655 ce3d 2fa3 043e
00000010: c244 723e 93a7 2e3e 1f45 883d 1c32 5a3e
00000020: c4b9 633e db2d 533e 5707 4c3b 0e2a 103e
00000030: db35 703e d286 f63d b027 5e3e 3c91 5f3e
00000040: 4cad 313e ea89 3c3e 7266 e9bc aacf 863e
00000050: 8404 543e 96b8 873d d140 893e 1c74 1e3d
00000060: e605 cabc 472e 833e cc22 273e 4151 c73d
00000070: 15c7 3d3e ce00 783e 5a1f fd3d cdf6 cc3d

last_layer.weight f4 [1, 32]
0.42173868 -0.380751 0.3530356 0.43008715 -0.45212388 0.17878953 0.14428477 -0.48712757
0.18720117 0.47503942 0.2256975 0.30352592 -0.5082713 0.45612863 0.19254875 0.20914759
0.4234169 0.49771172 0.37150353 -0.57056004 0.5436615 0.4865614 0.58007336 0.39304107
0.348453 0.54975075 0.52857226 0.44735846 -0.4332521 -0.5132589 0.45401633 0.31523156
00000000: 22ee d73e ccf1 c2be 15c1 b43e 6234 dc3e
00000010: c87c e7be 9a14 373e 63bf 133e c968 f9be
00000020: aab1 3f3e 5e38 f33e 3f1d 673e c067 9b3e
00000030: 111e 02bf b189 e93e 802b 453e c92a 563e
00000040: 1aca d83e 12d4 fe3e b635 be3e 3910 12bf
00000050: 662d 0b3f 931e f93e b07f 143f ae3c c93e
00000060: 6e68 b23e 77bc 0c3f 8350 073f 2b0c e53e
00000070: 38d3 ddbe ef64 03bf d474 e83e 0866 a13e
