wakeword_models/hey_co_pilot/hey_co_pilot.tflite (tflite, 206748 bytes, 9 tensors)

Const_1 f4 [32]
0	0xbd049d5d	-0.032376636
1	0xbcd2eae7	-0.025746776
2	0xbb48ddbf	-0.003064975
3	0xbc11ee24	-0.008906875
4	0x3d01afd7	0.031661835
5	0xbcb43cd0	-0.022001654
6	0xbd126be0	-0.03574741
7	0x3d859ec0	0.0652442
8	0x3e2c37e6	0.16818199
9	0x3d2fab4d	0.042887975
10	0x3e0eb936	0.1393784
11	0xbcabac73	-0.020956254
12	0xba6095d2	-0.0008567247
13	0x3e3af8ef	0.18259023
14	0x3e39843c	0.1811685
15	0x3d195c3b	0.037441473
16	0x3dd9c5c2	0.106334224
17	0x3e0a4164	0.13501507
18	0xbc9c2ecf	-0.019065289
19	0x3d8bd95f	0.068285696
20	0xbd093cb9	-0.033505175
21	0x3e264f05	0.16241081
22	0x3e0be298	0.13660657
23	0x3d826606	0.06367116
24	0x3e1f72de	0.15571162
25	0x3d2bcc17	0.041942682
26	0x37a9a052	2.0221025e-05
27	0x3e138f4d	0.14410134
28	0xbbc6df12	-0.0060690725
29	0x3de31e31	0.11089743
30	0x3e22d0ff	0.15900038
31	0xbb9d0dc7	-0.004792902

Const_2 f4 [32]
0	0x3f92482d	1.1428276
1	0x3fa1cb9c	1.2640262
2	0x3f775658	0.96616125
3	0x3f8ea01e	1.1142614
4	0x3f8d9c0a	1.1063244
5	0x3f67f6b3	0.9061081
6	0x3f7cf6d7	0.9881415
7	0x3f75464f	0.9581041
8	0x3f9d5781	1.2292329
9	0x3f7098f8	0.9398341
10	0x3f866b44	1.0501485
11	0x3f94e173	1.1631302
12	0x3f5e181d	0.86755544
13	0x3fe3e85a	1.7805283
14	0x3f8a07f0	1.0783672
15	0x3f6b329f	0.91874117
16	0x3f966465	1.1749388
17	0x3fd2ee24	1.6478925
18	0x3f8c35df	1.095394
19	0x3f6a0a18	0.9142165
20	0x3f7c433d	0.985401
21	0x3f87edce	1.0619447
22	0x3f961b3a	1.1727059
23	0x3f8eed92	1.1166251
24	0x3fa8f21a	1.3198884
25	0x3f59c80e	0.85070884
26	0x3f51efbd	0.82006437
27	0x3fbee69b	1.4914125
28	0x3f5a56b1	0.8528853
29	0x3f7e9f90	0.99462223
30	0x3fa73472	1.306288
31	0x3f6c3e61	0.9228268

Const_3 f4 [32]
0	0xbdd5ebfe	-0.104454026
1	0xbd539549	-0.05165604
2	0xbdbe5c91	-0.092949994
3	0xbd2d5ae0	-0.042322993
4	0xbd1b47a3	-0.037910115
5	0xbda2164b	-0.07914408
6	0xbe0fd552	-0.14046219
7	0xbe16c58f	-0.147238
8	0x3d3b93f7	0.045795407
9	0xbe262ab9	-0.16227235
10	0xbd22e188	-0.039765865
11	0xbd8b2968	-0.06795007
12	0xbe476fb0	-0.19476199
13	0x3dbfea2e	0.09370838
14	0x3d06e3f7	0.032932248
15	0xbdf76fea	-0.12081893
16	0xbd8068d3	-0.06269994
17	0x3d79b8e0	0.060967326
18	0xbd73dec6	-0.059538625
19	0xbe21445e	-0.15748736
20	0xbe15a3c3	-0.14613251
21	0x3d8c0b5f	0.06838106
22	0x3caf85f3	0.021426177
23	0xbdc092df	-0.094030134
24	0x3db81c8b	0.08989819
25	0xbd9b25b0	-0.07575548
26	0xbe2e9af4	-0.17051297
27	0x3d6f3fb5	0.058410365
28	0xbe4e41bf	-0.20142268
29	0xbd93c694	-0.0721561
30	0x3db768df	0.089555494
31	0xbe3546e5	-0.17702825

Const_5 f4 [32]
0	0x3e400932	0.18753508
1	0xbdce5545	-0.100748576
2	0x3d863b09	0.06554229
3	0xbdd7ef49	-0.10543687
4	0x3ebdb4fd	0.37052146
5	0x3d22c425	0.03973784
6	0xbe102e46	-0.14080152
7	0xbe30d459	-0.17268504
8	0xbe46f346	-0.19428739
9	0x3ba158db	0.0049239225
10	0x3d9349e4	0.07191828
11	0x3db798a4	0.08964661
12	0xbd9490b8	-0.072541654
13	0x3e8376c0	0.25676537
14	0x3d89d60a	0.06730278
15	0xbd93638f	-0.07196724
16	0x3e504854	0.20340091
17	0x3e46f378	0.19428813
18	0xbcdcd208	-0.02695562
19	0xbdbf1607	-0.09330373
20	0xbda5fb94	-0.08104625
21	0xbdd25311	-0.1026975
22	0xbc356f04	-0.0110738315
23	0x3e023b62	0.12717965
24	0x3eb69cee	0.35666603
25	0xbe50b931	-0.20383145
26	0x3e9f81d7	0.31153747
27	0x3d81cd18	0.06337947
28	0x3d51fc00	0.051265717
29	0x3eb7ceb0	0.35899878
30	0xbdd4abe9	-0.10384352
31	0xbaf5b605	-0.0018746263

Const_6 f4 [32]
0	0x3f9e889e	1.2385442
1	0x3fd0e14b	1.6318754
2	0x3fca1014	1.5786157
3	0x3fd0d60d	1.6315323
4	0x3fae8547	1.3634423
5	0x3fa92cbe	1.3216779
6	0x3fdd14f3	1.7272018
7	0x3fdcde60	1.7255363
8	0x3fd474f0	1.6598186
9	0x3fe0d8fd	1.756622
10	0x3fbad8e8	1.4597445
11	0x3fcc6f18	1.5971403
12	0x3fbde189	1.4834453
13	0x3fc39312	1.5279257
14	0x3ff11488	1.8834391
15	0x3fdd4b65	1.7288634
16	0x3fb6c4f8	1.427886
17	0x3fb96fce	1.4487245
18	0x3fc8bf1e	1.5683324
19	0x3fe2fbd2	1.77331
20	0x3fcca722	1.5988505
21	0x3fbd5251	1.4790746
22	0x3fe32bc1	1.7747728
23	0x3fbf88ec	1.496366
24	0x3f9f78eb	1.2458776
25	0x3ffa787c	1.9568019
26	0x3fb87f29	1.4413806
27	0x3ff4fe53	1.9140114
28	0x3fccb93a	1.5994027
29	0x3fb85891	1.4402028
30	0x3fbdd2c3	1.4829944
31	0x3fb42841	1.4074785

Const_7 f4 [32]
0	0xbe503ac6	-0.2033492
1	0xbe4de20f	-0.20105766
2	0xbe969747	-0.2941229
3	0xbd6627a8	-0.056190163
4	0xbc083e7e	-0.008315681
5	0xbe6fcafe	-0.23417279
6	0x3e239072	0.1597307
7	0xbdb2a579	-0.08722968
8	0xbd06e097	-0.03292903
9	0xbb5422eb	-0.0032369446
10	0xbe0733a5	-0.13203295
11	0x3e905a65	0.28193966
12	0x3e468845	0.1938792
13	0xbc052699	-0.008126878
14	0xbe32c588	-0.17458165
15	0x3c159395	0.009129425
16	0x3ea6cf35	0.3257996
17	0xbd694e04	-0.056959167
18	0xbd5d8148	-0.05407837
19	0xbdd18e0f	-0.10232174
20	0xbb91f151	-0.004453816
21	0x3eba5435	0.3639237
22	0xbd7ee7b0	-0.062232673
23	0xbd84042a	-0.06446107
24	0xbdaa371c	-0.083112925
25	0xbd953610	-0.07285702
26	0xbe563b54	-0.2092107
27	0xbdc9ec99	-0.098595805
28	0xbccaeffa	-0.024772633
29	0x3cd2afce	0.025718596
30	0xbe131716	-0.14364275
31	0xbd90a34d	-0.07062397

MatMul f4 [32, 1536]
0	0xbe4205df	-0.18947552
1	0x3df9256b	0.1216534
2	0x3dbe421a	0.092899516
3	0xbdb62ef1	-0.08895672
4	0x3e4cb94a	0.19992557
5	0xbb99409c	-0.0046768915
6	0x3d6f6637	0.05844709
7	0xbe943f84	-0.2895471
8	0x3ddc8a16	0.10768525
9	0x3c5d3e9a	0.013503695
10	0xbc2f3423	-0.010693583
11	0xbd6a5bb9	-0.05721638
12	0xbcb7b3d0	-0.022424608
13	0xbdc5d6b4	-0.09660092
14	0xbd6bb361	-0.057544116
15	0xbde127db	-0.1099393
16	0xbbdd4b65	-0.0067533725
17	0x3e525ecd	0.20543976
18	0x3e0f8eb5	0.14019282
19	0xbdd53003	-0.10409548
20	0x3d7c8283	0.061647903
21	0x3c4f335f	0.012646525
22	0xbe410933	-0.18851165
23	0x3e200b04	0.15629202
24	0xbe54df11	-0.20788218
25	0x3dcafdd0	0.09911692
26	0xbd1cbf7c	-0.03826855
27	0x3d7d7fb6	0.061889373
28	0x3e14cc52	0.14531067
29	0x3ccb6394	0.024827756
30	0x3d794d3d	0.060864676
31	0xbbd8a322	-0.006611244
32	0xbdfa5bf0	-0.12224567
33	0xbe042b8c	-0.12907237
34	0xbe2afb8b	-0.16697519
35	0x3df05320	0.11734605
36	0x3d39f86c	0.04540293
37	0x3e00e7ca	0.1258842
38	0xbcab0ee0	-0.020881116
39	0x3d843404	0.06455234
40	0xbea6a466	-0.325473
41	0x3d06dbd4	0.03292449
42	0x3d1c9a1a	0.0382329
43	0xbcc918df	-0.024547992
44	0xbdace4a5	-0.08442048
45	0xbe421184	-0.18951994
46	0xbdebf2c3	-0.115209125
47	0xbcf08880	-0.029361963
48	0x3c5ae6bd	0.013360676
49	0x3e15a2df	0.14612912
50	0xbcf5d83e	-0.030010339
51	0x3deb5506	0.11490826
52	0x3d4ac308	0.049502403
53	0xbd560cc2	-0.05225826
54	0xbc50ad8a	-0.012736687
55	0xbd982093	-0.07428088
56	0xbe97e017	-0.29663154
57	0x3d7e9de7	0.062162306
58	0x3c031940	0.008001626
59	0xbe604edb	-0.21905081
60	0x3d86a9ca	0.065753534
61	0x3e054ff9	0.13018788
62	0x3e18ea62	0.1493316
63	0xbda23fdd	-0.07922337
64	0x3ce8c14d	0.028412485
65	0x3d207bba	0.039180495
66	0x3d1783a5	0.03699078
67	0xbd9d84fb	-0.0769138
68	0xbe91662a	-0.28398257
69	0xbdd6b85b	-0.10484382
70	0xbe2620ce	-0.16223451
71	0x3d976616	0.07392518
72	0x3e6ca6a2	0.2311044
73	0xbe177941	-0.14792348
74	0x3da66c7f	0.08126163
75	0x3e745a34	0.23862535
76	0xbcf99e27	-0.03047092
77	0xbe07a79b	-0.1324753
78	0x3d0b7ac7	0.034052636
79	0xbd93ddbf	-0.07220029
80	0xbd195538	-0.037434787
81	0x3d5058f0	0.050866067
82	0x3d545fa0	0.051849008
83	0xbd8ef781	-0.069808014
84	0x3ca5bc8a	0.020231504
85	0x3d961d7f	0.07329845
86	0x3d7f0eab	0.062269848
87	0xbd5ce092	-0.053925104
88	0x3e4a57b8	0.19760025
89	0x3d5738ab	0.052544277
90	0x3e968201	0.2939606
91	0x3d806109	0.06268508
92	0x3d2953a4	0.04133953
93	0xbcae70bf	-0.021293996
94	0x3db5e1e5	0.088809766
95	0x3da18c17	0.07888048
96	0xbe1ecff4	-0.15509015
97	0x3dfc113a	0.12307973
98	0x3d0ef45c	0.034901008
99	0x3c3f8023	0.011688265
100	0x3d8fe7c0	0.07026625
101	0xbc0daf5b	-0.008647765
102	0x3e4490c9	0.19195856
103	0xbe8bf9cf	-0.27339026
104	0x3decbf7d	0.11559961
105	0x3d645a42	0.05575014
106	0xbd85427e	-0.06506823
107	0xbd8e2c48	-0.0694204
108	0xbd8e8087	-0.069581084
109	0xbdea0f67	-0.11428719
110	0xbdf73f62	-0.12072636
111	0xbdf250e3	-0.11831834
112	0xbd32d658	-0.043661445
113	0x3e6af5a0	0.22945261
114	0x3e117979	0.14206494
115	0xbe0641fd	-0.1311111
116	0xbc236e49	-0.0099750245
117	0x3b20cdf7	0.0024536827
118	0xbe21a1a5	-0.15784319
119	0x3dfa6b11	0.122274525
120	0xbe456e95	-0.19280465
121	0x3ddd6218	0.108097255
122	0x3b0f96de	0.0021909992
123	0x3b0e95dd	0.0021756806
124	0x3d204cc4	0.03913571
125	0x3e43ac66	0.19108734
126	0x3d37571f	0.04476082
127	0x3d8be39e	0.06830524
128	0xbcbbbe87	-0.022917999
129	0xbe5ba5aa	-0.21449915
130	0xbe7bd4a7	-0.24592839
131	0x3e241280	0.16022682
132	0x3d22ba76	0.039728604
133	0x3da08dd0	0.078395486
134	0x3d483b49	0.048884664
135	0x3cde9f2b	0.027175507
136	0xbe854fae	-0.26037353
137	0x3df0961e	0.117473826
138	0x3d9e50c9	0.07730252
139	0xbcf047ff	-0.029331205
140	0xbde97915	-0.11400048
141	0xbe752708	-0.2394067
142	0xbe093678	-0.13399684
143	0xbc560dca	-0.013064811
144	0xbd27a919	-0.04093275
145	0x3e80cb38	0.25155044
146	0xbcfa0f29	-0.030524807
147	0x3dbb95af	0.09159409
148	0xbe1d4c70	-0.1536119
149	0xbc90ac4c	-0.017660283
150	0xbd56dc05	-0.05245592
151	0xbd39b12a	-0.045334972
152	0xbe86b78d	-0.26311913
153	0x3c82e32b	0.015977463
154	0xbdb46f09	-0.08810241
155	0xbdf66e92	-0.12032808
156	0xbdb4a67e	-0.08820818
157	0x3e112841	0.14175512
158	0x3d87b864	0.066269666
159	0xbd58d8cd	-0.052941132
160	0x3d331652	0.04372246
161	0x3d399555	0.04530843
162	0xbd8e02ce	-0.06934129
163	0xbdca15d7	-0.09867447
164	0xbe2e69f0	-0.170326
165	0xbda3620b	-0.079776846
166	0xbe098fd5	-0.13433774
167	0x3e03544d	0.12825127
168	0x3e36fe3f	0.17870425
169	0xbe14d20a	-0.14533249
170	0x3d84eaf4	0.06490126
171	0x3e099341	0.13435079
172	0xbded3940	-0.11583185
173	0x3da61b6c	0.08110699
174	0xbcc8642d	-0.02446183
175	0xbd02511f	-0.031815644
176	0xb9179cb8	-0.00014458864
177	0x3da3c757	0.079970054
178	0x3cf4d541	0.029886844
179	0xbdec8b37	-0.115499906
180	0x3d1bfbbe	0.038081877
181	0x3e4597ea	0.19296232
182	0xbd791bda	-0.060817577
183	0xbe12eef7	-0.1434897
184	0x3e5a6327	0.21326886
185	0x3bd44497	0.006477903
186	0x3e5bf913	0.21481733
187	0x3d60293a	0.054726817
188	0x3d2c4003	0.042053234
189	0xbd8dccac	-0.06923804
190	0x3e238414	0.15968353
191	0x3e17bf8b	0.14819162
192	0xbe239256	-0.15973791
193	0x3e23ea9c	0.16007465
194	0x3d0fb2b4	0.035082534
195	0x3dfbe159	0.12298841
196	0x3e1ded79	0.1542262
197	0xbb9e1fd5	-0.004825572
198	0x3ea15f73	0.31518134
199	0xbe6ca96e	-0.23111507
200	0xbc62c14e	-0.013840033
201	0x3d5d48ea	0.054024614
202	0xbd4bde8f	-0.049772795
203	0x3cf8689b	0.030323317
204	0xbdf08178	-0.11743444
205	0x3b61ff1a	0.0034484328
206	0xbc9f8a2f	-0.01947507
207	0xbe6a9762	-0.2290931
208	0x3ab4792c	0.0013769022
209	0xbd047650	-0.032339394
210	0x3e65bb84	0.22434813
211	0xbdea16bd	-0.11430118
212	0xbd4fd97c	-0.05074452
213	0xbde82692	-0.11335482
214	0xbe09bf8d	-0.13451977
215	0x3da8fe6c	0.08251652
216	0xbe2a85c5	-0.16652592
217	0x3e0156cd	0.12630768
218	0x3c58a33a	0.01322251
219	0x3d6ff621	0.058584336
220	0x3db1b9e4	0.08678034
221	0x3c89217b	0.016739598
222	0x3cdf390c	0.027248882
223	0x3d83e443	0.06440022
224	0xbd0aa496	-0.033848368
225	0xbe1f365d	-0.15548082
226	0xbe6fd4eb	-0.23421066
227	0x3d31f131	0.04344291
228	0x3ad9076d	0.0016557999
229	0x3da441c6	0.08020358
230	0x3e649e0b	0.22325914
231	0x3de0ebe6	0.10982494
232	0xbe6fd9fe	-0.23423001
233	0x3d62495a	0.055245735
234	0x3d2a42a2	0.041567452
235	0xbc7221d3	-0.014778572
236	0xbd8e36dd	-0.06944058
237	0xbe3fd29a	-0.18732682
238	0xbdee616c	-0.116396755
239	0x3e0b26a6	0.13588962
240	0xbd8246f4	-0.063611895
241	0x3e22eea6	0.1591135
242	0xbcb34dba	-0.021887649
243	0x3d5a126d	0.05324023
244	0x3c408fc3	0.011753025
245	0xbd9bebe4	-0.07613352
246	0xbdc9a598	-0.098460376
247	0xbd91908c	-0.07107648
248	0xbe780dae	-0.24223968
249	0x3dc9f3b6	0.09860937
250	0xbd8b7ce0	-0.068109274
251	0xbdaa0505	-0.08301739
252	0xbe067a87	-0.13132678
253	0x3e157262	0.14594415
254	0x3d8c3f50	0.068480134
255	0xbd535819	-0.05159769

MatMul_1 f4 [32, 32]
0	0xbe7a35c2	-0.2443457
1	0xbf135bba	-0.5756184
2	0xbe6cf50d	-0.23140354
3	0xbec81bf3	-0.39083824
4	0xbe7d0cd2	-0.24711922
5	0xbe77360c	-0.24141711
6	0xbe296e63	-0.16546015
7	0xbe2c330e	-0.16816351
8	0x3e86edee	0.263534
9	0xbe83a573	-0.25712165
10	0xbcc3cb75	-0.023900727
11	0xbea7c241	-0.3276539
12	0xbea3fe38	-0.3202989
13	0x3f5c0c1b	0.8595597
14	0x3d9ece89	0.07754237
15	0xbe524ece	-0.20537874
16	0x3ddfa8af	0.10920846
17	0x3ecbf475	0.39834943
18	0xbf0feb5b	-0.562185
19	0x3e12ce75	0.1433657
20	0xbea7892d	-0.32721844
21	0x3e852db6	0.26011437
22	0x3de8e358	0.113714874
23	0xbd7a96ad	-0.061178852
24	0x3ea67cd0	0.325171
25	0xbe22a3ed	-0.15882845
26	0xbe96f534	-0.2948395
27	0x3f134481	0.57526404
28	0xbe2954ad	-0.16536207
29	0xbdf9babe	-0.12193821
30	0x3e23049c	0.15919727
31	0xbf026dce	-0.509488
32	0x3ec66020	0.38745213
33	0x3ec801fd	0.39064017
34	0x3ebe63ff	0.37185666
35	0x3e9fd6f8	0.31218696
36	0x3eaa8cde	0.33310598
37	0x3e30e059	0.17273082
38	0x3ebcfe46	0.36912745
39	0xbdb52dfc	-0.088466614
40	0x3ddad83f	0.10685777
41	0x3e15c481	0.14625742
42	0x3e21134e	0.1573002
43	0x3ece6ddb	0.40318188
44	0x3e4aad8e	0.19792768
45	0xbe61df39	-0.22057809
46	0xbd379049	-0.044815335
47	0x3dc0d107	0.09414869
48	0x3e28f6e0	0.16500425
49	0x3de37a62	0.11107327
50	0x3e5f3682	0.21798137
51	0x3e3b43a1	0.18287517
52	0x3e8c2a7e	0.2737617
53	0x3d048c4d	0.032360364
54	0x3e3d727e	0.18500707
55	0xbd872d1c	-0.06600401
56	0xbe1e4007	-0.15454112
57	0x3e161bf6	0.14659104
58	0x3e8d418e	0.27589077
59	0xbdc1cdb6	-0.094630644
60	0x3eb29bd0	0.348845
61	0x3d8132a7	0.06308489
62	0xbaf0955c	-0.001835506
63	0x3ed77614	0.42082274
64	0xbd368e37	-0.04456922
65	0xbe8eb5e0	-0.27873135
66	0xbe28a743	-0.16470055
67	0xbe9ed2ab	-0.31020102
68	0xbe2ad638	-0.1668328
69	0xbe13cf9d	-0.14434667
70	0xbd4c51c0	-0.04988265
71	0x3e418f2e	0.18902275
72	0x3e51eecf	0.20501254
73	0xbc31c31f	-0.010849743
74	0x3e468eda	0.19390431
75	0xbe484d69	-0.1956078
76	0xbe60ef52	-0.21966293
77	0x3f1f5044	0.6223185
78	0x3e210f1f	0.15728424
79	0xbcb4ff64	-0.022094436
80	0x3e7c3602	0.24629977
81	0x3dd35b59	0.103201576
82	0xbea8366b	-0.32854018
83	0x3e011bb5	0.12608226
84	0xbe5470bf	-0.20746134
85	0x3e3109fe	0.17288968
86	0x3e25f654	0.16207248
87	0xbe01af75	-0.12664588
88	0x3da4b7ef	0.08042895
89	0xbcd1f605	-0.025630007
90	0xbe359ec6	-0.17736349
91	0x3e869713	0.26287135
92	0x3d328b4a	0.043589868
93	0xbe10a23f	-0.14124392
94	0x3d52fd1e	0.051510923
95	0xbe63e4a4	-0.22255188
96	0x3ee990bb	0.45618233
97	0x3ef7c218	0.4839027
98	0x3ed41c63	0.41427907
99	0x3ea170b3	0.31531295
100	0x3da445c1	0.08021117
101	0x3e6fa998	0.23404539
102	0x3ebfa4d5	0.37430444
103	0x3e93b0d3	0.28845844
104	0x3e08735c	0.13325256
105	0x3e92282b	0.2854627
106	0x3e1db806	0.1540223
107	0x3e80e8b5	0.2517754
108	0x3ecf2853	0.40460452
109	0xbe557583	-0.20845608
110	0x3d8f7929	0.07005531
111	0x3e610620	0.21974993
112	0xbdbfd2ee	-0.093664035
113	0xbe827b4e	-0.254847
114	0x3e9ae550	0.30253077
115	0x3e49a291	0.1969092
116	0x3eb087f9	0.3447874
117	0xbd369460	-0.044575095
118	0x3e777b94	0.24168235
119	0xbd8234da	-0.06357737
120	0x3e1d0dcc	0.15337294
121	0x3eb4008a	0.3515666
122	0x3ec6cafa	0.38826734
123	0xbda02c25	-0.0782092
124	0x3ea365df	0.3191366
125	0x3e34e303	0.17664723
126	0x3df4f164	0.11960104
127	0x3ec0cc09	0.37655666
128	0xbe344ddc	-0.17607826
129	0xbef8aa47	-0.4856741
130	0xbe4f0605	-0.2021714
131	0xbed35ad5	-0.41280237
132	0xbbd2b2a0	-0.006429985
133	0xbe638a1e	-0.22220656
134	0xbe28badc	-0.16477531
135	0x3c856980	0.016285658
136	0x3ea71d4c	0.3263954
137	0xbe78007b	-0.24218933
138	0x3e38f12a	0.18060747
139	0xbec782f6	-0.38967103
140	0xbd9e3cca	-0.07726438
141	0x3f595720	0.8489857
142	0x3d8f78bf	0.07005452
143	0x3be5e5da	0.007015926
144	0xbe1a4eb9	-0.15069093
145	0x3ed82d01	0.42221835
146	0xbddbd603	-0.10734179
147	0xbd3da720	-0.04630196
148	0xbda7bfbb	-0.081908666
149	0x3e21ab4c	0.15788001
150	0x3e27c270	0.16382766
151	0xbd14836b	-0.036258142
152	0x3e970a35	0.29499975
153	0xbe3f44ea	-0.18678632
154	0xbe03b953	-0.12863664
155	0x3f055f65	0.52098686
156	0xbe3ff82a	-0.18747011
157	0xbdf07291	-0.11740602
158	0x3ec69f30	0.38793325
159	0xbe489c59	-0.19590892
160	0x3eae6972	0.34064823
161	0x3eb9adce	0.36265415
162	0x3e5f328c	0.21796626
163	0x3e3ff6c2	0.18746474
164	0x3d3821df	0.044954177
165	0x3e90f50f	0.28311965
166	0x3e6e4f69	0.2327248
167	0x3ded4d4a	0.11587007
168	0x3dd70c2d	0.10500369
169	0x3e7ec6bc	0.24880499
170	0x3e146538	0.14491737
171	0x3e6380bf	0.22217081
172	0x3ecf0715	0.4043509
173	0xbdc1dd78	-0.0946607
174	0xbbc2f1e6	-0.0059492467
175	0x3d80f082	0.06295873
176	0xbdd76f2e	-0.10519253
177	0xbd5b13f2	-0.05348582
178	0x3e670dde	0.22563884
179	0x3e279434	0.16365129
180	0x3d989836	0.07450907
181	0x3cc2d323	0.023782318
182	0x3d191d6c	0.037381575
183	0x3deecfad	0.11660705
184	0x3d3ee141	0.046601538
185	0x3e4314b9	0.19050874
186	0x3df8a1b7	0.1214022
187	0xbc99867e	-0.018740889
188	0x3e817f62	0.25292498
189	0x3d633dd0	0.05547887
190	0x3d21219d	0.039338697
191	0x3db99b52	0.09062828
192	0x3f25157a	0.64485896
193	0x3f1ddb52	0.6166278
194	0x3ec4464f	0.3833489
195	0x3ee930a4	0.45544922
196	0x3e5b6a86	0.21427354
197	0x3e8a1222	0.2696696
198	0x3ed12fd0	0.4085679
199	0x3e55cc95	0.20878823
200	0xbd9c8422	-0.0764239
201	0x3e51ee66	0.20501098
202	0x3dbfa7f2	0.09358205
203	0x3f014387	0.50493664
204	0x3ec6cd53	0.38828525
205	0xbee32d3a	-0.44370443
206	0x3e800055	0.25000253
207	0x3dc28e7e	0.094998345
208	0x3da3f9c6	0.08006625
209	0xbe64aeee	-0.22332355
210	0x3ebe5e7e	0.37181467
211	0x3db4fcfb	0.08837315
212	0x3efab532	0.48966366
213	0x3ba44149	0.0050126654
214	0x3d0b92a5	0.034075398
215	0x3d02131f	0.031756517
216	0xbe195217	-0.14972721
217	0x3e432808	0.1905824
218	0x3e9fbe17	0.31199715
219	0xbe4019b4	-0.18759805
220	0x3e4a7d83	0.19774441
221	0x3deecbf2	0.11659993
222	0xbe14678d	-0.14492626
223	0x3eda5079	0.4263952
224	0x3eec59ff	0.46162412
225	0x3f232cad	0.63740045
226	0x3ebd947c	0.37027347
227	0x3eb56eb6	0.35436028
228	0xb9737849	-0.00023219096
229	0x3e9cef92	0.30651528
230	0x3efd8009	0.49511746
231	0x3e4157d5	0.18881162
232	0xbe6a44e0	-0.22877836
233	0x3dbdf296	0.09274785
234	0xbac21fc6	-0.0014810495
235	0x3f02f810	0.51159763
236	0x3e638d95	0.22221978
237	0xbec23512	-0.37931114
238	0x3e35e500	0.17763138
239	0x3eab4b60	0.33455944
240	0x3e326610	0.17421746
241	0xbe88bde1	-0.26707366
242	0x3ea5736b	0.3231462
243	0xbd897e35	-0.06713525
244	0x3eea1566	0.4571945
245	0x3dae5b8d	0.08513556
246	0x3b3bb9e1	0.0028644728
247	0x3e8b9b80	0.27267075
248	0xbe50066a	-0.20314947
249	0x3e8a4909	0.27008846
250	0x3e9468c5	0.28986183
251	0xbe3f085b	-0.18655531
252	0x3e5aab45	0.21354397
253	0x3db9c28a	0.090703085
254	0xbe403a28	-0.18772185
255	0x3ea1bc62	0.31589037

MatMul_2 f4 [1, 32]
0	0xbe9bff40	-0.30468178
1	0x3f657e5e	0.89645946
2	0xbf177072	-0.5915595
3	0x3f2b9df0	0.6703787
4	0xbecd9b18	-0.4015739
5	0x3f1508db	0.5821664
6	0x3f2c80b5	0.6738389
7	0x3f5cab3d	0.8619879
8	0x3f3c53a2	0.73565114
9	0x3f5c6a0e	0.86099327
10	0x3f1c7d79	0.61128956
11	0x3f128633	0.5723602
12	0x3f1e24a8	0.61774683
13	0xbf24cdf7	-0.6437678
14	0x3f7f8f5a	0.9982811
15	0x3f433cbc	0.7626455
16	0xbf045ffa	-0.5170895
17	0x3ef32c4d	0.47494736
18	0x3f139378	0.57646894
19	0x3f5a86b8	0.85361814
20	0x3f1c58ed	0.6107319
21	0x3ef13c60	0.47116375
22	0x3f4add09	0.7924352
23	0xbf064067	-0.5244202
24	0xbec1d997	-0.3786132
25	0x3f8c7b65	1.0975157
26	0xbef632ae	-0.4808554
27	0x3f7625a7	0.961512
28	0x3f33d340	0.70244217
29	0xbf053c0e	-0.5204476
30	0x3f2b1c92	0.6684047
31	0x3edc030b	0.42971072
