wakeword_models/hey_nexus/hey_nexus (1).onnx (onnx, 205430 bytes, 9 tensors)

layer1.weight f4 [32, 1536]
000000 ba 05 1b bd 7b 17 0a 3d ee 01 86 bc e3 26 95 3c
       -0.03784726 0.0337138 -0.016358342 0.01820702
000010 db b9 69 3d 63 1c d2 b8 63 86 77 3c e7 5b bc bb
       0.05706201 -0.00010018868 0.015107724 -0.0057482603
000020 2b 00 f2 3c 50 b5 07 bc b9 0a 2b 3c e3 71 85 b9
       0.029541096 -0.008282974 0.010439568 -0.0002545259
000030 67 22 45 bc e5 a8 7a bc 5c 0e 34 3d 87 c0 b6 bc
       -0.012032128 -0.015299057 0.043959007 -0.022308601
000040 50 1b f1 3b 9a b4 85 bd 0d 92 e9 3c 49 9d 33 bd
       0.007357992 -0.06528588 0.028512025 -0.04385117
000050 b9 21 24 3d 18 8b 57 3d ce b0 1e bd 21 04 ab bc
       0.040071223 0.052622885 -0.038742833 -0.020875992
000060 bb 29 f0 3c 3f 7f 4a 3d 06 a1 84 bd 4b 36 3c 3d
       0.029316774 0.049437758 -0.06476025 0.045950215
000070 d2 2f d6 3d fd 72 0f bd f9 79 b4 bc 93 87 9e bc
       0.1045834 -0.03502177 -0.022030817 -0.019351756
000080 33 7f 68 bc 58 74 63 3d 30 6c 5d bd 7f b6 4b bd
       -0.014190483 0.055530876 -0.054058254 -0.04973459
000090 36 ef 04 3d 9d b0 4e 3d e2 c3 95 38 2f ff 04 3d
       0.03245469 0.0504614 7.14136e-05 0.032469925
0000a0 b3 47 7f bd 7f 8e fb 3b 13 87 23 3d 8b f1 4f bd
       -0.062324237 0.007676899 0.03992374 -0.050767463
0000b0 da 9b bb 3c 36 0b 41 3c 4a 3a eb bc 1e bc 0a 3e
       0.022901464 0.011782458 -0.028714318 0.13548324
0000c0 38 94 82 3d 98 f8 eb bc 4b 6d 68 bd f3 f3 92 3c
       0.06375927 -0.028805062 -0.056744855 0.01793859
0000d0 5a f9 6e 3d 19 bd ac bc 4b 94 e5 bc cb 21 c6 bb
       0.05834327 -0.021086263 -0.028024813 -0.006046509
0000e0 0d c2 e9 bc 9b 3b a5 3c 6b d5 c5 bc 73 33 e2 bc
       -0.028534913 0.020170024 -0.024149617 -0.027612424
0000f0 bf 6c 60 3c 6f 8b 8b 3c a3 ee 95 bd 10 71 2d bc
       0.013697802 0.01703426 -0.07320907 -0.010586038
000100 b0 30 98 3b 22 95 70 3c c0 b1 3f 3c 4f 1a 1f bd
       0.004644476 0.0146839935 0.011700094 -0.03884345
000110 bf 82 ea 3c 46 e9 1b bd 57 c2 7a bd 02 ed 7c 3c
       0.028626798 -0.038064264 -0.061220493 0.015437366
000120 d2 7f 49 ba b0 58 05 bd 96 1f 2d 3d b3 21 86 bd
       -0.0007686588 -0.032555282 0.04226645 -0.06549396
000130 b8 f2 54 ba 70 8e c9 bd 78 91 c1 bc 2a bf e0 bc
       -0.0008123326 -0.09841621 -0.023628935 -0.027434904
000140 34 81 98 bc 02 0a b6 3c 83 3f 17 3d 68 2b ad 3b
       -0.018616296 0.022221569 0.036925804 0.0052847154
000150 3d b0 b1 3c 70 fe 14 3d 03 f5 4b 3d db 19 eb 3c
       0.021690482 0.036375463 0.04979421 0.028698852
000160 2a 64 5a 3d 87 d4 5a bc 32 74 e2 bc bf a6 13 bd
       0.05331818 -0.0133563345 -0.027643297 -0.036047693
000170 e8 97 ef 3b 3f 59 24 bc e0 d6 c2 3d 85 27 e7 3c
       0.00731181 -0.010031044 0.095136404 0.028217087
000180 b1 17 36 bd 53 7b 8a 3c b2 12 ad bc 03 72 a3 bc
       -0.044456188 0.016904509 -0.021127079 -0.019951826
000190 de cf 42 3d 62 e4 55 3c 5f e5 8d 3c 7d 66 64 ba
       0.04756152 0.013054939 0.017321287 -0.0008712782
0001a0 43 9b b7 3d 10 4b 4b bd 0a bd f8 bc 2d ba 84 3b
       0.08965161 -0.049632132 -0.030363578 0.004050514
0001b0 f0 d6 46 bc ee 0b 85 bd 83 31 91 bc cf b3 10 3d
       -0.012136206 -0.06496416 -0.017723804 0.03532773
0001c0 af 0e f8 bc a5 e2 4e bd 93 12 2b bd cd 19 88 bd
       -0.03028044 -0.050509114 -0.04176576 -0.06645546
0001d0 70 48 f4 bc c7 71 17 3d 79 72 23 bd 2b c8 94 3d
       -0.029819697 0.03697374 -0.03990409 0.072647415
0001e0 c5 7b 39 ba 0d 1b d3 3c 4f 00 15 bd 1a e2 91 3d
       -0.0007075633 0.025769735 -0.036377247 0.071232036
0001f0 83 7f 7c 3d c0 b7 eb 3c c4 a0 12 bd f3 6d bc 3c
       0.061645042 0.028774142 -0.03579785 0.023001647
000200 fd 9d f7 bc 4f f6 95 ba 4d 06 ae bd 90 c5 d8 bc
       -0.030226702 -0.0011441204 -0.084972955 -0.026461393
000210 26 97 48 3d 55 a8 68 3d 17 ce b6 bd e3 f4 3b 3a
       0.04897227 0.05680116 -0.08926027 0.0007169975
000220 cc 37 93 bd 97 f3 29 bd 64 bd a5 3c 35 64 f2 bc
       -0.07188377 -0.04149207 0.02023191 -0.029588798
000230 55 7b 3f bd 40 ee 0d 3c bb a6 11 bd a0 46 dd 3d
       -0.046748478 0.00866276 -0.035559397 0.10804486
000240 08 01 79 3d 12 86 81 bb ef d1 95 3a be 71 16 3d
       0.060792 -0.00395275 0.0011430363 0.036729567
000250 fc c4 03 3d bb 6e 96 bc 72 c9 23 bb a1 2b 3c 3c
       0.03217028 -0.018363347 -0.0024991897 0.011485011
000260 c1 18 36 bd 7a 90 a2 bb d6 87 07 bc 00 77 03 bd
       -0.0444572 -0.0049610706 -0.008272132 -0.03209591
000270 aa 0d da bc 7d 06 f1 3c a9 41 05 be e3 d1 ec 3c
       -0.026617844 0.02942204 -0.13013329 0.028908676
000280 99 92 88 ba 0a 55 f4 3c 2b 8b 82 bc c3 c1 71 bc
       -0.0010419666 0.029825706 -0.015935501 -0.014755669
000290 2b d0 b9 3c 43 f5 27 bd 45 bc e5 bc 12 7f ab 3d
       0.02268227 -0.041005384 -0.028043875 0.08373846
0002a0 a5 37 c2 3c 57 42 48 bd 3a 00 50 3d 90 b2 cf bc
       0.023708174 -0.04889139 0.050781466 -0.0253537
0002b0 cb 0d 85 bc 1f 84 cc bc 22 a0 8f bc 33 7f d2 bc
       -0.016241929 -0.024965344 -0.017532412 -0.025695419
0002c0 25 cf 5b bd 4d 61 f0 3c dd 14 24 3d e5 83 76 3d
       -0.053664345 0.029343272 0.04005896 0.06018438
0002d0 f0 0d 11 3c 28 54 81 3d 2e d6 42 3d af 49 0e bd
       0.008853421 0.0631488 0.04756754 -0.03473824
0002e0 79 b1 b3 3c 0c 73 9f 3c 8b 42 0a 3d 77 1b 97 bc
       0.021935211 0.019464038 0.033754867 -0.018445713
0002f0 2f b5 07 3d 57 cb 31 bd 0d db 5b 3d 9b 93 25 3d
       0.033131775 -0.04340681 0.0536757 0.04042397
000300 69 f9 b9 bd 4d 12 06 3b b7 f9 23 bc b5 01 14 3d
       -0.09080774 0.0020457685 -0.010008267 0.03613444
000310 08 d1 66 bb 27 45 58 3d 30 b1 62 3d 23 40 91 bc
       -0.0035219807 0.052800324 0.05534476 -0.017730778
000320 dc 55 af 3c fb ba b3 3c 41 12 ae bc 23 8e 8e ba
       0.021403246 0.021939745 -0.021248939 -0.00108761
000330 0b d2 b1 bb 83 e5 43 bd e3 b6 40 bc 67 c6 c1 3c
       -0.0054266504 -0.0478263 -0.011762354 0.023654176
000340 35 69 42 3c bb b4 42 bd d6 1a a4 bc 44 f1 14 bd
       0.011865904 -0.04753564 -0.020032328 -0.0363629
000350 d9 1b 8f bc c9 1e 16 3d 15 43 79 bd 5d a3 f0 bc
       -0.017469333 0.036650453 -0.06085499 -0.029374773
000360 f0 4b 0b 3c af 35 27 3d 7f 2b f7 bc f3 53 5b 3d
       0.008501992 0.04082268 -0.030172108 0.053546857
000370 50 7f c2 3d b0 27 5f bc b1 c1 a5 bc 8b ff c3 3c
       0.09496939 -0.013620302 -0.02023396 0.023925563
000380 1f 87 b0 bc 0f 5e 15 bd 3f 78 d8 bc 94 d5 16 bd
       -0.021548806 -0.036466654 -0.026424525 -0.036824778
000390 77 d4 5d 3c 1b c2 c2 3c 83 79 ef bc 33 8f ba 3c
       0.013539425 0.023774197 -0.029232746 0.02277336
0003a0 c5 54 97 bd 02 a5 ef bc 58 24 e3 3b 1f 82 aa bc
       -0.073892154 -0.029253487 0.0069318227 -0.020814
0003b0 8d e2 9f bc 73 7f 64 bd 99 bc 25 bd 77 df ad 3c
       -0.019517208 -0.055785608 -0.040463064 0.02122472
0003c0 9d 3b de 3c 42 d4 8f 3d 8a d2 6f bc a0 c3 6e 3d
       0.027128035 0.07022907 -0.014637599 0.05829203
0003d0 f7 4e 42 39 63 f1 7f bd d2 50 dd bc 08 0e 5e 3c
       0.00018530698 -0.062486064 -0.027016077 0.01355315
0003e0 bb c8 d4 bb f3 af a7 3c 2f 8a cd 3c 24 db 87 3c
       -0.0064936555 0.020469641 0.025090305 0.016583987
0003f0 cd 19 ae bc 9b 0c 8d bb 75 42 5a 3a a5 81 73 3c
       -0.021252537 -0.004304481 0.0008325943 0.014862453

layer1.bias f4 [32]
000000 25 38 76 bc df bb b3 ba 3b b8 34 3d 1a a1 63 3d
       -0.015028034 -0.0013712606 0.04412101 0.05557356
000010 95 00 62 3d a7 0b 7e 3d fb 06 88 3d 55 bb 75 3d
       0.055176336 0.06202283 0.066419564 0.059993107
000020 eb 89 bd 3c ee ad 8e 3b 4b 5f 86 3d 78 18 82 bc
       0.023137053 0.00435423 0.065611444 -0.015880808
000030 ef 2f 5b 3d c3 95 b9 3c 21 39 17 bc c1 53 bf 3c
       0.05351251 0.02265442 -0.009229929 0.023355367
000040 65 0e 09 bc 0d 34 b4 3b 69 58 3f bc c3 7a 7d 3c
       -0.008365248 0.005499369 -0.0116787935 0.015471163
000050 c4 29 0e 3d 0b 39 2a bc ef 3b fd 3c c0 eb fe 3c
       0.0347078 -0.010389577 0.030912368 0.031118274
000060 78 9d ba 3c 17 3d 64 3d ae e4 1c 3a 4f ba 55 3d
       0.022780165 0.055722322 0.00059850037 0.05217963
000070 5b af b9 3c bb 2e 0b 3c 59 bc 8d 3d c2 4b ce 3c
       0.022666624 0.008495028 0.0692069 0.025182609

layernorm1.weight f4 [32]
000000 aa 1d 81 3f 54 21 80 3f c0 bb 73 3f 8a f9 82 3f
       1.0087178 1.0010171 0.9520836 1.0232403
000010 41 e3 8b 3f 3a db 85 3f ef 8d 80 3f 5c 4c 85 3f
       1.0928727 1.0457528 1.0043315 1.0413928
000020 d7 d1 75 3f fb f5 77 3f a5 24 7b 3f e2 95 88 3f
       0.96023315 0.9685971 0.9810279 1.0670741
000030 df c1 78 3f 33 07 8a 3f 93 b5 86 3f e5 10 8a 3f
       0.97170824 1.0783447 1.0524162 1.0786406
000040 9d 4e 97 3f 7b b8 8c 3f 26 b8 94 3f bd 02 74 3f
       1.1820866 1.0993799 1.1618698 0.9531668
000050 00 30 77 3f 3a 87 7e 3f 1f 50 6b 3f b6 e9 88 3f
       0.9655762 0.9942509 0.9191913 1.0696323
000060 a2 79 80 3f 47 51 7f 3f 01 cc 92 3f ad 7a 76 3f
       1.0037119 0.99733394 1.1468507 0.9628094
000070 d3 81 84 3f 21 80 82 3f 6f 36 91 3f ee fc 84 3f
       1.0352119 1.0195352 1.1344737 1.0389688

layernorm1.bias f4 [32]
000000 40 81 5b 3c 6b 0e 9d bc 5a 38 28 bd 35 91 a3 bd
       0.013397515 -0.019171914 -0.041069366 -0.079866804
000010 db 1b d6 bc 2a ce e9 bc f3 9a 45 bc de 39 23 bb
       -0.02613633 -0.02854069 -0.012060869 -0.0024906318
000020 25 a6 a5 3c 5e 8c 4a 3d 55 0b b6 bc 03 11 7b bc
       0.020220825 0.04945027 -0.0222222 -0.01532388
000030 8a 2f a4 bc da 10 d1 bc 3d 39 65 bd 95 42 74 bc
       -0.0200422 -0.02552073 -0.05596279 -0.0149084525
000040 77 55 ae bc 6d a2 11 bd ff 2d 0f 3d fd 72 d6 bc
       -0.021280987 -0.035555292 0.034955975 -0.026177878
000050 c0 ee c5 bc c5 8d c4 bc 38 6b 9f bd 67 1d be bc
       -0.024161696 -0.023993382 -0.07784122 -0.02320738
000060 b7 3f dd 3b 5f f0 6c bc d3 7a 9d bc 14 a2 13 bd
       0.00675198 -0.014461606 -0.019223606 -0.03604324
000070 45 6c 6a b9 22 46 6f 3c 93 9b 46 bc 67 5e e8 bc
       -0.00022356313 0.014604123 -0.012122053 -0.028365327

blocks.0.fcn_layer.weight f4 [32, 32]
000000 53 d2 1b bd ef 61 d1 3d 91 fa 95 bc 43 ac da bb
       -0.038042378 0.102237575 -0.018307956 -0.006673367
000010 8d 6b f1 bd c2 03 55 bd 41 a6 13 bb da c6 f6 bd
       -0.11788092 -0.052005537 -0.0022529515 -0.12049647
000020 7e 84 19 3e 5a 68 62 3d 70 33 55 3e 37 de 6a 3d
       0.14991948 0.0552753 0.20820403 0.057340827
000030 34 bb ca 3c 51 36 16 3e cf 3b 65 3e e0 8f 4a 3e
       0.024747469 0.14669158 0.22386096 0.19781446
000040 da 7e 0d 3e 7b 2b af 3e 67 fc be 3e 01 ea 4a 3e
       0.13817921 0.3421286 0.37301943 0.19815828
000050 f7 ae b2 3d e7 63 2a 3e 6d ba 07 3c 6d a8 7f 3b
       0.08724778 0.16639672 0.008284193 0.0039010302
000060 93 1f 73 3d 57 9f f2 bd cc 18 9e 3e b3 df 37 bd
       0.059356283 -0.11846798 0.30878294 -0.04489107
000070 95 55 ca 3d 4b 04 20 3e 88 79 eb 3c e8 bc 45 3e
       0.09879605 0.15626638 0.028744474 0.19310343
000080 e5 d1 cb 3d 55 6a ec 3d 5f 1f c6 bb 50 b5 a5 bd
       0.099521436 0.11543719 -0.00604622 -0.08091223
000090 03 22 92 bc 1b f9 88 3d 93 97 37 bc 5a ae 81 bd
       -0.017838484 0.06688138 -0.011205572 -0.06332083
0000a0 0a 3e 31 bc ac 47 06 3d b8 b1 84 3d 91 b7 9d 3d
       -0.010818014 0.032783195 0.0647921 0.07701028
0000b0 0e ef a0 3d e5 78 a3 3d 84 0e 2d 3e 8f 6d 98 3d
       0.07858096 0.07982043 0.16900069 0.07442772
0000c0 d3 79 65 3e 8a 0c 35 3e b3 96 5d 3e 22 08 57 3d
       0.22409754 0.17680565 0.21639518 0.05249799
0000d0 3c ff 44 3d f5 43 02 bd 03 ed 78 3b 80 ac 56 bd
       0.048094973 -0.03180309 0.0037983067 -0.052410603
0000e0 ca 8e e1 3d 27 00 90 bd b2 01 4f 3e 0d b8 ed 3d
       0.11013563 -0.07031279 0.2021549 0.116073705
0000f0 bf e9 af 3d 3d 8b c0 3d 5d be b9 bd b6 8d 19 3e
       0.085895054 0.094015576 -0.09069512 0.14995465
000100 78 30 8d 3d b6 e7 b0 3d 1b 8b 88 3d ce 16 2d 3c
       0.0689401 0.08637945 0.06667157 0.010564519
000110 18 ec 87 bc 55 f9 9b bc 42 52 8b bc 12 43 d1 bc
       -0.01659207 -0.01903979 -0.017006997 -0.025544677
000120 ed 49 94 3d c6 91 32 3e a1 65 95 bd 8b 51 17 3e
       0.07240663 0.1743842 -0.07294775 0.147772
000130 6d 42 8a bd 31 c2 99 3d 87 d0 94 3e a8 9e 71 3c
       -0.06750951 0.07507742 0.29065344 0.014747299
000140 53 a4 9d 3e 32 ec 83 3e c8 38 c2 3e e1 46 a8 3d
       0.30789432 0.2576614 0.37933946 0.08216644
000150 eb 33 18 3d 8f 7b 49 3e 2a 45 77 3d f1 b5 1f bc
       0.037158888 0.1967604 0.060368694 -0.009747968
000160 e0 70 6a 3e 77 b1 ac bd 8f 67 1e 3e 0b e2 6a bc
       0.22894621 -0.08432286 0.15469192 -0.014336119
000170 7b 29 3a 3e 1f 01 c4 3d 53 02 ae bc af 31 a9 3e
       0.18179886 0.09570526 -0.021241343 0.33045718
000180 1d f9 8d bd 78 92 08 3e 4f 16 12 3d 8d 98 e4 bd
       -0.0693228 0.13337123 0.035665806 -0.11161909
000190 65 ae b4 bd df 9d a7 3c ef 4d fc bc fc 1e 0e be
       -0.088223256 0.020461021 -0.03079888 -0.13879007
0001a0 d7 8b a5 3d f4 17 c5 3d dd 35 f0 3d 26 50 10 3e
       0.08083313 0.09623709 0.117290236 0.14093074
0001b0 eb c9 97 3d 90 e8 6b 3e b9 91 9a 3e 03 18 43 3d
       0.0741156 0.23037934 0.30189303 0.04763032
0001c0 51 44 1b 3d ec f2 3b 3e 71 7e a4 3e 4d 92 6c 3e
       0.03790695 0.18354386 0.32127717 0.23102684
0001d0 c5 8f 16 be 53 1e 1d 3e bf 1a 91 3d c5 29 3f be
       -0.14703281 0.15343599 0.070851795 -0.18668278
0001e0 60 4a fb 3d ae 34 05 3d 4c 1b b1 3d 7b 65 cb 3a
       0.12270045 0.032520942 0.086477846 0.0015517914
0001f0 5a 11 4f 3e fb 69 ae 3d 87 3b 09 be 35 e2 1f 3e
       0.20221463 0.08516308 -0.13401614 0.15613635
000200 23 59 e1 bd f1 fb 0a be aa 1f 4d bc 37 16 07 3d
       -0.110033296 -0.1357267 -0.012519756 0.03298017
000210 6a 74 b4 3d d3 7a 24 3e 53 50 74 3e 9b fe 1e 3e
       0.08811267 0.16062479 0.23858766 0.15526812
000220 32 72 cc bb 08 7b 23 be 7f ef 77 3d f2 de 05 be
       -0.006239199 -0.15964901 0.060531136 -0.13073328
000230 17 c1 26 bd bf 05 0f be 57 9b 3e be f4 c3 2f be
       -0.04071149 -0.13967036 -0.18613945 -0.17164594
000240 9b b8 7c be 43 53 30 be c1 4d 0f be 26 b9 15 bd
       -0.24679796 -0.17219262 -0.13994505 -0.036553524
000250 7f 18 c5 3d 69 1d a5 bd 5e ed 40 be 6d 0e 04 3e
       0.09623813 -0.0806225 -0.18840548 0.12896128
000260 12 57 7f bc 41 37 07 3e 37 45 77 be 7e dd 0e 3d
       -0.015584724 0.13204671 -0.24147497 0.0348792
000270 b2 b4 66 bd 6f a9 0a 3c fb e6 3d 3d 6f d5 52 bd
       -0.05632467 0.008463248 0.04636286 -0.051473077
000280 9b 0e 1c 3d d0 21 f7 3c 47 1c 29 be c3 35 98 bd
       0.038099866 0.03016749 -0.16514693 -0.07432129
000290 06 69 31 be ce f4 1b be d7 10 26 bd 97 21 e7 3c
       -0.1732522 -0.15230104 -0.040543403 0.02821426
0002a0 d3 ae 22 bd 6b e8 3c 3e 18 83 0d 3d 29 7e 8c 3d
       -0.039717507 0.18448035 0.03454885 0.06860001
0002b0 7a 87 32 bb e0 97 32 3e a7 ff 8a 3e 07 62 91 3e
       -0.0027241395 0.17440748 0.27148172 0.283951
0002c0 ff 72 9a 3e 78 1e 58 3e 68 ef a7 3e d5 73 8a 3d
       0.3016586 0.21105373 0.3279984 0.067603745
0002d0 94 f1 c3 bd 37 1c 07 3e 1f 3f 02 3e bf 00 2b be
       -0.09567562 0.13194357 0.12719391 -0.16699503
0002e0 12 80 78 3c 53 0c 3b 3e af e2 50 3e 37 82 56 bd
       0.015167253 0.1826642 0.20398973 -0.052370276
0002f0 73 33 94 3d 42 a6 1a 3e bc bc 8b be 42 b4 61 3e
       0.07236376 0.15102485 -0.2729243 0.22041419
000300 8c 9d 99 bd 8d f3 54 3d 7d 16 b9 bc 17 88 64 bd
       -0.07500753 0.05199008 -0.022593731 -0.055793848
000310 47 9e 0e be 9f 26 c2 bd ff 41 93 bd ff 49 a5 3c
       -0.13927566 -0.09480023 -0.07190322 0.020176886
000320 d8 3c e7 3d 5d d3 c6 3d 46 fc 19 bd 88 3b cf 3d
       0.11290902 0.09708283 -0.037594102 0.101187766
000330 f0 cd fe 3d 2a d9 e6 3d 1b 80 d5 3d 7f 3f da 3d
       0.12441623 0.112718895 0.10424825 0.10656642
000340 d5 46 6f 3e a2 7a dc 3d 82 72 aa 3d 4b 45 23 3d
       0.23366864 0.10765578 0.08322622 0.039861005
000350 7b b1 95 3d c5 67 78 3c c2 31 01 3e 72 20 64 bd
       0.07309242 0.015161459 0.12616637 -0.055695005
000360 3b 56 a4 bb a6 8d 2d 3e 25 8b 38 3e 67 b2 30 bd
       -0.0050151623 0.16948566 0.1802183 -0.043138888
000370 70 9d dc 3d ff 63 4a 3d 4f 8f 41 be 10 4b 0b 3e
       0.10772216 0.04941177 -0.18902324 0.13602853
000380 17 b6 fb 3d 98 16 a0 bc 79 46 81 bd 17 48 00 bd
       0.1229059 -0.019542024 -0.0631227 -0.03131875
000390 ba f1 8d bd eb bb 7d 3c 2f e0 e6 3d 6e 22 c1 3c
       -0.06930871 0.015486698 0.112732284 0.023575988
0003a0 42 7b e1 3d ba e5 5a 3d c1 6c c4 3c 7e b3 95 3c
       0.11009838 0.05344174 0.02397764 0.018274065
0003b0 7a 1a 53 bd e1 65 49 3e 5d a1 9c 3d fb 2b 3c 3b
       -0.051538922 0.1966777 0.07647965 0.0028712738
0003c0 b8 0a af 3d 6b 47 a0 3d 65 ca 78 3d 47 da 01 3e
       0.08546966 0.07826122 0.060739893 0.12680922
0003d0 92 44 f6 3d db a6 d1 3c bb 99 8f 3d 3f e6 9f bc
       0.120247975 0.025592258 0.07011744 -0.01951897
0003e0 0a c6 10 3d 3d 6d 29 bd be 1c 27 3e 4b 65 80 bc
       0.035345115 -0.041363943 0.16319558 -0.0156733
0003f0 cc dd c3 3d c0 74 0a 3e a7 ee f9 3c 85 61 ca ba
       0.09563789 0.13521099 0.030509306 -0.001544044

blocks.0.fcn_layer.bias f4 [32]
000000 00 be c8 bd bf 7f c2 bd ed 20 93 3d 7f 41 d9 3b
       -0.098018646 -0.09497022 0.071840145 0.006630122
000010 d2 8a c0 3d 7b 40 47 3e bb 8f 08 be 93 72 b4 bd
       0.09401478 0.19458191 -0.13336079 -0.08810916
000020 d7 31 6b 3d d0 09 68 bc 43 98 e9 3c 9e ce 07 3e
       0.057420578 -0.014162496 0.028514987 0.13262412
000030 a7 bc 01 3e 73 c0 ce 3d 4b d2 7f bd a2 ef 65 3a
       0.12669621 0.100953005 -0.06245641 0.0008771365
000040 f3 25 2d 3e 0c 9b bb bd 9a 93 d1 bd af 90 e1 bd
       0.16909008 -0.09160432 -0.10233231 -0.11013924
000050 ae 3e 94 3d 8d c8 0a 3e 01 a2 1f 3d f9 26 c4 3d
       0.07238518 0.13553067 0.03897286 0.09577746
000060 e5 92 c9 bd 67 52 b8 3d 4b c3 5f bc 66 cf 26 bb
       -0.09842471 0.09000092 -0.013657401 -0.002545321
000070 50 65 52 bd c2 e4 9f bd 32 53 c8 3d 97 32 03 3e
       -0.05136615 -0.07807304 0.09781493 0.12812267

blocks.0.layer_norm.weight f4 [32]
000000 74 c1 b3 3f 11 ab 9b 3f ad b3 b1 3f 2d 87 af 3f
       1.4043412 1.216158 1.3882958 1.3713127
000010 5d d6 a9 3f 94 85 b3 3f e2 63 a9 3f 44 ad 9a 3f
       1.3268543 1.402514 1.3233607 1.2084126
000020 54 98 ba 3f a4 40 b0 3f 9f 52 a2 3f b3 0c a3 3f
       1.4577737 1.3769727 1.2681464 1.273825
000030 84 c1 84 3f bb fa ae 3f 03 92 8c 3f 81 1a b6 3f
       1.0371556 1.3670267 1.0982059 1.4226838
000040 c3 6d b8 3f 0f 12 b0 3f 3b db 95 3f cd 8e a4 3f
       1.4408497 1.3755511 1.1707529 1.2856079
000050 76 10 bb 3f 40 f5 b3 3f c9 9b ae 3f 85 ae af 3f
       1.4614398 1.4059219 1.3641292 1.3725134
000060 fa 51 b4 3f fb 7c ac 3f ab 68 aa 3f 42 90 a8 3f
       1.4087517 1.3475641 1.3313192 1.3169024
000070 da 65 ae 3f 0f 5d 83 3f 23 ab ae 3f 80 7a a6 3f
       1.3624833 1.0262774 1.3645977 1.3006134

blocks.0.layer_norm.bias f4 [32]
000000 55 87 51 3e 67 c2 d8 3d 90 d7 92 3e 2b 4d 63 3e
       0.20461781 0.10583954 0.28680086 0.22197406
000010 22 52 6e 3e ae e9 a0 3e be c5 20 3e 47 a9 18 3e
       0.23273519 0.31428283 0.15700433 0.14908324
000020 8e 81 90 3e c8 a8 55 3e 2a 10 08 3e e7 65 63 3e
       0.28223842 0.20865166 0.13287416 0.22206841
000030 2c 37 a0 3c 3a 4e 7e 3e df 39 ed 3d 05 9c 70 3e
       0.019557558 0.24834529 0.11583304 0.23497017
000040 4d fb a3 3e c5 86 48 3e 97 7a 85 3d 23 ac cf 3d
       0.32027665 0.1958266 0.06517523 0.10140254
000050 6b 55 81 3e eb 47 6c 3e aa b8 9c 3e 23 43 8b 3e
       0.2526048 0.2307431 0.30609637 0.2719966
000060 07 90 9a 3e 3e db 85 3e 15 af 15 3e 38 ee 3c 3e
       0.3018801 0.2614383 0.1461757 0.18450248
000070 72 24 58 3e e0 05 a9 bc 6b ad 73 3e 6b 46 63 3e
       0.21107653 -0.020632684 0.23796622 0.22194831

last_layer.weight f4 [1, 32]
000000 bb 29 c4 3e 18 c8 8c 3e 9d 70 e5 3e c5 83 d3 3e
       0.38313088 0.2749641 0.4481248 0.4131147
000010 4b 66 ee be 30 10 ea 3e c3 dd 92 3e 4b ef 33 3e
       -0.46562418 0.45715475 0.28684816 0.17571752
000020 5f 95 f7 3e 4b e0 ad 3e 9b 4a b4 3e 6b 11 b9 be
       0.4835615 0.33960184 0.3521317 -0.361461
000030 4b c1 fd 3d 6b fb f3 be 8a e1 0f 3e 10 58 04 3f
       0.12390383 -0.47652754 0.1405088 0.5169687
000040 27 9e 09 3f c5 b9 fb 3e 52 34 6c 3e f7 84 b2 3e
       0.53756946 0.49165168 0.23066834 0.3486707
000050 ff 5c 18 bf 67 85 00 bf 98 bd ed 3e 9f 4a eb be
       -0.595169 -0.50203556 0.4643371 -0.4595537
000060 29 b5 c5 3e d8 31 da 3e d6 34 9d 3e d0 c3 a6 3e
       0.38614777 0.42616153 0.30704373 0.32571268
000070 b0 8e f1 be ef 1e 03 3e 77 53 fe be 83 1e c9 be
       -0.47179174 0.12804769 -0.49673054 -0.3928109
