wakeword_models/hey_nexus/hey_nexus (2)_TINY.onnx (onnx, 205430 bytes, 9 tensors)

layer1.weight f4 [32, 1536]
-0.011495724 0.013035144 0.0075915866 0.020246183 0.003875696 -0.0012522669 -0.013931389 0.0050887484
0.011227266 0.00432784 0.015307402 -0.009887285 -0.019592144 -0.035092477 0.0101118805 -0.006860388
-0.0061669843 -0.008035058 0.013858222 -0.021170314 0.02210139 0.013177689 0.0068191774 -0.0040323753
-0.009875529 -0.006274079 -0.0022837983 -0.021110391 0.023252875 0.026604066 0.0067320345 -0.0028801213
0.0036511885 -0.0055693444 0.007897013 -0.003163838 0.005994348 -0.02468193 -0.018224465 -0.0031399005
-0.040743213 0.0027925016 0.027206162 0.0031642138 -0.02077928 0.01106213 -0.027393155 0.007608029
-0.008503525 -0.004765206 0.022829955 -0.0166997 0.00208466 0.015466894 -0.01931836 -0.0115624415
-0.010082421 -0.0011342821 -0.0018917948 0.004939371 -0.009221391 -0.031015217 -0.0058451057 0.01690697
0.001215182 -0.01699049 0.0048918705 -0.0149893705 0.01691849 -0.01990431 -0.009414708 -0.008526339
-0.018184926 0.012950824 0.015663128 -0.004113602 -0.0006866708 0.017108869 0.0036872244 0.0054975552
0.0056946212 -0.020497069 -0.0032192396 -0.014490514 -0.011005599 0.020354921 -0.00624951 -0.009988445
-0.013787157 -0.014995094 0.0071581895 0.010113005 -0.01351961 0.011869956 -0.005613451 -0.006786785
0.018650083 -7.5834294e-05 -0.0068386556 -0.037131317 -0.010836126 0.016615259 0.018082716 0.010361594
0.0032410969 -0.009064253 -0.024664784 -0.019762574 -0.0031385054 -0.0031516794 0.010674668 -0.029080512
-0.013308813 -0.0014767782 -0.0017903643 -0.018099647 0.026517946 -0.014246659 0.010626514 -0.019075809
0.0045173606 -0.009571802 -0.002523116 0.00030441512 -0.0034419873 -0.006306681 0.016819116 -0.009931088
0.013975767 -0.025330195 -0.020144183 0.014749786 6.620202e-05 5.844097e-05 -0.034178436 0.021326419
0.0006728247 0.00961046 0.008312454 -0.009493937 -0.017810844 -0.0011762165 -0.004117342 -0.010300935
0.0029117777 0.006783819 -0.01679776 0.017699063 -0.0056754355 -0.0070627555 0.021658923 0.0022232458
0.0041066115 -0.017445099 0.004566275 0.012472738 0.01663539 -0.02333357 -0.0003436943 0.0017908268
0.0030159713 0.01684673 0.012833707 -0.005350247 -0.0046981648 -0.0035314145 0.02201701 -0.01164725
0.022816295 -0.013368687 -0.024251506 0.012033866 -0.021410953 -0.012422462 0.01441679 -0.003318173
-0.0022183682 0.0038327272 -0.012685817 -0.006906865 -0.02322048 0.011792291 -0.0030002173 0.016382456
-0.00064852677 -0.005056757 0.012690021 0.021844521 -0.0060474784 0.0058358475 -0.0048119486 -0.0053962334
-0.016002428 0.0071491417 0.01893174 -0.019444842 0.009159659 0.025077825 0.0028698833 -0.0069811717
-0.013231161 -0.020260118 0.017856112 0.012576361 -0.0019741666 -0.015446726 0.030321466 0.0069385665
-0.025247077 0.003286282 -0.009651605 0.01898633 0.00445789 -0.0025332575 -0.024301954 -0.011593664
0.0047040735 0.005783824 0.013785252 -0.007024985 0.0069620498 -0.009728041 -0.0040018777 0.019635497
-0.006025348 -0.0034630846 -0.006472196 -0.011090389 -0.0010689803 0.007820106 -0.015854068 0.010274447
-0.012171542 -0.014792031 -0.003326164 -0.027505942 -0.0076213055 0.005189521 0.0017630999 -0.0039697387
-0.005735489 0.0117564155 0.016215123 0.0104733845 -0.00288585 0.009279779 -0.016630724 -0.015361363
-0.011768003 -0.004736668 0.015897414 -0.015372401 0.010581402 0.01729782 0.02816151 -0.0076108994
00000000: 9058 3cbc 5b91 553c d8c2 f83b 53db a53c
00000010: 64ff 7d3b 1b23 a4ba 7b40 64bc 84bf a63b
00000020: 91f2 373c 8ed0 8d3b e6cb 7a3c 47fe 21bc
00000030: b47f a0bc 21bd 0fbd 4dac 253c 1bcd e0bb
00000040: 6a14 cabb 7aa5 03bc 990d 633c 5e6d adbc
00000050: f90d b53c 3ce7 573c 6873 df3b 0422 84bb
00000060: f9cc 21bc ca96 cdbb c7ab 15bb b3ef acbc
00000070: d07c be3c c5f0 d93c 6698 dc3b 6bc0 3cbb
00000080: c748 6f3b 0c7f b6bb 7962 013c 6558 4fbb
00000090: 3c6c c43b c231 cabc 794b 95bc cac6 4dbb
000000a0: 5be2 26bd 6702 373b 75df de3c b35e 4f3b
000000b0: 4f39 aabc f03d 353c 9c67 e0bc c64c f93b
000000c0: 5e52 0bbc 7225 9cbb e305 bb3c cfcd 88bc
000000d0: cb9e 083b db68 7d3c 8a41 9ebc 6570 3dbc
000000e0: bd30 25bc 31ac 94ba 1af6 f7ba 72da a13b
000000f0: 5115 17bc a013 febc 4d88 bfbb 7c80 8a3c
00000100: be46 9f3a a42f 8bbc fc4b a03b fa95 75bc
00000110: a598 8a3c 5d0e a3bc 2640 1abc 0fb2 0bbc
00000120: 8ef8 94bc b12f 543c f64f 803c 65cb 86bb
00000130: b301 34ba e627 8c3c 5ca5 713b d624 b43b
00000140: f299 ba3b 78e9 a7bc e1f9 52bb 9f69 6dbc
00000150: d450 34bc 5dbf a63c b1c8 ccbb 93a6 23bc
00000160: 87e3 61bc fcad 75bc 3f8f ea3b 04b1 253c
00000170: 5b81 5dbc 347a 423c 0af1 b7bb ae63 debb
00000180: 0fc8 983c 3a09 9fb8 cd16 e0bb 0217 18bd
00000190: 028a 31bc b91c 883c 3422 943c adc3 293c
000001a0: 9568 543b 3c82 14bc cd0d cabc 1fe5 a1bc
000001b0: 62af 4dbb 688c 4ebb cde4 2e3c 413a eebc
000001c0: 350d 5abc 7490 c1ba a8aa eaba b645 94bc
000001d0: 2a3c d93c d26a 69bc d51a 2e3c df44 9cbc
000001e0: 5e06 943b 0cd3 1cbc dd5a 25bb e899 9f39
000001f0: f792 61bb 46a8 cebb 3ec8 893c 01b6 22bc
00000200: 9efa 643c 4581 cfbc 6a05 a5bc 16a9 713c
00000210: f0d5 8a38 841e 7538 b0fe 0bbd beb4 ae3c
00000220: 8060 303a 3175 1d3c f630 083c 758c 1bbc
00000230: 0ce8 91bc 472b 9aba c5ea 86bb 41c5 28bc
00000240: 86d3 3e3b cc4a de3b 759b 89bc a0fd 903c
00000250: 01f9 b9bb b06e e7bb 0e6e b13c e0b3 113b
00000260: c190 863b 06e9 8ebc b1a0 953b 745a 4c3c
00000270: f146 883c 0b26 bfbc de31 b4b9 2dba ea3a
00000280: 9aa7 453b 2702 8a3c 7844 523c 2051 afbb
00000290: 10f3 99bb 4e6f 67bb 045d b43c 1bd4 3ebc
000002a0: 3de9 ba3c 5608 5bbc 18ab c6bc b129 453c
000002b0: 0666 afbc 9587 4bbc 6634 6c3c b575 59bb
000002c0: 0b62 11bb 7e2e 7b3b 2cd8 4fbc fc52 e2bb
000002d0: e038 bebc 7434 413c 4b9f 44bb 8034 863c
000002e0: e501 2aba 27b3 a5bb cee9 4f3c 48f3 b23c
000002f0: ed29 c6bb a33a bf3b 8dad 9dbb e3d2 b0bb
00000300: 8617 83bc 5943 ea3b bd16 9b3c ca4a 9fbc
00000310: 6512 163c 0370 cd3c a714 3c3b 50c2 e4bb
00000320: 83c7 58bc 8cf8 a5bc fb46 923c 150d 4e3c
00000330: 0561 01bb 4414 7dbc b964 f83c ea5c e33b
00000340: f5d2 cebc aa5e 573b c421 1ebc 3889 9b3c
00000350: 7e13 923b 0205 26bb e414 c7bc 5af3 3dbc
00000360: a124 9a3b 3b86 bd3b 8adb 613c d831 e6bb
00000370: e821 e43b 5c62 1fbc 2f22 83bb 9fda a03c
00000380: 4870 c5bb ebf4 62bb b714 d4bb 77b4 35bc
00000390: 071d 8cba e71f 003c 64e0 81bc 2756 283c
000003a0: 266b 47bc 465a 72bc c6fb 59bb 2454 e1bc
000003b0: 25bc f9bb db0c aa3b d117 e73a 9514 82bb
000003c0: c5f0 bbbb fb9d 403c 94d5 843c 8f98 2b3c
000003d0: 8720 3dbb 370a 183c 283d 88bc 3aae 7bbc
000003e0: 95ce 40bc 0d36 9bbb 4b3b 823c 86dc 7bbc
000003f0: 9e5d 2d3c 28b4 8d3c f8b2 e63c da64 f9bb

layer1.bias f4 [32]
-0.011662268 -0.004735835 -0.0033899483 -0.0129905995 0.008462092 -0.013727874 0.014863612 -0.017420016
0.004878389 0.0029191787 0.019806234 -0.012878747 0.0061735655 0.0042917286 -0.025295785 0.004760325
0.009965344 0.01652978 0.00672667 0.00030367885 -0.015091275 0.020376964 -0.015657632 -0.029153896
-0.0025256493 -0.018825812 -0.01090779 0.010321317 -0.022991955 0.027837899 0.016780583 -0.024310498
00000000: 1913 3fbc 102f 9bbb e529 5ebb 86d6 54bc
00000010: 96a4 0a3c e0ea 60bc 8286 733c 6cb4 8ebc
00000020: e5da 9f3b b14f 3f3b af40 a23c 6101 53bc
00000030: 9f4b ca3b a1a1 8c3b 1b39 cfbc 80fc 9b3b
00000040: af45 233c 7669 873c 666b dc3b 1637 9f39
00000050: 6541 77bc 97ed a63c 6f44 80bc 27d4 eebc
00000060: 5d85 25bb 9738 9abc 96b6 32bc be1a 293c
00000070: a059 bcbc 4e0c e43c 6f77 893c cf26 c7bc

layernorm1.weight f4 [32]
0.97927016 1.000226 0.99577045 1.0029746 1.0033627 0.99693245 1.0220101 1.0003154
0.99688244 1.0066737 0.9970518 0.99747056 1.0107256 1.0062932 0.9968494 1.0113539
1.0066589 1.0014766 1.000937 0.99720436 1.0035301 0.97949386 1.0022911 0.99673915
1.0179548 0.9710735 1.0116931 1.0040853 0.99675643 1.0079008 0.992138 0.9976084
00000000: 73b1 7a3f 6807 803f d0ea 7e3f 7961 803f
00000010: 306e 803f f736 7f3f 3ad1 823f 560a 803f
00000020: b033 7f3f afda 803f c93e 7f3f 3b5a 7f3f
00000030: 755f 813f 37ce 803f 8631 7f3f 0b74 813f
00000040: 33da 803f 6330 803f b41e 803f c948 7f3f
00000050: ad73 803f 1cc0 7a3f 134b 803f 4c2a 7f3f
00000060: 584c 823f 4698 783f 297f 813f de85 803f
00000070: 6e2b 7f3f e502 813f c2fc 7d3f 4463 7f3f

layernorm1.bias f4 [32]
0.005434329 0.018088983 -0.007064024 0.010875308 0.021086575 0.01667583 0.019584373 0.025541829
-0.0151474085 0.009903221 -0.016924761 -0.0154674025 0.007543628 0.030217944 -0.015771281 0.009736777
0.0024158508 0.022726662 -0.00069642736 -0.017798305 0.018898651 0.014250825 0.006849203 0.018207652
0.013891502 0.024355907 -0.0133702215 0.0061764293 -0.0041983756 0.02265343 -0.010418495 -0.013561314
00000000: 7512 b23b 592f 943c 5479 e7bb 592e 323c
00000010: c1bd ac3c c09b 883c 686f a03c 193d d13c
00000020: d62c 78bc 1f41 223c cca5 8abc fd6a 7dbc
00000030: 8a30 f73b 9f8b f73c c632 81bc 0187 1f3c
00000040: 4053 1e3b 442d ba3c 7390 36ba c0cd 91bc
00000050: 58d1 9a3c 4b7c 693c 476f e03b 3728 953c
00000060: 2f99 633c 0a86 c73c c60e 5bbc a563 ca3b
00000070: 8792 89bb b093 b93c 56b2 2abc 4630 5ebc

blocks.0.fcn_layer.weight f4 [32, 32]
-0.031173188 -0.017185451 -0.031519033 0.10124513 -0.060809795 -0.08906104 0.09268788 0.04608046
0.13336489 0.030021321 0.12867838 -0.09654637 -0.046732135 0.110543355 0.17209181 -0.032420155
0.16046497 -0.08055426 0.07123308 -0.1538457 0.12846279 -0.13622507 0.10348129 -0.06093693
-0.108617924 -0.008853866 0.036868 0.14054239 0.13555604 0.01828042 -0.040165063 -0.016232636
-0.1646343 0.15113649 0.15024903 -0.058864955 -0.10262287 0.13887131 0.038710803 0.1607541
0.106114194 -0.13376668 -0.16509631 0.1081257 -0.1540879 -0.04660192 0.139451 -0.08443257
-0.077483155 0.024604214 0.1567441 0.043505605 -0.06442531 0.15609623 -0.02598591 -0.07764371
-0.032348532 -0.173892 0.17096525 0.16095458 0.11015765 0.007245625 -0.032684475 0.022915881
0.0978327 0.10669909 -0.16549458 0.15563932 0.15400882 -0.0016636008 0.16985 0.065872595
-0.049581088 0.10839257 -0.045608845 -0.069241956 0.008858355 -0.027108323 -0.1448636 -0.17729819
0.05777764 -0.1325735 -0.06361771 -0.062212314 0.14231911 -0.11292072 0.06744123 -0.07972835
0.16443819 0.03213592 0.0037185804 -0.1447351 0.08939788 -0.05538862 0.018273242 0.04139568
-0.056501586 -0.018177524 -0.040493924 -0.15329355 0.15057996 -0.021091066 0.09562854 -0.090747826
-0.1527375 0.12049407 -0.13574503 -0.1359785 -0.1036361 -0.10636691 0.038814835 -0.040781382
0.1451373 0.1016636 0.19266431 -0.003052306 0.03819326 -0.12021345 0.051015925 0.098352425
-0.0184044 -0.13429248 -0.039969403 0.05412672 0.07754579 0.028905945 0.045936223 -0.1124085
-0.06987786 0.07735198 0.088616244 -0.015262073 0.015738355 -0.021418763 -0.041615028 0.03252236
0.05916946 0.09227714 0.0026959528 0.13366233 0.059323713 -0.0026702841 -0.061085373 -0.07562518
-0.17977238 -0.037561454 0.1276713 -0.104065776 -0.1908547 -0.14440757 -0.08732384 0.041477766
-0.17522056 0.07152248 -0.0044979 0.049657345 -0.17073402 0.041447885 -0.028235812 -0.090628386
-0.030925198 -0.108216286 -0.08739921 0.004557472 -0.15115656 0.110527135 0.08780415 -0.14347504
0.1036413 -0.09748611 0.03341387 0.07162808 -0.031142622 0.18542498 -0.09165987 -0.11265575
0.14267613 -0.008645595 -0.071060665 -0.09893754 -0.0448873 -0.0860128 0.1196145 0.19567905
-0.05288699 -0.10033617 0.19861715 0.15219761 -0.011980049 -0.0233054 0.011799255 0.053228848
0.096955135 -0.062977344 -0.15512833 -0.02694366 -0.053482544 0.10325402 -0.0054489262 0.13946795
0.056032162 -0.11423381 -0.16890337 0.102528945 -0.13378093 -0.03966119 -0.1425384 0.076762736
0.035624433 0.16759495 -0.017279424 0.08986473 0.029754924 0.16015631 -0.116394326 0.04370068
-0.10004218 0.054998107 -0.12577602 -0.10350544 -0.099273466 -0.008577799 0.10612711 -0.043815672
-0.029391626 -0.03684378 -0.16756877 0.13184461 -0.17713012 -0.0031040164 -0.13938165 -0.115922496
-0.09441273 0.10635479 0.028534105 0.0432578 -0.0775453 0.13306934 -0.1494706 -0.119165145
0.01680907 0.11158842 0.091652855 -0.15203254 -0.05666031 -0.015562944 -0.095882304 0.11681593
-0.037867222 -0.012473469 0.20809107 0.17926107 0.087169245 -0.027869225 3.4479744e-05 -0.080639556
00000000: ea5e ffbc 81c8 8cbc 1a1a 01bd 9b59 cf3d
00000010: b113 79bd a265 b6bd 25d3 bd3d ddbe 3c3d
00000020: ce90 083e 46ef f53c 44c4 033e 1aba c5bd
00000030: 326a 3fbd 8e64 e23d d638 303e ffca 04bd
00000040: ee50 243e a2f9 a4bd a6e2 913d ba89 1dbe
00000050: c08b 033e 967e 0bbe 00ee d33d 0199 79bd
00000060: 1373 debd ce0f 11bc e602 173d 58ea 0f3e
00000070: 34cf 0a3e d2c0 953c 1f84 24bd 4efa 84bc
00000080: e595 28be 86c3 1a3e e2da 193e 611c 71bd
00000090: f02b d2bd 4834 0e3e 388f 1e3d b99c 243e
000000a0: 6652 d93d 22fa 08be 020f 29be 0271 dd3d
000000b0: 38c9 1dbe a8e1 3ebd 3ecc 0e3e fcea acbd
000000c0: 7daf 9ebd c78e c93c 8681 203e ef32 323d
000000d0: 6bf1 83bd b1d7 1f3e 67e0 d4bc aa03 9fbd
000000e0: e57f 04bd bf10 32be 8411 2f3e 47d1 243e
000000f0: 569a e13d b56c ed3b 28e0 05bd 16ba bb3c
00000100: 835c c83d 0d85 da3d 6977 29be ea5f 1f3e
00000110: 7db4 1d3e 2e0d daba 29ed 2d3e 36e8 863d
00000120: 8a15 4bbd ecfc dd3d 57d0 3abd bace 8dbd
00000130: a222 113c 4612 debc 2057 14be a88d 35be
00000140: 3fa8 6c3d 59c1 07be 004a 82bd 57d2 7ebd
00000150: 1abc 113e fa42 e7bd a11e 8a3d 9e48 a3bd
00000160: 7c62 283e f4a0 033d 6db3 733b 7035 14be
00000170: 3c16 b73d 2ddf 62bd c4b1 953c 848e 293d
00000180: 356e 67bd 08e9 94bc f5dc 25bd fcf8 1cbe
00000190: a231 1a3e 2cc7 acbc e5d8 c33d ffd9 b9bd
000001a0: 3867 1cbe 98c5 f63d bf00 0bbe f33d 0bbe
000001b0: 2a3f d4bd e5d6 d9bd 4efc 1e3d 610a 27bd
000001c0: df9e 143e 0135 d03d cb49 453e 3209 48bb
000001d0: 8970 1c3d 7832 f6bd 13f6 503d ff6c c93d
000001e0: d3c4 96bc f883 09be f5b6 23bd fbb3 5d3d
000001f0: 54d0 9e3d 29cc ec3c 9f27 3c3d 6d36 e6bd
00000200: 201c 8fbd b76a 9e3d 6f7c b53d c60d 7abc
00000210: b9ed 803c 6776 afbc 8574 2abd 2b36 053d
00000220: ad5b 723d ccfb bc3d 95ae 303b c7de 083e
00000230: 6cfd 723d efff 2ebb a834 7abd 60e1 9abd
00000240: 4016 38be 0ada 19bd 44bc 023e 7020 d5bd
00000250: 6a6f 43be 94df 13be d7d6 b2bd 97e4 293d
00000260: 056d 33be 617a 923d 1f63 93bb 8065 4b3d
00000270: e6d4 2ebe 42c5 293d ca4e e7bc 609b b9bd
00000280: d756 fdbc 80a0 ddbd 5bfe b2bd d956 953b
00000290: c9c8 1abe 0d5c e23d aad2 b33d 1feb 12be
000002a0: e441 d43d cca6 c7bd fbdc 083d beb1 923d
000002b0: d01e ffbc 0ce0 3d3e 2cb8 bbbd 0fb8 e6bd
000002c0: b119 123e 41a6 0dbc 4188 91bd c49f cabd
000002d0: bfdb 37bd 7b27 b0bd 72f8 f43d 1760 483e
000002e0: 07a0 58bd 0d7d cdbd 4b62 4b3e b1d9 1b3e
000002f0: f847 44bc f7ea bebc aa51 413c 7e06 5a3d
00000300: 6a90 c63d 44fa 80bd f6d9 1ebe f3b8 dcbc
00000310: 8310 5bbd d876 d33d e88c b2bb b0d0 0e3e
00000320: fb81 653d 6af3 e9bd 01f5 2cbe b2fa d13d
00000330: defd 08be c673 22bd 96f5 11be c835 9d3d
00000340: edea 113d 039e 2b3e 948d 8dbc 000b b83d
00000350: 99c0 f33c 0400 243e 2660 eebd 7cff 323d
00000360: eae2 ccbd b245 613d 6ecb 00be a9fa d3bd
00000370: e34f cbbd e689 0cbc 2c59 d93d 1078 33bd
00000380: b5c6 f0bc 81e9 16bd 2697 2bbe 4602 073e
00000390: 9961 35be c16c 4bbb 10ba 0ebe c668 edbd
000003a0: 765b c1bd 8ad0 d93d 5bc0 e93c 172f 313d
000003b0: 12d0 9ebd 5443 083e d20e 19be db0c f4bd
000003c0: 2db3 893c 7888 e43d 7eb4 bb3d 6bae 1bbe
000003d0: a414 68bd b8fb 7ebc f15d c4bd 313d ef3d
000003e0: a91a 1bbd 855d 4cbc d315 553e 3790 373e
000003f0: ca85 b23d 004e e4bc 589e 1038 5a26 a5bd

blocks.0.fcn_layer.bias f4 [32]
-0.090506464 -0.054976575 -0.016202629 -0.08053349 0.06552138 -0.048373282 -0.08744547 -0.0843608
-0.08469814 0.028693894 0.06120383 -0.03954556 -0.09780507 -0.05332368 0.04069689 0.05502257
-0.03940812 0.07480414 0.1438446 0.008916058 0.055971444 -0.07641679 0.030854495 0.17304082
-0.07020389 0.14405008 0.02726906 0.11702995 0.06574219 -0.03695272 -0.050301522 -0.0305225
00000000: 745b b9bd 1e2f 61bd 60bb 84bc beee a4bd
00000010: 1330 863d 1023 46bd 9c16 b3bd 5bc5 acbd
00000020: 3876 adbd 750f eb3c deb0 7a3d 86fa 21bd
00000030: 064e c8bd ee69 5abd c8b1 263d 595f 613d
00000040: 696a 21bd ea32 993d 004c 133e a814 123c
00000050: 5042 653d 6880 9cbd 91c2 fc3c 9d31 313e
00000060: 0fc7 8fbd dd81 133e 5d63 df3c 66ad ef3d
00000070: d7a3 863d bc5b 17bd f808 4ebd 520a fabc

blocks.0.layer_norm.weight f4 [32]
0.9966848 1.0103021 1.2159323 0.99566007 1.0001678 1.0624644 0.91887194 1.0154651
1.3850466 1.2545018 0.9960801 1.0404502 1.1626742 1.0802438 1.0211972 0.9969554
1.1020125 1.3203622 0.9979299 1.0365983 1.2155181 1.0031735 0.99832064 0.99933606
0.99974823 0.99488497 1.2346207 1.0351081 1.2637167 1.2695097 1.0254488 0.9985328
00000000: bc26 7f3f 9451 813f aba3 9b3f 94e3 7e3f
00000010: 8005 803f d5fe 873f 313b 6b3f c3fa 813f
00000020: 3549 b13f 8493 a03f 1bff 7e3f 792d 853f
00000030: 82d2 943f 6e45 8a3f 97b6 823f 7838 7f3f
00000040: bf0e 8d3f a101 a93f 5578 7f3f 41af 843f
00000050: 1996 9b3f fd67 803f f191 7f3f 7dd4 7f3f
00000060: 80ef 7f3f c8b0 7e3f 0d08 9e3f 6c7e 843f
00000070: 78c1 a13f 4b7f a23f e841 833f d89f 7f3f

blocks.0.layer_norm.bias f4 [32]
-0.005456571 0.0068758433 0.23997112 -0.010574166 -0.0022531126 0.052617744 -0.07748676 0.0026889935
0.30652136 0.24667501 -0.0106144305 0.043342337 0.087501176 0.04829223 0.0002454084 -0.008125184
-0.0014630227 0.28242025 -0.006817438 0.017298589 0.2351914 0.0110067725 -0.007161471 -0.0012957073
-0.0015213185 -0.003417972 0.23904979 0.023907749 0.26628825 0.25784308 0.013043588 -0.003995125
00000000: 09cd b2bb c14e e13b fdba 753e 443f 2dbc
00000010: f5a8 13bb b485 573d 61b1 9ebd d339 303b
00000020: 5ef0 9c3e 6098 7c3e 26e8 2dbc bc87 313d
00000030: d133 b33d 13ce 453d 28aa 8039 7e1f 05bc
00000040: e5c2 bfba 6399 903e d164 dfbb c5b5 8d3c
00000050: 04d6 703e c055 343c c6aa eabb b9d4 a9ba
00000060: fa66 c7ba 0e00 60bb 78c9 743e 2fda c33c
00000070: ef56 883e 0204 843e c6b4 553c 8ae9 82bb

last_layer.weight f4 [1, 32]
0.05676832 0.015563086 -0.33125365 0.13197866 -0.039363287 0.12904686 -0.08843131 0.14166544
-0.35397977 -0.3612068 0.076283656 0.07035746 0.17218108 0.1936388 0.034585007 0.022684759
0.14817259 -0.31710958 0.10246041 0.06870815 -0.36334735 -0.007599681 0.10851747 0.14167462
0.033182688 -0.013101521 -0.37692103 0.14447606 -0.39990154 -0.33090323 0.13242273 0.116228364
00000000: e685 683d 50fc 7e3c 149a a9be 6a25 073e
00000010: 663b 21bd dc24 043e 7a1b b5bd bf10 113e
00000020: d63c b5be 19f0 b8be 9b3a 9c3d 9217 903d
00000030: 3d50 303e 4049 463e 02a9 0d3d 63d5 b93c
00000040: 8eba 173e 305c a2be c3d6 d13d dcb6 8c3d
00000050: aa08 babe bf06 f9bb 683e de3d 2713 113e
00000060: 92ea 073d c3a7 56bc cbfb c0be 88f1 133e
00000070: e5bf ccbe 266c a9be d399 073e 2309 ee3d
