wakeword_models/hey_nexus/hey_nexus (3)_Half.onnx (onnx, 205430 bytes, 9 tensors)

layer1.weight f4 [32, 1536]
00000000: 3f97 223d c2d1 8a3b 705f 263d a1da 2c3d
00000010: 7ee4 6a3c 194a 1e3c 724f ef3c f0cf 35bc
00000020: cc3c e9bc a3f3 3e3d cc16 dfbc a4b2 81bc
00000030: 47da e4bc c66e 03be 01bb e7bc d728 28bd
00000040: 4fe2 cbbc 8d9c 6e3d dcbf 4b3d b4fb 30bd
00000050: 251c f63d 5cbb 6e3d e029 64bd 8a83 2dbd
00000060: bbb1 19bd 9b6c 733d 33ba 45bd 5ad4 a6b9
00000070: ee74 b8bb 083b 3e3c c3bb ef3c 11c3 26bd
00000080: 7f06 85bc 9cfb d7bc a8fc febc 623b 003d
00000090: 4fc5 be3c 415c b63b 59d2 d7bb aa2c 94bb
000000a0: 6b84 14bd 99d6 01bd f113 933c 1281 01bb
000000b0: 4b70 97bd 75ba eebd c6c1 57bd 9bef c83d
000000c0: bbe2 a73c d6a2 943d 3e3e 123c 1168 a23d
000000d0: 9229 05bc 3efe 553d a44f cfbc 2bd4 35bd
000000e0: c98a 39bd 9196 9d3c 16a4 9dbb 2c0c b7bd
000000f0: 82c0 a9bb ad3e 0d3e 96fc 0f3c a971 4bbd
00000100: 2ca5 3c3d 03ce 853d dd79 043e 5313 90bc
00000110: dede 81bd 031e 1bbd cfff 223a f9dd 923c
00000120: 271c c93d 9d4f 4dbd 4b68 103d 01c5 8a3d
00000130: e9de dc3d 4663 2abc 1915 d33b c9c1 e1bc
00000140: 5784 993d 3047 a43d 6622 e6bc 80eb 76bd
00000150: fa3d 413d 645d 6abd ed09 3bbc cec9 8fbd
00000160: 93e1 fd3c 3567 113d ae63 d93d ef2b a1bb
00000170: 7038 663c ba77 01bd 8c41 31bc 3622 883d
00000180: 6e3c 033d 73b9 d3bc fc8e 7e3d a80e 8a3a
00000190: b2e3 b63c abcd 32bc 5938 6b3d f686 1bbd
000001a0: 5d3b 2f3d ac32 353c 5c67 93bc e964 e2bc
000001b0: 8a08 e2bd 4c49 8cbd 158e 44bd c3b8 26bd
000001c0: fc20 a23d 80d0 ed3c e57f 5cbd cf18 3fbc
000001d0: ce6a fdbb 3c79 013d d066 5bbd 5ed3 f03c
000001e0: 5d34 92bd 695a 293d 2a3d 5dbb 53ca 12bd
000001f0: 2a16 0d3d 5faf 8a3b 9b37 913c 8820 463c
00000200: eb52 05bd 9433 3abc ddbb 62bd ea75 82bc
00000210: 0777 6a3c 1feb 293d ae5c 04bd 8c80 893c
00000220: be40 3fbd 459b d63c d66d 5cbc ab9d c4bc
00000230: 076a 92bc 7769 c8bd 9ec4 4ebd abd6 8b3d
00000240: b352 213d 56dc 073e fea6 62bd 1d83 5a3d
00000250: bb82 473c a2ff c63d 78c1 d3bc fd0b 0bbd
00000260: 2870 723c ebb0 8e3a f0ef 92bc 0cff 63bd
00000270: b644 cab9 ac24 e93d 8eb3 343d 2731 5dbd
00000280: 73de 3f3d 1dcd 8b3d 7601 d33d 04d8 0dbd
00000290: 1cc7 1fbd e62a 18bd 5f5b d9bd de38 243c
000002a0: f2b0 ac3d 5110 82bd 7450 4a3c dd72 803d
000002b0: 2a2c e83d cae6 eabc 9d50 efbb 1bcc ccbc
000002c0: ff0d 3b3d 6bbd e73c 0bfa 1b3d 8749 95bc
000002d0: e5dd 973d bcb8 133d c7b1 b43c a17a c4bd
000002e0: 7560 803d 260d f23c 95c3 f63d d9eb 2d3d
000002f0: 4b52 0eba 7de7 e7bc b008 923d d360 083c
00000300: 5011 a6bc 6160 6f3d 0db0 333d 2882 9abc
00000310: b837 963d 9f72 07bd f42f cfbb f869 51bd
00000320: 6507 8d3d 5c6b 03bd 97f0 46bc e62d 50bd
00000330: a2da 06be f670 97bc 99a7 01bd 978f 44bd
00000340: fd7f 023e 7eb5 3b3d 2ab8 6a3b 967a 41bd
00000350: 9345 76bd 7493 b73b 5f79 59bd 06f1 663d
00000360: c666 9bbd 620e 023e 8381 42bd 25f0 73bd
00000370: 0896 dd3d c59a 003d ba80 2f3d d64d 4a3d
00000380: 41cc 43bd 91ac c23c bd0b e8bd f0aa acbc
00000390: bd14 52bc 52ce 5d3d a6f5 b93c 2136 f63c
000003a0: cdc1 48bd 749d dc3d 4de2 07bc ce89 e83a
000003b0: 0f5a 9abb c3a6 a2bd 32cd a3bc 65bb fcbc
000003c0: 8868 873d f981 cc3d 55ab 9ebd 90bb d43d
000003d0: 19e7 9abb f90d 983d 11fc 18bc 93f1 6c3b
000003e0: 337d dbbc 929b 69bc 93e2 123c 8561 71bd
000003f0: 2133 59bd 7984 563d a369 bd3d 39ef 47bd
0.03969502 0.004236431 0.04061836 0.04220069 0.014336703 0.009661221 0.029212687 -0.011096939
-0.028471373 0.04661907 -0.02723255 -0.015832253 -0.027936114 -0.12835225 -0.028287413 -0.041054573
-0.024888186 0.058254767 0.04974352 -0.043208793 0.12017087 0.05828415 -0.055703998 -0.042361774
-0.037523013 0.059429746 -0.048273277 -0.00031820202 -0.0056291735 0.011610754 0.029264336 -0.040713374
-0.01623845 -0.026365094 -0.031126335 0.031306632 0.023287443 0.0055651967 -0.0065863547 -0.004521926
-0.036259096 -0.031698797 0.017953845 -0.001976077 -0.07394465 -0.116566576 -0.05267503 0.09811326
0.020493856 0.07257621 0.0089259725 0.07930005 -0.008127587 0.052244417 -0.02530653 -0.044391792
-0.04529837 0.019236835 -0.0048108203 -0.089378685 -0.0051804194 0.1379344 0.0087882485 -0.04966894
0.046055958 0.06533434 0.12937112 -0.01758734 -0.06341337 -0.03787042 0.0006217928 0.01792811
0.09819823 -0.050124753 0.03525571 0.06775857 0.10784704 -0.010399645 0.006441724 -0.027558224
0.07495945 0.080213904 -0.028092574 -0.060283184 0.047178246 -0.05721797 -0.011415941 -0.07020913
0.030991351 0.035498817 0.106147155 -0.0049185674 0.014051542 -0.03160832 -0.01081885 0.0664715
0.032040052 -0.025845265 0.06214808 0.0010532932 0.02232537 -0.010913293 0.057426784 -0.037970506
0.042781223 0.011059444 -0.017993622 -0.027636008 -0.11036785 -0.06849918 -0.047987062 -0.040703546
0.079164475 0.029030085 -0.053832907 -0.01166363 -0.0077336794 0.03160976 -0.053564847 0.029397663
-0.07138894 0.041345987 -0.003375838 -0.035837483 0.034444965 0.0042323316 0.01772671 0.012092717
-0.03254978 -0.011364836 -0.05535494 -0.015925366 0.014310605 0.041483995 -0.03231495 0.016784929
-0.046692602 0.026197085 -0.013453921 -0.024000963 -0.017872823 -0.09785741 -0.050480478 0.06828054
0.03938551 0.13267645 -0.055335037 0.053347696 0.012177165 0.09716727 -0.025849089 -0.03394698
0.014797248 0.0010886466 -0.017936677 -0.055663154 -0.00038579636 0.11383948 0.04411655 -0.054001953
0.046843003 0.06826232 0.10303013 -0.034629837 -0.039008245 -0.037150286 -0.10613131 0.010023324
0.08432187 -0.06350768 0.012348283 0.062719084 0.113365486 -0.028674502 -0.007303311 -0.024999669
0.045667645 0.028288564 0.038080256 -0.018223537 0.0741537 0.03606485 0.022057427 -0.09593702
0.06268398 0.029547285 0.12049023 0.04246125 -0.0005429133 -0.028308624 0.07130563 0.008323866
-0.020271927 0.058441523 0.043869067 -0.018860891 0.07334846 -0.033068296 -0.006322855 -0.05112645
0.06886176 -0.032084808 -0.012142322 -0.050825022 -0.1316934 -0.018486481 -0.031653974 -0.0479885
0.12744136 0.04582738 0.0035815337 -0.047236048 -0.060124945 0.0056022946 -0.053094264 0.0563822
-0.07587962 0.12700799 -0.047486793 -0.05955519 0.10819632 0.0313976 0.042847373 0.049390636
-0.047802214 0.023763927 -0.11330364 -0.021077603 -0.012822327 0.05415184 0.022700142 0.030055108
-0.049012948 0.10772219 -0.0082937 0.0017741264 -0.004710443 -0.079419635 -0.019995306 -0.030851075
0.06611735 0.09985728 -0.07747523 0.10387337 -0.004727256 0.0742454 -0.009337441 0.0036154732
-0.026793098 -0.014258282 0.008965152 -0.058930892 -0.053027276 0.05237243 0.09248664 -0.048812125

layer1.bias f4 [32]
00000000: 886f 1f3b 4b88 993d f2ae 3ebc 74ed a83c
00000010: 8fbd 7e3a 6073 453d 613b 873c e4ed 253d
00000020: d9da 8d3d cf46 863c 0efc 633c 8338 bdba
00000030: 4117 82bc 00c7 393c 3686 5cbb e518 3b3c
00000040: be96 4bbc 90f5 a23d a53f 843d e8fe 633b
00000050: 6134 933b a627 9c3d 015a aebc eece 6a3d
00000060: 97de 823d 5c02 4d3d a3b6 903d ee9f b23c
00000070: 7435 8b3d 6c23 8d3d 2397 d13c 9e79 8d3d
0.0024327952 0.07496699 -0.01163839 0.020621039 0.00097175775 0.048205733 0.016507806 0.040510073
0.069265075 0.016391186 0.013915075 -0.0014436397 -0.015880229 0.011338949 -0.0033649332 0.01141951
-0.012426076 0.079569936 0.06457452 0.0034789387 0.004492328 0.0762475 -0.021283152 0.05732625
0.06390112 0.05005108 0.07066085 0.021804776 0.06797305 0.06891522 0.025584763 0.06907962

layernorm1.weight f4 [32]
00000000: 491c 843f 57fe 953f 3c22 873f 79e3 743f
00000010: 5e4e 8b3f 2c4b 7a3f 63f7 713f f650 6f3f
00000020: 4d76 a43f 9794 903f dd54 7e3f 0765 833f
00000030: 190c 993f 28e3 713f dc36 6c3f c56a 603f
00000040: 7f33 803f 5103 953f 6073 903f 489c 573f
00000050: df48 823f d3c6 853f c11c 8b3f b9dc 853f
00000060: 426a 863f a84d 803f 9e52 903f adc9 713f
00000070: d915 9a3f e5a2 603f f7ec 943f a207 973f
1.0321132 1.1718243 1.0557323 0.95659596 1.0883291 0.97770953 0.9451811 0.9348291
1.2848603 1.1295346 0.9934824 1.0265206 1.1956817 0.9448724 0.9227121 0.8766292
1.0015715 1.1641637 1.128521 0.8422284 1.0178488 1.0451301 1.086815 1.0457984
1.0501177 1.0023699 1.1275213 0.9444836 1.2037917 0.8774856 1.1634816 1.1799204

layernorm1.bias f4 [32]
00000000: 6e9f 0dbd 25c5 c33c d5ec ffbc 915c 6abd
00000010: fdd9 8c3b 7e05 023d 1fc0 75bd 2db1 03bb
00000020: 3733 1d3d 6690 14bd bcc2 37bd d675 abbd
00000030: fd7a 2fbd 648c 2ebd 3b4c 7dbd 9392 02be
00000040: 1a5e 69bd d567 973c 30dd 0a3a e883 dfbd
00000050: ab88 55bd 5cc5 a53d a9fe b5bc 183d 38bd
00000060: be34 c6bd 5d5e 213c 4aaf f5bb cf8a 97bd
00000070: ef8e aebc bae6 cfbb deba e23a de8e 9d3c
-0.034575872 0.023897717 -0.03124086 -0.057217184 0.004298447 0.03174352 -0.059997674 -0.0020094619
0.03837892 -0.03627052 -0.044863448 -0.08372085 -0.0428419 -0.042614356 -0.061840277 -0.12751226
-0.056974508 0.018482128 0.0005297242 -0.10913831 -0.05213229 0.08094284 -0.022216158 -0.04498014
-0.096780285 0.009849158 -0.0074977027 -0.073995225 -0.02130839 -0.0063446434 0.0017298122 0.019233163

blocks.0.fcn_layer.weight f4 [32, 32]
00000000: 0b11 6a3e f371 06be 4d04 cd3d 43ed 793e
00000010: 3a46 193e 578e 1c3e 66eb 73bc f9e9 fb3c
00000020: 4b53 29be 3621 443e 4087 053e 09df a13e
00000030: 7c9c 593e c253 5f3e 2f89 1a3e 8543 e2bb
00000040: 83b0 393e 6a0f 48be cc83 17be d941 ce3c
00000050: 1a45 c63d cf12 5fbd 990b 113e f1d3 96bd
00000060: b51b dbbd 5838 27bd b3c0 8bbd fc51 073e
00000070: 61c3 33be 8e53 8d3c 3c16 aa3e 5569 cebd
00000080: 6590 0b3e b0d5 0fbe 7376 e63d 5e00 e73d
00000090: 444c 953e ef80 653c 6bcc 2e3d f1db 6e3c
000000a0: 33bb 54be 41ba 0d3e ef60 d33d b02d 8b3e
000000b0: e8d4 963e aa57 0e3e 3a4f 4abd 0029 333d
000000c0: b5dc 0d3e 3046 3dbe d2dd 26be f611 71bd
000000d0: 6e18 c63d 13a4 393d c6cf 5d3e eedc 03be
000000e0: b30b f3bd dac7 d7bb 596a 26be d10a a03c
000000f0: 2834 77be 0f94 ed3d be27 b63e ef53 45be
00000100: a596 1abe ee3c 223e baa4 54be af53 933b
00000110: b888 47be e9fa 563a 0541 bf3d 94b2 373d
00000120: 1355 613e ebe9 06be 1b31 9cbd 4502 59bd
00000130: f1a3 98be 8ce9 86bd 00cc b9bc b58c d53d
00000140: 9c1d 97bd d917 893e 99f0 5e3e bc91 03bc
00000150: 98fc 183b bcfe fa3d 1752 f2bd 1c29 513d
00000160: 8f44 2a3e 1ef2 36bd 29cd a53d 6935 70bc
00000170: 5a2b 413e 1428 b63d 4e5b a0bd 070c 493e
00000180: 25ee 23be 14b7 483e 8842 0fbd 4031 213d
00000190: 6107 9dbd 717a 6b3c e97c 86be 2f27 853d
000001a0: 856c db3e 4337 65be 0091 fcbc 9ee4 32be
000001b0: 0271 90be 59d4 10be feb1 963d 27a4 1cbc
000001c0: 650a a6bd ee6f 5f3e 4e6b 493e e59a 473b
000001d0: 79d1 0ebe 7042 0b3e c2f2 1abe 64c4 e2bd
000001e0: 2ea7 0d3e f2fb 533e 1eed 3e3e e774 06be
000001f0: ee56 b33e 662d c3bd 27a8 47be 3663 143e
00000200: f6c0 bb3d 4db0 7abd d150 423d 575f ce3d
00000210: 76d3 ae3d f020 e8bd fc2f c63d 4fd3 833c
00000220: abd3 1ebe 5711 c33d a920 71bb 8093 213e
00000230: 9a7b 9e3e 6a5c 833d 8c62 b4bc 3761 ca3c
00000240: a9e2 393e 220d 0ebe a35a 0cbe ecd1 12be
00000250: 191a 2d3e 16a4 e93d 58df 083e 7ffa fb3b
00000260: 291a 96bd c17e 9abd 746a 47be 1771 dabc
00000270: c1e5 2ebe 2855 8bbc c7ae 5c3e f9f3 32be
00000280: 309c 843e 61cb 17bd 0ed7 a03e 38c3 a13e
00000290: c64a b23d 84ba c13c 20e6 813e d517 e7bd
000002a0: f55b e1bd 9f94 383e 4285 673e 4c8c 843e
000002b0: 0ad8 b53d 8b4f 7d3e 6a85 7c3e 0658 f93d
000002c0: c068 e03d e394 06be 1a15 883d 1b98 4d3e
000002d0: ed8b 403e 714c 21be 61ab 6c3e ff22 3c3d
000002e0: 4a48 843e d3f3 443e 040d b33d 1431 b43e
000002f0: 12eb 563b d8f9 0c3e 95a0 623c d13d c83c
00000300: fd6c 84be 6aa1 f83d 55d5 28be c3a1 0bbd
00000310: 1c75 873d d30e 11bd 890d 9bbc 82e3 3bbe
00000320: ee49 813e dc6f 2fbe bcd0 37bd 1d6d 69be
00000330: adce 93bd 199f 8b3d c99e 23be fe3f 143e
00000340: ebef 10be c653 3c3e cb4c 563d c3ed 53be
00000350: 3d1f 49be 5f22 243e 9b0e 47be 5031 423e
00000360: 2ab3 1abc fd0a 3a3e f313 813e 1dfb 35bc
00000370: 25a9 393e b8b1 883d 4c8a 27be 5a92 613d
00000380: 5eec cabd 1fef 79bd 5031 e1bd d8b9 5d3d
00000390: a6d5 62bd 4c71 0e3e 967a a63d eb59 b3bd
000003a0: 237a 02bd 7063 08be df0b edbd dbff ebbd
000003b0: 97d4 8cbd 4007 34bc 7284 263e 102e 283e
000003c0: 49f1 ddbc 2b75 133d faf1 69bb e280 0ebd
000003d0: 91ce db3b f0ad 813d fc4e 313d e108 8c3e
000003e0: 55d2 853d 4e4d 8d3d 38ea 153e 68b1 2bbe
000003f0: 2db8 5d3d 40ea 5f3d 3ff1 bfbd d913 c6bd
0.22858064 -0.13129406 0.10010586 0.24406914 0.14968196 0.15288673 -0.014887666 0.030751215
-0.1653568 0.19153294 0.13039875 0.31615475 0.212511 0.21809295 0.15091394 -0.0069050216
0.1813374 -0.1953713 -0.1479637 0.025177883 0.09681149 -0.054461297 0.1416458 -0.07364643
-0.10698644 -0.040825218 -0.06823864 0.13214868 -0.17555 0.017251756 0.33220088 -0.10078684
0.13629301 -0.14046359 0.11253061 0.11279367 0.2915975 0.014007791 0.042675417 0.014578805
-0.20774536 0.13840581 0.10321223 0.27183294 0.2945931 0.13900629 -0.049391963 0.043740273
0.13853724 -0.18483806 -0.16295555 -0.05885502 0.09672628 0.04532249 0.2166129 -0.12877247
-0.11867466 -0.0065851035 -0.16251506 0.019536408 -0.2414099 0.116005056 0.35577196 -0.192703
-0.15096529 0.15843555 -0.20765963 0.00449606 -0.19485748 0.00082008407 0.09338573 0.04484804
0.2200511 -0.1317517 -0.076265536 -0.05298068 -0.29812577 -0.06587514 -0.022680283 0.10427228
-0.073786944 0.26776007 0.21771468 -0.008030351 0.0023343917 0.12255618 -0.11832064 0.051064596
0.16627716 -0.044664495 0.08095772 -0.0146611715 0.18864194 0.08894363 -0.07829915 0.19633494
-0.16008814 0.19601089 -0.03497556 0.03935361 -0.07667423 0.014372454 -0.26267174 0.06501614
0.4285623 -0.22384362 -0.03083086 -0.17470023 -0.28211218 -0.14143504 0.07358168 -0.009560621
-0.08107451 0.21820042 0.1966984 0.0030457315 -0.13947095 0.13599563 -0.15131667 -0.11072615
0.13833305 0.20701578 0.1864514 -0.13130532 0.3502726 -0.095301434 -0.19497739 0.14490971
0.09167664 -0.06120329 0.047440354 0.100767784 0.08536427 -0.11334407 0.09677121 0.01609197
-0.15510432 0.09524792 -0.0036793149 0.15778923 0.30953676 0.06414111 -0.022019647 0.024704559
0.1815287 -0.13872197 -0.1370645 -0.14337891 0.16904487 0.1140825 0.13366449 0.0076897736
-0.073292084 -0.07543708 -0.19474202 -0.026665254 -0.17079832 -0.01700838 0.21551047 -0.1747588
0.25900412 -0.03705919 0.31414074 0.31594253 0.08705668 0.023648508 0.25370884 -0.112838425
-0.110038675 0.18025444 0.22609428 0.25888288 0.08879097 0.24737374 0.24660268 0.12174992
0.109574795 -0.13142733 0.0664465 0.20077555 0.18803377 -0.15751816 0.23112251 0.045931812
0.25836402 0.19233637 0.08742717 0.35193694 0.0032793921 0.13767183 0.013832231 0.024443539
-0.258644 0.12140162 -0.1648763 -0.034089815 0.06614134 -0.035414528 -0.018927353 -0.18348506
0.25251716 -0.17132515 -0.0448768 -0.2279553 -0.07217155 0.06817455 -0.1597854 0.14477536
-0.14154021 0.18391332 0.05231933 -0.20696168 -0.19640823 0.16028737 -0.19439165 0.18964124
-0.00944213 0.18168254 0.25210533 -0.011107233 0.1813093 0.06674522 -0.1636135 0.055071212
-0.09908365 -0.06101906 -0.10995734 0.054132313 -0.055379532 0.13910407 0.0812885 -0.08757385
-0.03185476 -0.13319182 -0.1157453 -0.1152341 -0.06876486 -0.010988057 0.16261461 0.16423821
-0.027092593 0.036000412 -0.0035697208 -0.03479088 0.0067079742 0.06332004 0.043288216 0.27350524
0.06534258 0.0689951 0.14640129 -0.16766894 0.05413072 0.054666758 -0.09372186 -0.096717544

blocks.0.fcn_layer.bias f4 [32]
00000000: a933 bd3d 639f 71bd ba79 383e 9256 b0bc
00000010: cd9e 1b3e 470e 523d 3048 203e a781 64bd
00000020: 1d01 a03c cf32 a5bd 45b0 2ebb e918 353e
00000030: 0e1d b13c 0cc4 8fbd 0471 55bd 9f5d 9c3d
00000040: dfac 313e fa44 7ebd bb04 543b 69d2 2dbc
00000050: f7c4 0e3e b4de 0d3d 846d 43be d572 14be
00000060: 66a6 193d 72f7 253e b7f1 b93d 7aaf adbd
00000070: 1b36 053e b87d 3ebd 3e01 18be 5ddc 05be
0.09238369 -0.058989894 0.18015185 -0.021525655 0.15197296 0.051283147 0.15652537 -0.05578771
0.01953178 -0.080663316 -0.0026655358 0.17685284 0.0216203 -0.07019815 -0.052109733 0.07635044
0.17351101 -0.0620775 0.0032351452 -0.010609248 0.13942324 0.034636214 -0.19084746 -0.1449693
0.037512206 0.16207674 0.090793066 -0.08480735 0.13008921 -0.046506613 -0.14844224 -0.13072343

blocks.0.layer_norm.weight f4 [32]
00000000: 76ae 9d3f 4852 a93f 1252 ad3f eb0f af3f
00000010: 44f7 8c3f b6bd a53f 6ba0 aa3f 4343 983f
00000020: 5f15 833f 1f06 a63f 89fa 953f 1f05 773f
00000030: a0ac ab3f 0254 b53f b335 873f b420 9d3f
00000040: 2805 953f a2d4 9a3f 8016 ae3f a05a 983f
00000050: e732 a03f 6629 9d3f bb8f b33f 22ef 353f
00000060: 8bab 9e3f 4538 8e3f a631 a23f 408c 9d3f
00000070: 2237 983f 9d1a a33f efd9 aa3f b48a a63f
1.2318866 1.3228235 1.3540671 1.3676733 1.101296 1.294852 1.3330206 1.1895527
1.0240897 1.2970618 1.1717082 0.9649219 1.3412056 1.4166262 1.0563263 1.2275605
1.1642199 1.209614 1.3600616 1.1902657 1.2515534 1.2278259 1.4028238 0.7106801
1.2396101 1.1110922 1.2671402 1.2308426 1.1891825 1.2742497 1.3347758 1.3011079

blocks.0.layer_norm.bias f4 [32]
00000000: b68f 1f3e 10b7 3d3e 49a3 833e 7003 503e
00000010: 0014 e3bc a431 5bbd a49c 7b3e bc61 84bd
00000020: a301 51be 083c 253e 98e7 143e 3115 32be
00000030: ef94 ad3d 99dd 643e 4567 a1be 97c3 e53c
00000040: 5d64 c53c aa0f fbbd bf12 8b3e 9ea5 a43c
00000050: b6bd 363e 0ba6 b03d 2eb2 d5bc 01f8 e2be
00000060: 5ff9 643e 6ce8 1d3d 3d54 603e ae65 e63c
00000070: 8c95 863d f525 323e 01b6 da3d 5570 2b3e
0.15582165 0.18526864 0.25710514 0.20313811 -0.027719498 -0.053514138 0.24571472 -0.06463954
-0.2041078 0.16136181 0.14541471 -0.17390896 0.084756725 0.22350158 -0.315241 0.028047366
0.024095709 -0.12258847 0.2716274 0.020098504 0.17845806 0.0862542 -0.02608594 -0.44329837
0.22360753 0.038551733 0.21907134 0.028124657 0.065714926 0.17397292 0.10679246 0.1674207

last_layer.weight f4 [1, 32]
00000000: 3fbb b13e ccbe ad3e fc59 d5be 0332 c9be
00000010: dd75 453e 480c e03e f8b2 adbe 920f a1be
00000020: dbe0 093e b92c cd3e 667a a33e dc8c babc
00000030: f983 9e3e b8d2 f6be fb8a b4be 3a28 ba3e
00000040: 7869 283e e3b2 843e 39e5 c5be 11c2 4f3e
00000050: f9bc abbe c420 9c3e 37ab bd3e 5659 283d
00000060: f373 c4be 4198 013e 7f0a 903e 943a 9e3e
00000070: b367 9b3e 8fc4 9d3e e05b 9b3e ffae c93e
0.3471317 0.3393463 -0.41670215 -0.39295968 0.19283243 0.4375937 -0.33925605 -0.31457192
0.13464682 0.40073183 0.3192932 -0.022772245 0.30960062 -0.4820764 -0.35262284 0.36358815
0.16446483 0.2591773 -0.38651446 0.20288874 -0.33542612 0.30493748 0.3704469 0.041100822
-0.38369712 0.12655737 0.28133008 0.30904067 0.30352554 0.30814025 0.30343533 0.39391324
