wakeword_models/hey_nexus/hey_nexus_full.onnx (onnx, 205430 bytes, 9 tensors)

layer1.weight f4 [32, 1536]
0.113155715 0.09545256 0.059566468 -0.031940006 0.037693065 0.14444241 0.10337852 -0.025471108
0.023634018 0.07233732 -0.13655983 -0.18758638 0.07101232 -0.14097315 -0.18801992 0.04490159
-0.09629966 0.065714076 0.06508582 -0.16487168 0.22506493 0.13938636 -0.08178093 0.06851075
-0.14633714 0.089327015 -0.14421847 0.039142955 0.02663228 0.11939717 -0.17311661 0.15084977
-0.17027979 -0.010321667 -0.10856616 0.046074647 0.13821687 0.0012160747 -0.11848311 0.10745785
-0.09727828 -0.08392516 0.17144091 -0.09383103 -0.13436237 -0.08527691 -0.17771569 0.0035130868
0.08825734 0.12201992 -0.1311432 0.10451482 0.114785515 -0.11676194 -0.08833007 -0.11246866
-0.1561368 0.12197627 -0.07767556 0.019099507 0.039495155 0.052098 -0.00650161 -0.12513416
0.128886 0.0057990164 -0.06794232 -0.13608547 0.06474062 -0.101376705 0.076188155 0.12679653
0.04804735 -0.05134811 0.11002966 0.09890548 0.056538478 -0.061692424 -0.06298786 -0.082626164
0.0433697 0.13387065 0.10346649 -0.13428591 0.117509454 0.086910285 0.07528461 -0.06205324
0.05868405 0.13294454 0.0845219 0.07258678 0.11486321 -0.18271863 -0.057225853 0.07776946
0.03621907 0.056774553 0.1400031 -0.04173795 0.05179068 0.12143769 0.09270144 -0.07273084
0.016000329 0.08123476 -0.074818775 -0.12642428 0.028860424 -0.050759062 -0.16100976 -0.06120273
-0.16179174 0.056735247 0.07953676 -0.11655541 0.16248561 0.12506744 -0.18743043 0.014524339
-0.11711023 0.10777484 -0.12189094 0.033246875 0.07650347 -6.356108e-05 -0.14856346 0.1340602
-0.16442095 -0.096449435 -0.11278599 0.062742956 0.16866176 0.043147545 -0.05277 0.14076616
-0.019198282 0.12070632 0.11189145 -0.13773471 -0.098419614 -0.079620145 -0.13270731 -0.013746343
0.09413056 0.1499856 -0.114116 0.16216958 0.11786607 -0.07243564 -0.10319473 -0.068242155
-0.14799668 0.1360946 -0.075794674 -0.010397539 -0.0035811062 0.03724663 -0.09859534 -0.048996866
0.16198736 0.07145019 0.046777863 -0.14256 0.06796257 -0.1468411 0.11964157 0.10189561
0.05860684 -0.09250824 0.14745401 0.10934977 0.041303433 -0.039118115 -0.08307015 -0.06615146
0.1408916 0.060950674 0.18110158 -0.08525701 0.16002807 0.044654436 0.066241704 -0.08492152
0.023060098 0.11959264 0.13790232 0.07157817 0.091055065 -0.13920134 -0.10271335 0.08950181
-0.18474828 0.06850543 0.11847784 -0.019986613 0.027771743 0.13779242 0.019369818 -0.08450475
0.054967303 0.0733433 -0.10253393 -0.1475554 -0.0011327004 0.067681514 -0.15265858 0.039201174
-0.1390215 0.11474452 0.011136486 -0.077211395 0.13904661 0.18319991 -0.17549679 0.047952905
-0.13904858 0.10128309 -0.09336113 -0.10726715 0.03461525 0.015659736 -0.10900501 0.1650623
-0.13053839 0.04647733 -0.049566712 0.085052215 0.16475162 0.09331612 0.059773497 0.1389575
-0.15592809 0.13469258 0.14340103 -0.13053805 -0.14891659 -0.06267822 -0.13615441 -0.07969195
0.081074506 0.0743659 -0.114988185 0.15736698 0.18199535 -0.104501985 -0.11806655 -0.0832133
-0.0787121 0.10964117 -0.13833262 -0.027670084 0.00764297 0.09648812 -0.035010066 -0.08164799
00000000: 2fbe e73d a27c c33d f8fb 733d 86d3 02bd
00000010: 0b64 1a3d b6e8 133e 1eb8 d33d c9a8 d0bc
00000020: 219c c13c 9725 943d 57d6 0bbe a516 40be
00000030: e86e 913d 445b 10be 4b88 40be bbea 373d
00000040: c238 c5bd 1a95 863d b74b 853d 1fd4 28be
00000050: 6c77 663e 4cbb 0e3e c37c a7bd 5d4f 8c3d
00000060: 67d9 15be 15f1 b63d 02ae 13be 5d54 203d
00000070: f02b da3c 8186 f43d 7b45 31be 5d78 1a3e
00000080: d35d 2ebe 361c 29bc ef57 debd c5b8 3c3d
00000090: b988 0d3e b264 9f3a 46a7 f2bd dc12 dc3d
000000a0: d639 c7bd f4e0 abbd 358e 2f3e 7c2a c0bd
000000b0: 4a96 09be a9a5 aebd 1afb 35be d13b 663b
000000c0: 44c0 b43d 94e5 f93d 674a 06be de0b d63d
000000d0: ab14 eb3d e220 efbd 65e6 b4bd f855 e6bd
000000e0: 53e2 1fbe b2ce f93d 5d14 9fbd 9276 9c3c
000000f0: acc5 213d b664 553d 750b d5bb 2b23 00be
00000100: b1fa 033e ad05 be3b 5825 8bbd fd59 0bbe
00000110: bb96 843d 979e cfbd 8908 9c3d f3d6 013e
00000120: 4ccd 443d 6552 52bd 3b57 e13d f58e ca3d
00000130: e494 673d 32b1 7cbd c7ff 80bd e837 a9bd
00000140: 6da4 313d 6315 093e 3de6 d33d 3f82 09be
00000150: cca8 f03d 05fe b13d d12e 9a3d 8a2b 7ebd
00000160: b05e 703d 9d22 083e d119 ad3d 61a8 943d
00000170: 673d eb3d 981a 3bbe a865 6abd 9845 9f3d
00000180: 735a 143d 6f8c 683d f95c 0f3e 6af5 2abd
00000190: 7722 543d 53b4 f83d 41da bd3d e8f3 94bd
000001a0: 1f13 833c 695e a63d 963a 99bd 5e75 01be
000001b0: b26c ec3c bce8 4fbd bedf 24be b7af 7abd
000001c0: bcac 25be 3863 683d 2be4 a23d 9ab4 eebd
000001d0: a162 263e ae11 003e c3ed 3fbe 7ef7 6d3c
000001e0: 7dd7 efbd 0eb9 dc3d f5a1 f9bd e02d 083d
000001f0: daad 9c3d 184c 85b8 0521 18be 1447 093e
00000200: f75d 28be 4887 c5bd 57fc e6bd 617f 803d
00000210: abb5 2c3e 7bbb 303d 5b25 58bd 0125 103e
00000220: b745 9dbc e034 f73d 5827 e53d 540a 0dbe
00000230: 3990 c9bd e30f a3bd 6de4 07be 5738 61bc
00000240: 86c7 c03d d395 193e a6b5 e9bd c80f 263e
00000250: c463 f13d 2359 94bd c257 d3bd 8bc2 8bbd
00000260: 718c 17be 625c 0b3e 3d3a 9bbd 705a 2abc
00000270: feb0 6abb ec8f 183d 5bec c9bd f0b0 48bd
00000280: 04e0 253e 7a54 923d 259a 3f3d 40fb 11be
00000290: f62f 8b3d 835d 16be a406 f53d a5ae d03d
000002a0: ba0d 703d f674 bdbd 2ffe 163e c6f2 df3d
000002b0: ca2d 293d 513a 20bd af20 aabd 6b7a 87bd
000002c0: e345 103e 6aa7 793d b172 393e 3a9b aebd
000002d0: 66de 233e 92e7 363d bba9 873d 55eb adbd
000002e0: 88e8 bc3c fcec f43d 4436 0d3e 9397 923d
000002f0: 147b ba3d cc8a 0ebe 605b d2bd ba4c b73d
00000300: a72e 3dbe 934c 8c3d 83a4 f23d f7ba a3bc
00000310: 9181 e33c 7519 0d3e 74ad 9e3c d410 adbd
00000320: 6525 613d 0335 963d 4ffd d1bd c318 17be
00000330: 1e77 94ba 9b9c 8a3d 8852 1cbe 6991 203d
00000340: a75b 0ebe 2dff ea3d cf75 363c 0221 9ebd
00000350: 3c62 0e3e c298 3b3e 6eb5 33be 446a 443d
00000360: c062 0ebe 826d cf3d 1f34 bfbd e1ae dbbd
00000370: b8c8 0d3d d948 803c 053e dfbd 1706 293e
00000380: dbab 05be 035f 3e3d 7706 4bbd db2f ae3d
00000390: a6b4 283e 861c bf3d 0ed5 743d e04a 0e3e
000003a0: 9dab 1fbe daec 093e b8d7 123e c4ab 05be
000003b0: 977d 18be 705d 80bd 106c 0bbe 8835 a3bd
000003c0: 640a a63d 264d 983d ed7e ebbd cf24 213e
000003d0: fd5c 3a3e 2305 d6bd e0cc f1bd bc6b aabd
000003e0: cf33 a1bd 8d8b e03d 11a7 0dbe 5fac e2bc
000003f0: e171 fa3b 909b c53d b766 0fbd 1037 a7bd

layer1.bias f4 [32]
0.18579677 0.16244513 0.029253528 0.0320536 0.16619432 0.033038367 0.10229264 0.17261957
0.14352949 0.057849307 0.030035986 0.033498578 0.007972182 0.00034135356 0.054739133 0.006410107
0.18859318 -0.0006125897 0.095594704 0.16290407 0.031202558 0.1251717 0.07195222 0.03281121
0.029158387 0.092849985 0.16310926 0.013097591 0.02326254 0.07568484 0.16128114 0.030646743
00000000: 8241 3e3e 0458 263e 18a5 ef3c a34a 033d
00000010: d82e 2a3e 3d53 073d ce7e d13d 2fc3 303e
00000020: 65f9 123e 65f3 6c3d 070e f63c ce35 093d
00000030: c19d 023c b3f7 b239 2436 603d e00b d23b
00000040: 921e 413e 3396 20ba 28c7 c33d 53d0 263e
00000050: 829c ff3c 032d 003e af5b 933d 0c65 063d
00000060: 92dd ee3c 2228 be3d 1d06 273e 4797 563c
00000070: 1591 be3c a700 9b3d e226 253e e10e fb3c

layernorm1.weight f4 [32]
1.0957156 1.3771011 1.2423562 1.2273597 1.203277 1.0258799 1.1037825 1.4560212
1.0358273 1.0885218 1.1152356 1.0994784 1.0137923 1.0640882 1.0980663 1.1246423
1.4473642 1.2232276 1.2519735 1.1007651 1.053794 0.8688091 0.9901313 0.9304023
1.0597091 1.0547408 1.5513552 1.0001547 0.9688554 1.2887747 1.6698241 1.0990285
00000000: 6940 8c3f d944 b03f 8705 9f3f 1f1a 9d3f
00000010: fb04 9a3f 0850 833f bf48 8d3f e75e ba3f
00000020: fd95 843f af54 8b3f 0ac0 8e3f b5bb 8c3f
00000030: f2c3 813f 0b34 883f 708d 8c3f 47f4 8f3f
00000040: 3b43 b93f b992 9c3f ab40 a03f dfe5 8c3f
00000050: b9e2 863f 466a 5e3f 3f79 7d3f d82e 6e3f
00000060: 8ca4 873f bf01 873f cf92 c63f 1205 803f
00000070: e806 783f 92f6 a43f ccbc d53f f7ac 8c3f

layernorm1.bias f4 [32]
0.13402948 0.055976816 0.041841958 -0.0070197596 0.07818724 -0.036776204 0.033309627 0.086900696
0.014267614 -0.03760906 0.003684256 -0.011482765 -0.019030066 -0.048063748 0.04135703 -0.0034793587
0.051329106 0.010794558 0.101404324 0.14070536 0.06394426 -0.11241806 -0.064733654 0.018442137
-0.028571788 0.053742208 0.092323996 -0.019551305 0.034547564 0.049782462 0.083550476 -0.0022267231
00000000: 063f 093e f247 653d 7962 2b3d 0306 e6bb
00000010: a220 a03d a5a2 16bd ad6f 083d fef8 b13d
00000020: b6c2 693c f50b 1abd 8f73 713b 3522 3cbc
00000030: f1e4 9bbc 7ede 44bd fd65 293d f405 64bb
00000040: 783e 523d a8db 303c 12ad cf3d 1115 103e
00000050: 35f5 823d 713b e6bd 1493 84bd f713 973c
00000060: 620f eabc ca20 5c3d 5d14 bd3d 0f2a a0bc
00000070: bf81 0d3d b2e8 4b3d 831c ab3d 37ee 11bb

blocks.0.fcn_layer.weight f4 [32, 32]
-0.12626034 -0.29681456 0.31067052 0.28285444 0.18640968 0.33122918 -0.026546415 0.036934465
-0.091055244 0.4084059 0.50322473 0.5060764 0.2796803 0.2419938 0.3341937 0.35510233
-0.236638 0.456935 0.06612961 -0.046237804 0.25787425 0.10417433 0.2723173 0.38006777
0.37820458 0.30009794 -0.13223419 0.4880459 0.35878068 0.37181294 -0.19715697 0.20816407
-0.14889245 -0.12522118 0.46887192 0.24762693 -0.22180858 0.24806213 0.21703191 -0.49231097
0.14464758 0.28172714 0.2236067 0.22418088 0.20380463 0.16125394 0.2852805 0.5464263
-0.39857972 0.3838002 -0.25029865 0.017761841 0.1990119 0.0003445121 0.014411818 0.12949684
0.45111272 -0.080514945 -0.65995556 0.06798028 0.19508113 0.15447533 -0.5414275 0.30491444
-0.053050563 0.00412258 0.34296766 0.3658885 -0.010214594 0.2925595 0.06592545 0.053062253
0.022112472 0.2549338 0.1462867 0.2499066 0.3055959 0.3714732 0.04326728 0.35572857
-0.14202394 0.17671828 -0.0668884 -0.08610479 0.3723942 0.13275366 0.49704954 0.20342171
0.18741335 0.3680936 -0.06683796 0.2531437 0.25728452 0.062270146 -0.108451776 0.3187528
-0.06293128 0.12473 -0.11654101 -0.20486407 -0.07105691 -0.073836334 0.04411534 0.32278714
0.041454807 -0.1226859 -0.19414842 -0.35580018 -0.16155188 -0.18985255 -0.10737659 -0.16475391
-0.08528975 -0.17794059 0.090316825 0.1670536 -0.16571324 0.08580046 -0.10633613 -0.047690645
-0.16968636 -0.23585191 0.012208459 -0.10073471 -0.18790081 0.029968856 0.11405317 -0.19824962
0.03408971 -0.3514439 0.55255234 0.55203795 -0.27918664 0.3688865 0.119187795 -0.3647824
-0.058628187 0.37632236 0.2752231 0.25991502 0.3224962 0.32963595 0.25040245 0.23924594
-0.38516417 0.4362057 0.07884327 -0.08887493 0.22035033 0.07662445 -0.05034798 0.15859224
0.10984578 0.08157942 -0.23463473 0.29149953 0.20627277 0.015947165 -0.5594559 0.13649839
-0.066594444 -0.19532032 0.44581324 0.5078851 -0.024899121 0.16932976 0.15935208 -0.32128948
0.1472489 0.2359711 0.3800338 0.2951398 0.24770892 0.14144857 0.13888642 0.3776684
-0.34361807 0.59749407 -0.23285411 -0.071250655 0.15475734 -0.06353688 0.22753581 0.08695511
0.3532809 0.0121312495 -0.40236947 0.14917581 0.14993061 -0.05654176 -0.4250998 0.20865984
-0.062542334 -0.32580823 0.5379839 0.6589665 -0.2175781 0.27080286 -0.06035013 -0.2770847
0.04759599 0.32701895 0.25794333 0.16869701 0.2827066 0.4417464 0.4734252 0.17380661
-0.30478957 0.19982351 0.27638465 -0.15917698 0.2717738 0.10903387 0.23155744 0.122471794
0.2658871 0.291525 -0.16667217 0.23280689 0.25851044 -0.07089392 -0.39946526 0.1570201
0.28174773 0.42949677 -0.1461592 -0.31037205 0.16249506 0.040238574 -0.27481827 0.27308476
-0.08139483 -0.010004622 -0.1450856 -0.15331271 -0.26626307 -0.30694512 0.017655775 -0.18536592
0.38863185 -0.369765 -0.21788713 0.22446583 -0.13776408 0.045018755 -0.10795492 -0.11181781
-0.23720673 0.14791399 0.4941298 -0.23581152 -0.08214881 -0.37724984 0.56309545 -0.1838169
00000000: 644a 01be 14f8 97be 3510 9f3e 4cd2 903e
00000010: 2ee2 3e3e df96 a93e de77 d9bc 9848 173d
00000020: 2c7b babd 941a d13e 56d3 003f 398e 013f
00000030: 4232 8f3e 39cd 773e 701b ab3e f9cf b53e
00000040: 3b51 72be 62f3 e93e f66e 873d da63 3dbd
00000050: 1808 843e 5a59 d53d 2c6d 8b3e 3e98 c23e
00000060: 08a4 c13e 70a6 993e 6668 07be 27e1 f93e
00000070: 1ab2 b73e 445e be3e 84e3 49be f628 553e
00000080: 4377 18be fb39 00be fb0f f03e ea91 7d3e
00000090: ca21 63be 0004 7e3e 9d3d 5e3e 2f10 fcbe
000000a0: 7f1e 143e 8a3e 903e 28f9 643e ac8f 653e
000000b0: 29b2 503e c11f 253e 4910 923e 98e2 0b3f
000000c0: a412 ccbe 7681 c43e 2527 80be 4881 913c
000000d0: c7c9 4b3e a29f b439 8c1f 6c3c d29a 043e
000000e0: 3ff8 e63e 05e5 a4bd d9f2 28bf 3f39 8b3d
000000f0: 59c3 473e c82e 1e3e fe9a 0abf bf1d 9c3e
00000100: 8c4b 59bd b516 873b 7599 af3e bd55 bb3e
00000110: 1d5b 27bc 5cca 953e ec03 873d ce57 593d
00000120: 3725 b53c af86 823e 2ecc 153e 84e7 7f3e
00000130: 1177 9c3e bc31 be3e 0839 313d 0e22 b63e
00000140: b96e 11be a3f5 343e c9fc 88bd b557 b0bd
00000150: 74aa be3e 93f0 073e 477d fe3e c84d 503e
00000160: 49e9 3f3e c476 bc3e 57e2 88bd 0d9c 813e
00000170: ccba 833e fb0e 7f3d f71b debd 9133 a33e
00000180: 1de2 80bd 7172 ff3d 0ead eebd e3c7 51be
00000190: 4986 91bd 8137 97bd 49b2 343d 5b44 a53e
000001a0: 84cc 293d bf42 fbbd d8ce 46be 712b b6be
000001b0: db6d 25be b568 42be 42e8 dbbd 40b5 28be
000001c0: 64ac aebd 0f36 36be 07f8 b83d 1910 2b3e
000001d0: bbb0 29be 27b8 af3d c2c6 d9bd 4457 43bd
000001e0: 43c2 2dbe 2a83 71be fd05 483c 004e cebd
000001f0: 1269 40be 3f81 f53c b594 e93d f301 4bbe
00000200: a7a1 0b3d 74f0 b3be 1274 0d3f 5c52 0d3f
00000210: 8df1 8ebe b1de bc3e bb18 f43d c2c4 babe
00000220: 1c24 70bd 53ad c03e 0bea 8c3e 9513 853e
00000230: 391e a53e 0bc6 a83e c034 803e e3fc 743e
00000240: 3d34 c5be 5a56 df3e 9578 a13d 0f04 b6bd
00000250: 84a3 613e 48ed 9c3d af39 4ebd 0166 223e
00000260: d3f6 e03d 1c13 a73d 1644 70be 6d3f 953e
00000270: 2b39 533e a1a3 823c 8038 0fbf 3cc6 0b3e
00000280: ab62 88bd 0d02 48be a241 e43e c204 023f
00000290: 3ef9 cbbc c864 2d3e 312d 233e 0e80 a4be
000002a0: 6ac8 163e 68a2 713e ca93 c23e 901c 973e
000002b0: 68a7 7d3e e5d7 103e 3e38 0e3e c15d c13e
000002c0: b5ee afbe 5ff5 183f 4f71 6ebe ddeb 91bd
000002d0: b578 1e3e a01f 82bd 26ff 683e 8515 b23d
000002e0: 3ce1 b43e 26c2 463c 5f03 cebe 8bc1 183e
000002f0: 6987 193e 5598 67bd aea6 d9be edaa 553e
00000300: 3216 80bd 56d0 a6be 50b9 093f 07b2 283f
00000310: cbcc 5ebe aca6 8a3e b331 77bd 0cde 8dbe
00000320: 03f4 423d 076f a73e 2611 843e e9be 2c3e
00000330: ebbe 903e 962c e23e ca64 f23e 5cfa 313e
00000340: 610d 9cbe 899e 4c3e 4a82 8d3e 4aff 22be
00000350: ef25 8b3e 264d df3d 651d 6d3e 7ed2 fa3d
00000360: 5b22 883e c442 953e 1cac 2abe ee64 6e3e
00000370: 7b5b 843e d530 91bd b686 ccbe e1c9 203e
00000380: 3d41 903e 00e7 db3e c2aa 15be 16e9 9ebe
00000390: 1b65 263e 34d1 243d fbb4 8cbe c4d1 8b3e
000003a0: 55b2 a6bd 6dea 23bc 5291 14be 02fe 1cbe
000003b0: a253 88be e927 9dbe d8a2 903c 90d0 3dbe
000003c0: c1fa c63e d751 bdbe ce1d 5fbe 5fda 653e
000003d0: 0712 0dbe 9665 383d 7817 ddbd bc00 e5bd
000003e0: 52e6 72be c476 173e 95fe fc3e 9378 71be
000003f0: a33d a8bd e426 c1be 0627 103f 7f3a 3cbe

blocks.0.fcn_layer.bias f4 [32]
-0.21204984 0.10135997 -0.06558384 0.23409471 -0.0073144506 0.09374516 -0.03763833 0.06665839
0.084577546 0.12669078 -0.16261399 0.26429763 -0.08109027 0.061392136 -0.18963267 -0.0014763431
-0.17068094 -0.088597305 0.044138405 -0.0607682 0.17392589 -0.09609608 -0.031408425 -0.07455852
0.1860432 0.15044294 -0.22891645 -0.020741146 0.20991519 0.09978073 -0.14630534 -0.057007905
00000000: 9823 59be d195 cf3d d250 86bd 86b6 6f3e
00000010: 0fae efbb 76fd bf3d a62a 1abd 3284 883d
00000020: fe36 ad3d 3abb 013e 4884 26be 0552 873e
00000030: a812 a6bd 5276 7b3d 112f 42be db81 c1ba
00000040: fcc6 2ebe 8172 b5bd 79ca 343d 13e8 78bd
00000050: a119 323e 06ce c4bd 1fa6 00bd 23b2 98bd
00000060: 1c82 3e3e b70d 1a3e 1369 6abe 56e9 a9bc
00000070: 02f4 563e d759 cc3d 11d1 15be 1f81 69bd

blocks.0.layer_norm.weight f4 [32]
1.3299661 1.2819493 1.1891674 1.1217581 1.2755727 1.2491539 1.2971808 1.4830842
1.2689487 1.2291403 1.3477368 1.3965639 1.2774049 1.408681 1.1492896 0.94359696
1.2636324 1.103886 1.2624098 1.3973775 1.2516478 1.1378168 1.2575359 1.101444
1.4128168 1.3355957 1.2801852 1.4104323 1.316867 1.1690196 1.3098404 0.7174016
00000000: 543c aa3f ea16 a43f a336 983f c595 8f3f
00000010: f745 a33f 46e4 9f3f 050a a63f b4d5 bd3f
00000020: e96c a23f 7854 9d3f a482 ac3f 9bc2 b23f
00000030: 0182 a33f a94f b43f ec1b 933f 928f 713f
00000040: b5be a13f 234c 8d3f a596 a13f 44dd b23f
00000050: ff35 a03f fba3 913f f0f6 a03f 1efc 8c3f
00000060: 2ed7 b43f cdf4 aa3f 1cdd a33f 0c89 b43f
00000070: 198f a83f 6fa2 953f daa8 a73f a2a7 373f

blocks.0.layer_norm.bias f4 [32]
0.13007295 0.25697574 -0.026351383 -0.1643878 0.12682682 0.14444785 0.26377553 0.054816637
0.2780168 0.16749172 0.008770214 0.23671106 0.21726441 -0.012329213 0.083297 0.013607042
0.09825705 -0.09775905 0.018847922 0.13532795 0.20621657 0.028347438 -0.21154274 -0.2769984
0.089188494 0.21899734 0.102790795 0.09215551 0.0958582 0.09728001 0.19189404 -0.47758114
00000000: d831 053e 5392 833e dbde d7bc 4755 28be
00000010: e4de 013e 23ea 133e 960d 873e 6987 603d
00000020: 3858 8e3e f382 2b3e f2b0 0f3c 6264 723e
00000030: 907a 5e3e 7800 4abc 9e97 aa3d 12f0 5e3c
00000040: fe3a c93d e635 c8bd f566 9a3c 6993 0a3e
00000050: 702a 533e e338 e83c a99e 58be bcd2 8dbe
00000060: 75a8 b63d d740 603e fb83 d23d 07bc bc3d
00000070: 4e51 c43d be3a c73d df7f 443e 8485 f4be

last_layer.weight f4 [1, 32]
0.45901072 0.41317624 0.35180956 -0.13403043 0.2789195 0.30790868 0.3584852 -0.514037
0.428186 -0.3294786 0.4290716 -0.51832134 0.30325642 0.49564427 0.20634648 0.012452582
0.27842546 0.32084295 0.32373884 0.38776493 -0.27341008 0.28402552 -0.4454935 -0.37178183
-0.4276947 -0.39483312 0.27506298 0.45737246 -0.36065266 -0.23059678 0.35075173 -0.22864033
00000000: 7403 eb3e d68b d33e 6220 b43e 463f 09be
00000010: 89ce 8e3e 35a6 9d3e 5f8b b73e ee97 03bf
00000020: 323b db3e 6bb1 a8be 46af db3e b5b0 04bf
00000030: 6d44 9b3e 16c5 fd3e 7e4c 533e ea05 4c3c
00000040: c88d 8e3e 8745 a43e 19c1 a53e 2089 c63e
00000050: 68fc 8bbe cb6b 913e b917 e4be 305a bebe
00000060: cdfa dabe 9127 cabe 0ed5 8c3e b92c ea3e
00000070: 77a7 b8be 9021 6cbe bb95 b33e b120 6abe
